checkpoint/tag/val_best.pth (torch, 109846 bytes, 13 tensors)

gat.att_src f4 [1, 1, 64]
0.08257504 -0.2065082 -0.12545261 -0.2872069 -0.07566331 0.11438987 -0.03113595 0.005351013
0.13200285 0.021565335 0.07088904 0.26469907 -0.27273324 0.21023427 -0.2876964 0.16724485
0.010785268 0.2667284 -0.14778297 -0.2169627 -0.043741766 -0.015989123 0.21994486 -0.13505489
0.13456725 0.052434336 -0.15564004 -0.15121101 -0.1113653 0.081913464 -0.29208896 0.062498756
-0.28348157 0.27897477 0.06906859 -0.122039884 0.1387838 0.25011116 -0.03858052 0.23631771
-0.09955257 0.015994046 -0.030324178 0.05277112 0.2578782 0.30015105 -0.29253158 0.03871605
-0.2592018 -0.022294568 -0.0677801 -0.17628495 -0.14082278 0.23735842 -0.17030707 -0.113629326
-0.20429572 -0.05151646 0.18965225 -0.037542928 -0.2101654 0.013628266 -0.06930891 0.21929018
00000000: 1a1d a93d e376 53be a676 00be c80c 93be
00000010: 5ef5 9abd 3c45 ea3d d210 ffbc 8d57 af3b
00000020: c12b 073e c9a9 b03c 462e 913d a386 873e
00000030: b1a3 8bbe a747 573e f14c 93be 3c42 2b3e
00000040: b1b4 303c a090 883e 6b54 17be 782b 5ebe
00000050: 912a 33bd 9ffb 82bc 3a39 613e d44b 0abe
00000060: ffcb 093e 63c5 563d 1a60 1fbe 0fd7 1abe
00000070: 7e13 e4bd 3fc2 a73d af8c 95be b2fe 7f3d
00000080: 7f24 91be c8d5 8e3e d573 8d3d 0cf0 f9bd
00000090: 571d 0e3e 920e 803e 9b06 1ebd 45fd 713e
000000a0: 38e2 cbbd f205 833c 696a f8bc 8826 583d
000000b0: 9d08 843e 66ad 993e b3c6 95be b994 1e3d
000000c0: 19b6 84be 19a3 b6bc 4bd0 8abd 0b84 34be
000000d0: d933 10be 160e 733e fa64 2ebe 7eb6 e8bd
000000e0: e632 51be ec02 53bd 3334 423e 9dc6 19bd
000000f0: 9935 57be 1749 5f3c d4f1 8dbd 9b8d 603e

gat.att_dst f4 [1, 1, 64]
-0.022500515 0.29047942 -0.10199465 -0.2955464 0.1784633 0.13464537 -0.05418865 0.20113291
0.012782626 0.044089284 -0.07691761 0.11849861 -0.15905513 0.24287593 -0.01921989 0.0808243
-0.11640155 0.10901264 0.097825296 -0.2427733 -0.2938008 0.2746871 -0.2681959 -0.12475987
0.2707462 -0.15822864 0.13571648 -0.04509166 0.18542133 -0.1922893 -0.15826735 0.11737084
-0.1910361 -0.012227232 -0.23772386 0.18519661 0.15659466 -0.035261083 -0.20774117 -0.1362447
0.12649816 0.06287328 0.2814195 0.032305058 -0.15046968 0.21702021 0.28988 -0.020757804
-0.009321849 0.10138635 0.20599979 0.022379395 -0.16060394 -0.19569175 -0.2423149 0.0507645
-0.054577503 0.12169486 -0.2679629 -0.24500154 -0.284959 -0.044029396 -0.20006792 -0.06140263
00000000: 0053 b8bc b8b9 943e 92e2 d0bd dc51 97be
00000010: 15bf 363e 7ae0 093e ebf4 5dbd c9f5 4d3e
00000020: 386e 513c f796 343d fb86 9dbd 66af f23d
00000030: 59df 22be 78b4 783e 0873 9dbc 3687 a53d
00000040: f063 eebd 0542 df3d a158 c83d 9099 78be
00000050: 0f6d 96be caa3 8c3e f950 89be 1a82 ffbd
00000060: 3f9f 8a3e b006 22be 43f9 0a3e 08b2 38bd
00000070: 17df 3d3e 7ce7 44be d610 22be 1f60 f03d
00000080: f89e 43be ba54 48bc e26d 73be 2ea4 3d3e
00000090: 5a5a 203e ed6d 10bd 1aba 54be bb83 0bbe
000000a0: bc88 013e b5c3 803d 3716 903e 4f52 043d
000000b0: b914 1abe 8c3a 5e3e 276b 943e 450c aabc
000000c0: abba 18bc a6a3 cf3d 9cf1 523e fe54 b73c
000000d0: 5c75 24be 6b63 48be 6621 78be 70ee 4f3d
000000e0: a98c 5fbd 283b f93d 6f32 89be afe1 7abe
000000f0: 25e6 91be 2b58 34bd 9bde 4cbe 5381 7bbd

gat.bias f4 [64]
0.0019904436 -0.0031630872 -0.020076388 -0.0030381654 -0.012565768 -0.006882239 0.0013972899 -0.026745668
0.0052068126 -0.0057078856 -0.01733394 0.010742195 0.00085469673 -2.0833568e-05 0.018569719 0.020863045
0.007960006 -0.008315529 -0.013403863 0.009951948 -0.014686096 0.02922878 -0.025444936 -0.0058530313
-0.0093835695 0.0014698933 0.0075996374 -0.006505757 0.0037518172 -0.011575613 -0.023793388 -0.018393418
0.0004595142 0.011155796 0.0062619946 0.0026643453 -0.0031967722 0.009619224 0.0055907 0.024160914
0.031477716 0.022769596 0.0066523235 0.010608036 -0.010836915 -0.007446069 -0.023869606 -0.0107844835
0.0049794214 -0.0075746574 -0.027343128 -0.0012695122 0.009763504 0.006890768 0.012965993 0.0046153623
0.010496862 0.009201854 -0.03233006 0.014655983 -0.0044284216 -0.021243384 -0.023652134 -0.03156144
00000000: 1a72 023b cc4b 4fbb 3d77 a4bc f51b 47bb
00000010: a7e0 4dbc 6884 e1bb 4525 b73a bb19 dbbc
00000020: e99d aa3b 3709 bbbb e8ff 8dbc 0800 303c
00000030: ba0d 603a bfc3 aeb7 861f 983c fae8 aa3c
00000040: af6a 023c db3d 08bc e09b 5bbc 7f0d 233c
00000050: f49d 70bc 3271 ef3c e671 d0bc c9ca bfbb
00000060: 8bbd 19bc 6fa9 c03a 6106 f93b 3f2e d5bb
00000070: 0ce1 753b a4a7 3dbc 5aea c2bc cbad 96bc
00000080: f4ea f039 cdc6 363c 6b31 cd3b 4c9c 2e3b
00000090: f080 51bb f399 1d3c 3132 b73b 1ced c53c
000000a0: c7ee 003d 4e87 ba3c bcfb d93b 54cd 2d3c
000000b0: 518d 31bc 27fe f3bb 318a c3bc 67b1 30bc
000000c0: 6a2a a33b d534 f8bb b2fe dfbc c365 a6ba
000000d0: 1bf7 1f3c f4cb e13b 516f 543c 773c 973b
000000e0: 08fb 2b3c 5fc3 163c 866c 04bd a61f 703c
000000f0: 4b1c 91bb 9b06 aebc 1fc2 c1bc 9246 01bd

gat.lin_src.weight f4 [64, 4]
0.27193868 -0.005881859 -0.17264807 -0.17452729 -0.317291 0.14849101 -0.21216941 0.032060716
-0.07463149 0.14672771 -0.19769536 0.23221141 -0.01979985 -0.10770233 0.26264882 -0.008772104
0.21136464 -0.016826924 -0.034057967 -0.06770362 -0.11676499 -0.24164677 -0.07000621 0.2926925
0.2815469 -0.24216895 -0.074626416 -0.18065538 0.22476597 -0.16479804 0.1659128 0.1333177
0.10142511 -0.27753198 0.08528055 -0.27528006 -0.20280452 -0.063093744 -0.08418538 -0.24814753
-0.33867168 0.09224983 -0.18315324 0.2826501 0.23783399 -0.24666683 0.07053069 -0.07544851
-0.006023665 -0.33342943 0.14259972 0.044918366 -0.21237788 0.2983693 -0.072810374 -0.22559287
0.20944676 -0.25060812 0.25067043 -0.17801923 -0.09616254 0.0079246685 0.122250654 0.19675066
-0.20112026 0.066999905 0.12731324 -0.002567505 0.2963306 0.19740225 0.05058298 -0.1987545
-0.04552352 0.14602835 0.052149512 0.16677809 0.117726326 0.2879799 0.25596368 0.26218626
-0.07608813 0.020834813 -0.18463784 0.22767006 0.22905664 0.18095315 0.11837405 -0.015921637
-0.04110311 0.25763494 0.27407205 -0.28760386 -0.05618343 -0.24793208 0.039424203 0.048189897
-0.31667697 0.08649901 -0.24213563 0.054140273 0.06983442 -0.09892245 -0.010750676 -0.06331695
0.21768023 0.016750032 -0.2940232 0.20136634 0.22480384 -0.14707659 0.06098167 -0.14773801
-0.31039745 -0.2440879 -0.2757522 0.26438618 0.12521051 0.15363331 0.028598862 -0.081875145
-0.0110323 0.27914312 0.15746137 -0.15621498 0.00068873784 0.23749095 -0.08268793 -0.089557454
0.12200767 -0.032307558 0.12926775 -0.23920703 0.2815934 0.15713122 0.04564726 0.17929031
0.24601237 -0.2568306 -0.104468726 -0.17264792 0.19883199 -0.010224636 0.027952887 0.28761026
-0.27299258 0.0050606034 -0.12057095 0.1299987 -0.2849188 0.030055294 0.07354086 -0.257901
-0.044733174 -0.063259214 0.16245425 0.22461623 -0.3032028 0.22894403 0.09892192 -0.1534098
0.12537187 -0.061234668 -0.08344978 0.18400598 -0.24609396 -0.11544644 0.28226846 0.01359735
0.06577446 0.29228824 -0.109664746 0.12240068 0.22969873 0.026163826 -0.14256684 0.23450956
0.0027857362 -0.0815125 0.10406272 -0.284006 0.20391722 0.053558763 -0.073389605 -0.19149223
0.22719294 0.25521845 -0.23025063 0.051555917 -0.12909362 0.19067156 -0.07362554 -0.021100316
-0.30195922 -0.043016654 0.11278323 -0.03224361 -0.018016404 -0.028410433 -0.21875846 0.09042616
-0.08707088 -0.24206322 -0.13884111 0.13275434 -0.15880786 -0.1641515 0.09576328 0.27073
0.33265868 -0.22225155 -0.14338149 0.27390426 -0.24992582 -0.032786768 0.28869838 0.2512701
0.26525223 -0.048724774 0.08923748 0.18150039 -0.099048086 -0.050730616 0.18065417 0.21424904
-0.07855154 -0.12718354 0.10347847 -0.22596654 -0.019981185 0.024368813 -0.28295943 0.2300932
-0.01939075 0.08834784 -0.26645863 0.2757153 0.04509278 0.10517584 0.14556047 -0.29103452
-0.018683895 0.052097578 -0.0041254307 0.22920054 -0.17071187 0.31640264 0.16741313 -0.081149034
-0.23438522 0.2807095 -0.1038623 0.23499648 -0.05702583 -0.14746448 0.013724953 0.09774591
00000000: 8c3b 8b3e 9cbc c0bb a8ca 30be 48b7 32be
00000010: f773 a2be 070e 183e f042 59be 1952 033d
00000020: 65d8 98bd ca3f 163e a770 4abe d4c8 6d3e
00000030: 4c33 a2bc 0a93 dcbd e879 863e dfb8 0fbc
00000040: f96f 583e 9ed8 89bc 5e80 0bbd 32a8 8abd
00000050: 7c22 efbd 4072 77be 6a5f 8fbd cbdb 953e
00000060: ea26 903e 23fb 77be bcd5 98bd b9fd 38be
00000070: 0d29 663e d1c0 28be 0ce5 293e 6f84 083e
00000080: f8b7 cf3d ac18 8ebe 92a7 ae3d 82f1 8cbe
00000090: fdab 4fbe 4b37 81bd 6269 acbd 631a 7ebe
000000a0: 6066 adbe 7bed bc3d 868c 3bbe 84b7 903e
000000b0: c18a 733e 3b96 7cbe 6572 903d c084 9abd
000000c0: 2a62 c5bb 43b7 aabe a905 123e 52fc 373d
000000d0: 9679 59be dcc3 983e 9b1d 95bd d101 67be
000000e0: 3679 563e b54f 80be e057 803e ac4a 36be
000000f0: def0 c4bd 78d6 013c 8d5e fa3d 0179 493e
00000100: 78f2 4dbe 3f37 893d 675e 023e 9643 28bb
00000110: a5b8 973e d123 4a3e 1930 4f3d 4d86 4bbe
00000120: df76 3abd 7588 153e ba9a 553d e0c7 2a3e
00000130: 801a f13d 1a72 933e ac0d 833e 473d 863e
00000140: 18d4 9bbd c5ad aa3c b411 3dbe 5722 693e
00000150: d38d 6a3e c84b 393e 186e f23d 186e 82bc
00000160: bc5b 28bd bae8 833e 2c53 8c3e d040 93be
00000170: 9920 66bd e8e1 7dbe 467b 213d c562 453d
00000180: 7c23 a2be 6526 b13d 67f2 77be 31c2 5d3d
00000190: 5905 8f3d da97 cabd 9a23 30bc 51ac 81bd
000001a0: 91e7 5e3e 5d37 893c 358a 96be fa32 4e3e
000001b0: fa32 663e 3f9b 16be eac7 793d a248 17be
000001c0: 6aec 9ebe 2ef2 79be 642f 8dbe a05d 873e
000001d0: 2f37 003e 0d52 1d3e 2948 ea3c 28ae a7bd
000001e0: d2c0 34bc d9eb 8e3e 8e3d 213e d2f6 1fbe
000001f0: 6a8c 343a d430 733e 4a58 a9bd e669 b7bd
00000200: 28df f93d ee54 04bd c45e 043e b0f2 74be
00000210: 032d 903e 02e7 203e 9ff8 3a3d e197 373e
00000220: abea 7b3e 4d7f 83be b3f3 d5bd 9eca 30be
00000230: 9d9a 4b3e 3b85 27bc 74fd e43c a741 933e
00000240: afc5 8bbe 6bd3 a53b e7ed f6bd 611e 053e
00000250: e1e0 91be 8536 f63c 979c 963d 9a0b 84be
00000260: 223a 37bd 0c8e 81bd 685a 263e cc01 663e
00000270: 663d 9bbe 4e70 6a3e 9397 ca3d 7517 1dbe
00000280: 7c61 003e 34d1 7abd b8e7 aabd 106c 3c3e
00000290: 0e00 7cbe 2f6f ecbd 7e85 903e 6bc7 5e3c
000002a0: c3b4 863d cea6 953e e997 e0bd 35ad fa3d
000002b0: 2536 6b3e 8555 d63c 0bfd 11be 4623 703e
000002c0: e690 363b 07f0 a6bd d61e d53d 3c69 91be
000002d0: adcf 503e 6f60 5b3d 4a4d 96bd 8a16 44be
000002e0: 44a5 683e feab 823e d2c6 6bbe 4c2c 533d
000002f0: 1e31 04be 683f 433e fdc8 96bd 92da acbc
00000300: 669a 9abe 3b32 30bd e5fa e63d e011 04bd
00000310: 2397 93bc ffbc e8bc 3802 60be 5a31 b93d
00000320: 3852 b2bd 6cdf 77be 5d2c 0ebe c1f0 073e
00000330: 879e 22be 5517 28be 8a1f c43d 1f9d 8a3e
00000340: 3d52 aa3e e995 63be 99d2 12be 2e3d 8c3e
00000350: 8eec 7fbe 6b4b 06bd 46d0 933e 79a6 803e
00000360: 24cf 873e a193 47bd 24c2 b63d 3ddb 393e
00000370: b9d9 cabd e8ca 4fbd 68fd 383e 1a64 5b3e
00000380: a1df a0bd 673c 02be 85ec d33d c663 67be
00000390: 95af a3bc 1ba1 c73c 0fe0 90be 8d9d 6b3e
000003a0: 5ad9 9ebc b6ef b43d 446d 88be 8e2a 8d3e
000003b0: 35b3 383d 6e66 d73d ce0d 153e 7a02 95be
000003c0: f80e 99bc 4564 553d 9f2e 87bb 8cb3 6a3e
000003d0: 18cf 2ebe 87ff a13e 596e 2b3e 7731 a6bd
000003e0: ae02 70be 28b9 8f3e c2b5 d4bd eba2 703e
000003f0: eb93 69bd ee00 17be a0de 603c 022f c83d

gat.lin_dst.weight f4 [64, 4]
0.27193868 -0.005881859 -0.17264807 -0.17452729 -0.317291 0.14849101 -0.21216941 0.032060716
-0.07463149 0.14672771 -0.19769536 0.23221141 -0.01979985 -0.10770233 0.26264882 -0.008772104
0.21136464 -0.016826924 -0.034057967 -0.06770362 -0.11676499 -0.24164677 -0.07000621 0.2926925
0.2815469 -0.24216895 -0.074626416 -0.18065538 0.22476597 -0.16479804 0.1659128 0.1333177
0.10142511 -0.27753198 0.08528055 -0.27528006 -0.20280452 -0.063093744 -0.08418538 -0.24814753
-0.33867168 0.09224983 -0.18315324 0.2826501 0.23783399 -0.24666683 0.07053069 -0.07544851
-0.006023665 -0.33342943 0.14259972 0.044918366 -0.21237788 0.2983693 -0.072810374 -0.22559287
0.20944676 -0.25060812 0.25067043 -0.17801923 -0.09616254 0.0079246685 0.122250654 0.19675066
-0.20112026 0.066999905 0.12731324 -0.002567505 0.2963306 0.19740225 0.05058298 -0.1987545
-0.04552352 0.14602835 0.052149512 0.16677809 0.117726326 0.2879799 0.25596368 0.26218626
-0.07608813 0.020834813 -0.18463784 0.22767006 0.22905664 0.18095315 0.11837405 -0.015921637
-0.04110311 0.25763494 0.27407205 -0.28760386 -0.05618343 -0.24793208 0.039424203 0.048189897
-0.31667697 0.08649901 -0.24213563 0.054140273 0.06983442 -0.09892245 -0.010750676 -0.06331695
0.21768023 0.016750032 -0.2940232 0.20136634 0.22480384 -0.14707659 0.06098167 -0.14773801
-0.31039745 -0.2440879 -0.2757522 0.26438618 0.12521051 0.15363331 0.028598862 -0.081875145
-0.0110323 0.27914312 0.15746137 -0.15621498 0.00068873784 0.23749095 -0.08268793 -0.089557454
0.12200767 -0.032307558 0.12926775 -0.23920703 0.2815934 0.15713122 0.04564726 0.17929031
0.24601237 -0.2568306 -0.104468726 -0.17264792 0.19883199 -0.010224636 0.027952887 0.28761026
-0.27299258 0.0050606034 -0.12057095 0.1299987 -0.2849188 0.030055294 0.07354086 -0.257901
-0.044733174 -0.063259214 0.16245425 0.22461623 -0.3032028 0.22894403 0.09892192 -0.1534098
0.12537187 -0.061234668 -0.08344978 0.18400598 -0.24609396 -0.11544644 0.28226846 0.01359735
0.06577446 0.29228824 -0.109664746 0.12240068 0.22969873 0.026163826 -0.14256684 0.23450956
0.0027857362 -0.0815125 0.10406272 -0.284006 0.20391722 0.053558763 -0.073389605 -0.19149223
0.22719294 0.25521845 -0.23025063 0.051555917 -0.12909362 0.19067156 -0.07362554 -0.021100316
-0.30195922 -0.043016654 0.11278323 -0.03224361 -0.018016404 -0.028410433 -0.21875846 0.09042616
-0.08707088 -0.24206322 -0.13884111 0.13275434 -0.15880786 -0.1641515 0.09576328 0.27073
0.33265868 -0.22225155 -0.14338149 0.27390426 -0.24992582 -0.032786768 0.28869838 0.2512701
0.26525223 -0.048724774 0.08923748 0.18150039 -0.099048086 -0.050730616 0.18065417 0.21424904
-0.07855154 -0.12718354 0.10347847 -0.22596654 -0.019981185 0.024368813 -0.28295943 0.2300932
-0.01939075 0.08834784 -0.26645863 0.2757153 0.04509278 0.10517584 0.14556047 -0.29103452
-0.018683895 0.052097578 -0.0041254307 0.22920054 -0.17071187 0.31640264 0.16741313 -0.081149034
-0.23438522 0.2807095 -0.1038623 0.23499648 -0.05702583 -0.14746448 0.013724953 0.09774591
00000000: 8c3b 8b3e 9cbc c0bb a8ca 30be 48b7 32be
00000010: f773 a2be 070e 183e f042 59be 1952 033d
00000020: 65d8 98bd ca3f 163e a770 4abe d4c8 6d3e
00000030: 4c33 a2bc 0a93 dcbd e879 863e dfb8 0fbc
00000040: f96f 583e 9ed8 89bc 5e80 0bbd 32a8 8abd
00000050: 7c22 efbd 4072 77be 6a5f 8fbd cbdb 953e
00000060: ea26 903e 23fb 77be bcd5 98bd b9fd 38be
00000070: 0d29 663e d1c0 28be 0ce5 293e 6f84 083e
00000080: f8b7 cf3d ac18 8ebe 92a7 ae3d 82f1 8cbe
00000090: fdab 4fbe 4b37 81bd 6269 acbd 631a 7ebe
000000a0: 6066 adbe 7bed bc3d 868c 3bbe 84b7 903e
000000b0: c18a 733e 3b96 7cbe 6572 903d c084 9abd
000000c0: 2a62 c5bb 43b7 aabe a905 123e 52fc 373d
000000d0: 9679 59be dcc3 983e 9b1d 95bd d101 67be
000000e0: 3679 563e b54f 80be e057 803e ac4a 36be
000000f0: def0 c4bd 78d6 013c 8d5e fa3d 0179 493e
00000100: 78f2 4dbe 3f37 893d 675e 023e 9643 28bb
00000110: a5b8 973e d123 4a3e 1930 4f3d 4d86 4bbe
00000120: df76 3abd 7588 153e ba9a 553d e0c7 2a3e
00000130: 801a f13d 1a72 933e ac0d 833e 473d 863e
00000140: 18d4 9bbd c5ad aa3c b411 3dbe 5722 693e
00000150: d38d 6a3e c84b 393e 186e f23d 186e 82bc
00000160: bc5b 28bd bae8 833e 2c53 8c3e d040 93be
00000170: 9920 66bd e8e1 7dbe 467b 213d c562 453d
00000180: 7c23 a2be 6526 b13d 67f2 77be 31c2 5d3d
00000190: 5905 8f3d da97 cabd 9a23 30bc 51ac 81bd
000001a0: 91e7 5e3e 5d37 893c 358a 96be fa32 4e3e
000001b0: fa32 663e 3f9b 16be eac7 793d a248 17be
000001c0: 6aec 9ebe 2ef2 79be 642f 8dbe a05d 873e
000001d0: 2f37 003e 0d52 1d3e 2948 ea3c 28ae a7bd
000001e0: d2c0 34bc d9eb 8e3e 8e3d 213e d2f6 1fbe
000001f0: 6a8c 343a d430 733e 4a58 a9bd e669 b7bd
00000200: 28df f93d ee54 04bd c45e 043e b0f2 74be
00000210: 032d 903e 02e7 203e 9ff8 3a3d e197 373e
00000220: abea 7b3e 4d7f 83be b3f3 d5bd 9eca 30be
00000230: 9d9a 4b3e 3b85 27bc 74fd e43c a741 933e
00000240: afc5 8bbe 6bd3 a53b e7ed f6bd 611e 053e
00000250: e1e0 91be 8536 f63c 979c 963d 9a0b 84be
00000260: 223a 37bd 0c8e 81bd 685a 263e cc01 663e
00000270: 663d 9bbe 4e70 6a3e 9397 ca3d 7517 1dbe
00000280: 7c61 003e 34d1 7abd b8e7 aabd 106c 3c3e
00000290: 0e00 7cbe 2f6f ecbd 7e85 903e 6bc7 5e3c
000002a0: c3b4 863d cea6 953e e997 e0bd 35ad fa3d
000002b0: 2536 6b3e 8555 d63c 0bfd 11be 4623 703e
000002c0: e690 363b 07f0 a6bd d61e d53d 3c69 91be
000002d0: adcf 503e 6f60 5b3d 4a4d 96bd 8a16 44be
000002e0: 44a5 683e feab 823e d2c6 6bbe 4c2c 533d
000002f0: 1e31 04be 683f 433e fdc8 96bd 92da acbc
00000300: 669a 9abe 3b32 30bd e5fa e63d e011 04bd
00000310: 2397 93bc ffbc e8bc 3802 60be 5a31 b93d
00000320: 3852 b2bd 6cdf 77be 5d2c 0ebe c1f0 073e
00000330: 879e 22be 5517 28be 8a1f c43d 1f9d 8a3e
00000340: 3d52 aa3e e995 63be 99d2 12be 2e3d 8c3e
00000350: 8eec 7fbe 6b4b 06bd 46d0 933e 79a6 803e
00000360: 24cf 873e a193 47bd 24c2 b63d 3ddb 393e
00000370: b9d9 cabd e8ca 4fbd 68fd 383e 1a64 5b3e
00000380: a1df a0bd 673c 02be 85ec d33d c663 67be
00000390: 95af a3bc 1ba1 c73c 0fe0 90be 8d9d 6b3e
000003a0: 5ad9 9ebc b6ef b43d 446d 88be 8e2a 8d3e
000003b0: 35b3 383d 6e66 d73d ce0d 153e 7a02 95be
000003c0: f80e 99bc 4564 553d 9f2e 87bb 8cb3 6a3e
000003d0: 18cf 2ebe 87ff a13e 596e 2b3e 7731 a6bd
000003e0: ae02 70be 28b9 8f3e c2b5 d4bd eba2 703e
000003f0: eb93 69bd ee00 17be a0de 603c 022f c83d

gru.weight_ih_l0 f4 [192, 64]
-0.07039741 0.0019927009 0.09190035 0.11194436 0.029905824 -0.12298221 -0.102897845 0.123578824
0.070620105 0.11837667 0.12262628 0.03002537 0.08186 -0.084019415 -0.06639236 -0.024796987
-0.08742211 0.082203574 -0.11662745 -0.020556124 -0.08287341 0.038901087 -0.0016787747 0.05456384
0.027430987 -0.0020881167 0.08239954 0.10977328 0.06233594 0.03576148 0.07944885 -0.014377864
-0.011872334 -0.007003732 0.11496948 -0.018256066 -0.07118334 0.06798983 0.111718886 0.030863233
0.04315568 -0.018175252 0.012362365 0.11071397 -0.102336444 -0.062932804 0.057948682 -0.013988234
0.046475876 -0.04421138 -0.11034785 0.07325677 0.03435682 0.08560029 0.091780156 0.036658037
-0.014384075 -0.11817913 0.09363495 0.017258199 0.10360198 -0.07570421 -0.060478546 -0.11216188
0.022803629 0.08463705 -0.0643715 0.022463981 -0.021977343 -0.02854975 0.014460575 0.11891777
-0.07594696 0.11753508 0.04559956 -0.022863215 -0.042432588 -0.03969472 -0.011419384 -0.09173037
-0.0031862196 -0.08551147 0.07985857 -0.08513031 -0.10404001 0.07349004 0.10655395 -0.09910797
0.03345 0.11788112 -0.013530937 0.02186645 0.11551998 0.027540099 0.03633373 -0.008242078
0.046763875 0.117804796 -0.123880416 0.00979646 -0.045594737 -0.010936621 0.054478955 0.017634142
0.08473845 0.011530143 -0.07426656 0.06703146 0.039583948 -0.094053656 0.021184316 -0.10990537
-0.06655224 -0.055617813 -0.11155508 -0.07665371 -0.033448156 -0.06413457 0.0026461913 -0.060273014
-0.025835698 0.07859131 -0.03354594 0.050824326 -0.020157393 -0.09072641 0.07274729 0.018456321
0.023529163 -0.10866428 0.01494559 0.08477546 0.123854764 0.08735916 0.03942555 -0.105867505
0.0072696735 0.0848565 0.10259641 -0.018204018 -0.05500294 0.037167907 -0.0042690453 -0.08336191
-0.07696685 -0.07150285 -0.08736546 0.11424687 0.04233453 -0.026062308 0.12034442 -0.10636028
-0.07543282 -0.028403567 0.052819088 -0.124288015 0.111696936 0.01219542 0.08453267 0.08505137
-0.007395801 0.052871242 0.009618009 -0.072587185 -0.027306154 -0.102090105 0.10030936 -0.10605236
0.0064941817 0.0007275926 0.017997188 0.031996265 -0.04829854 0.103131264 0.062023427 -0.05808357
-0.08019208 -0.11114128 0.029684635 0.057317384 0.1023397 -0.060334478 -0.060084876 -0.022693869
-0.1214956 -0.023640325 -0.086529665 -0.062941775 0.058131598 -0.12190903 0.070438236 -0.11699704
0.07495197 -0.11641586 0.07790545 -0.009523848 -0.06595617 -0.0037196293 0.0676311 0.079326265
0.06641099 -0.009928791 0.08728433 0.111759126 0.05532836 0.06881008 -0.040400196 -0.11179241
0.0672314 -0.11542453 0.07877899 -0.07623014 -0.11377877 0.052937806 0.08342331 0.006152202
0.09236408 -0.042273078 -0.016321309 0.10764421 -0.041234404 -0.0072234934 0.060519446 -0.085775636
-0.083863184 0.017782506 0.11466215 0.03677129 -0.061002426 0.1060855 0.044189043 -0.101663515
-0.029727668 -0.020692023 -0.02879321 -0.11492159 0.07924834 0.0072160726 0.11928247 -0.012374217
-0.10953743 0.054085482 -0.08703765 -0.11377529 0.069892555 -0.11353106 -0.07527325 -0.10063593
-0.022350013 -0.015241155 -0.01843296 -0.105442114 0.025357984 0.04327837 0.08639857 0.07334297
00000000: 842c 90bd f997 023b 4036 bc3d 1643 e53d
00000010: 0ffd f43c 19de fbbd 1bbc d2bd e516 fd3d
00000020: 46a1 903d 786f f23d 7d23 fb3d c4f7 f53c
00000030: 37a6 a73d 5f12 acbd b8f8 87bd 0d23 cbbc
00000040: 5d0a b3bd 595a a83d 5fda eebd 5165 a8bc
00000050: 89b9 a9bd bf56 1f3d 550a dcba 557e 5f3d
00000060: f3b6 e03c c9d8 08bb 17c1 a83d d0d0 e03d
00000070: f853 7f3d a17a 123d 14b6 a23d 2291 6bbc
00000080: 2e84 42bc 907f e5bb 1e75 eb3d bf8d 95bc
00000090: 92c8 91bd 413e 8b3d dfcc e43d e4d4 fc3c
000000a0: 03c4 303d 44e4 94bc 848b 4a3c 02be e23d
000000b0: c595 d1bd eae2 80bd 995b 6d3d e82e 65bc
000000c0: 7d5d 3e3d fe16 35bd 0efe e1bd a507 963d
000000d0: bdb9 0c3d 344f af3d 3cf7 bb3d bd26 163d
000000e0: 2fab 6bbc e607 f2bd aec3 bf3d 1161 8d3c
000000f0: 462d d43d cf0a 9bbd 5ab8 77bd 21b5 e5bd
00000100: adce ba3c 3156 ad3d 34d5 83bd 6206 b83c
00000110: d409 b4bc 2ae1 e9bc 0cec 6c3c 298b f33d
00000120: 148a 9bbd 3bb6 f03d 9bc6 3a3d a34b bbbc
00000130: cbcd 2dbd ee96 22bd 5e18 3bbc 22dd bbbd
00000140: e5cf 50bb a320 afbd e48c a33d cd58 aebd
00000150: ee12 d5bd f281 963d f538 da3d 1ff9 cabd
00000160: de02 093d a86b f13d ddb0 5dbc 4521 b33c
00000170: bd95 ec3d c69b e13c add2 143d c809 07bc
00000180: 7a8b 3f3d a443 f13d 04b5 fdbd 5581 203c
00000190: 8cc1 3abd 832f 33bc 5325 5f3d 7a75 903c
000001a0: 5a8b ad3d ede8 3c3c 1119 98bd ca47 893d
000001b0: c722 223d 349f c0bd bb8a ad3c 1116 e1bd
000001c0: 8a4c 88bd 81cf 63bd fd76 e4bd 9ffc 9cbd
000001d0: ef00 09bd fc58 83bd b96b 2d3b d6e0 76bd
000001e0: 63a5 d3bc 7bf4 a03d 7867 09bd 2b2d 503d
000001f0: 1e21 a5bc c5ce b9bd 88fc 943d b631 973c
00000200: 3bc0 c03c 618b debd 59de 743c c29e ad3d
00000210: 91a7 fd3d 5ce9 b23d af7c 213d 10d1 d8bd
00000220: 7136 ee3b 3fc9 ad3d 111e d23d 9820 95bc
00000230: c34a 61bd 603d 183d 59e3 8bbb a6b9 aabd
00000240: cca0 9dbd 1670 92bd aaec b2bd 43fa e93d
00000250: f966 2d3d 9f80 d5bc 2377 f63d 6bd3 d9bd
00000260: 867c 9abd 99ae e8bc d458 583d b78a febd
00000270: 5dc1 e43d 4dcf 473c 771f ad3d 6a2f ae3d
00000280: 7a58 f2bb 848f 583d db94 1d3c 97a8 94bd
00000290: 28b1 dfbc 9e14 d1bd fe6e cd3d fb31 d9bd
000002a0: 25cd d43b eabb 3e3a d76e 933c 840e 033d
000002b0: b1d4 45bd 7c36 d33d 470c 7e3d 0ae9 6dbd
000002c0: bf3b a4bd 0a9e e3bd 312d f33c a2c5 6a3d
000002d0: 7a97 d13d 4921 77bd 8f1b 76bd 7ee8 b9bc
000002e0: afd2 f8bd 5ba9 c1bc 7736 b1bd 9ee7 80bd
000002f0: 661b 6e3d 71ab f9bd ec41 903d 259c efbd
00000300: 6b80 993d 706b eebd e48c 9f3d ea09 1cbc
00000310: 0714 87bd 06c5 73bb 2d82 8a3d cf75 a23d
00000320: 7c02 883d 5eac 22bc 20c2 b23d f8e1 e43d
00000330: fe9f 623d 4dec 8c3d ad7a 25bd 6bf3 e4bd
00000340: 9eb0 893d b263 ecbd e156 a13d 8c1e 9cbd
00000350: d804 e9bd 50d5 583d d7d9 aa3d 6998 c93b
00000360: 6129 bd3d 8926 2dbd 44b4 85bc 9174 dc3d
00000370: 68e5 28bd 0eb3 ecbb 3de3 773d 23ab afbd
00000380: 76c0 abbd 9eac 913c fdd3 ea3d 7e9d 163d
00000390: aedd 79bd 5b43 d93d 92ff 343d f634 d0bd
000003a0: 7087 f3bc 5182 a9bc bddf ebbc 035c ebbd
000003b0: f44c a23d ce74 ec3b 5e4a f43d 3abd 4abc
000003c0: 2955 e0bd bd88 5d3d cc40 b2bd 0503 e9bd
000003d0: d423 8f3d f982 e8bd dd28 9abd 361a cebd
000003e0: 6017 b7bc 0ab6 79bc b800 97bc 09f2 d7bd
000003f0: 8cbb cf3c a944 313d bcf1 b03d d734 963d

gru.weight_hh_l0 f4 [192, 64]
0.01236854 -0.093945384 0.0637389 -0.04496839 -0.0074051875 0.06200372 -0.10518103 0.018451784
0.12375214 -0.05989462 -0.022089353 0.09549518 -0.08882159 0.03227505 -0.058199897 -0.030806603
0.014369315 0.05552109 0.03802085 0.098518245 -0.07178654 0.04844584 -0.08383545 0.11359593
0.020754358 0.035088528 0.0052837105 0.040050425 -0.021337725 0.024674991 0.019079944 0.008834027
0.080830716 0.07846705 0.05429079 -0.005626359 0.0011352765 -0.021456126 0.04269387 -0.0706752
-0.121683575 -0.0011155308 -0.103004396 -0.023955846 -0.09868828 -0.05478576 0.030322943 0.1091426
0.119675204 -0.05471658 -0.08153838 0.114775345 -0.07437478 -0.07536864 0.06715951 -0.088138625
-0.05406169 -0.060548134 0.042631418 0.10673191 -0.0085809 0.030322904 -0.07868263 0.062471777
0.056936197 0.0041365246 -0.071653955 -0.040423878 -0.09268471 -0.082381144 0.029386364 -0.022006605
0.036606047 0.031890128 -0.09082578 -0.09064839 -0.100886196 0.10900841 -0.028317701 0.010075473
-0.06521374 -0.016856901 -0.12467277 0.09892166 -0.11529867 0.011088111 0.05845129 -0.007173493
0.06548111 0.036307298 0.06319618 0.06472888 0.112759955 -0.020224782 -0.07525945 -0.008559238
0.004893904 -0.051614944 -0.06269258 0.021024823 0.03268224 0.078516535 -0.010884958 0.036867857
0.09600552 -0.115904264 -0.12419439 -0.04359314 -0.11559496 -0.057288554 -0.077482216 0.0211522
0.025849285 -0.0034787478 0.01559375 0.1119284 -0.01942713 -0.031134263 0.06270698 -0.049295798
-0.099900894 0.061104365 0.05526035 0.09222383 0.05732432 -0.07597254 0.08729029 0.049940716
0.08024066 -0.0978238 -0.09336707 0.121802114 -0.030057797 -0.024143761 0.04666097 0.017971663
0.08403148 -0.12473077 0.110574275 -0.08700483 -0.10684689 0.010631096 -0.09827419 -0.07510624
-0.07798975 -0.037905417 -0.11635682 -0.043439656 -0.024997909 0.039149936 0.098754905 -0.015062342
0.08293209 0.06893858 -0.033978585 -0.09237146 0.025658932 0.05299258 0.086655915 -0.074922256
-0.0691142 0.09387065 -0.029502094 -0.06098364 0.1055172 -0.06887805 0.11336223 0.028490083
-0.03465781 0.07224471 0.05447674 -0.023119448 0.106295556 0.008857908 0.07397153 -0.043802496
0.09811031 -0.043574374 -0.11636692 -0.03255058 -0.08870388 0.039185304 -0.009904346 -0.082178906
0.020536859 -0.105092004 0.016020196 -0.11499907 0.11634056 -0.0556137 -0.01336388 0.025452495
-0.055111278 -0.11632806 -0.060104307 0.009715161 0.010445664 -0.10235184 -0.06135344 -0.03648162
-0.027605549 0.06765705 -0.04719731 -0.05361956 0.08978021 -0.116686724 0.00027140067 -0.021441316
0.047599237 0.022081207 0.027827771 -0.019038597 0.07442807 -0.045363896 0.028836705 0.10806581
-0.0027539288 0.104651086 0.006855734 0.05783143 0.023819832 0.101948425 0.095370725 0.062207043
-0.054945808 0.00749681 -0.10519393 0.07495076 0.01871956 0.09076937 0.028894538 -0.03421321
0.12433398 -0.094628416 0.0973851 0.03574899 -0.0923439 -0.0086314315 0.11297994 0.08688877
-0.10706746 -0.007931828 -0.12163825 0.09203172 -0.032704223 -0.024693964 -0.09249967 -0.06033528
0.018250385 -0.064955726 0.053964805 -0.09381634 0.062837265 -0.11191484 -0.03405529 -0.09536858
00000000: 6ba5 4a3c 7066 c0bd 8a89 823d c630 38bd
00000010: 37a7 f2bb 9df7 7d3d 2769 d7bd 3228 973c
00000020: c371 fd3d 1054 75bd bbf4 b4bc fa92 c33d
00000030: 18e8 b5bd d832 043d 0463 6ebd 215e fcbc
00000040: 466d 6b3c 156a 633d c0bb 1b3d efc3 c93d
00000050: d204 93bd 256f 463d ecb1 abbd fca4 e83d
00000060: 0b05 aa3c fdb8 0f3d fa22 ad3b ea0b 243d
00000070: 74cc aebc 3523 ca3c 8b4d 9c3c 98bc 103c
00000080: 938a a53d 55b3 a03d 0560 5e3d 525d b8bb
00000090: 8fcd 943a c2c4 afbc c4df 2e3d 29be 90bd
000000a0: 3d35 f9bd 0137 92ba f8f3 d2bd 0d3f c4bc
000000b0: 151d cabd 0867 60bd d267 f83c 2886 df3d
000000c0: 4618 f53d 7e1e 60bd 98fd a6bd 560f eb3d
000000d0: ce51 98bd e05a 9abd ed8a 893d 0682 b4bd
000000e0: ca6f 5dbd 5201 78bd 489e 2e3d 4296 da3d
000000f0: e796 0cbc bd67 f83c 5c24 a1bd 68e2 7f3d
00000100: ee35 693d af8b 873b 4fbf 92bd 8293 25bd
00000110: 7bd1 bdbd 72b7 a8bd acbb f03c 3247 b4bc
00000120: 39f0 153d 399f 023d de02 babd dda5 b9bd
00000130: 6c9d cebd cd3f df3d 86fa e7bc 9913 253c
00000140: c88e 85bd 7c17 8abc 7054 ffbd 7097 ca3d
00000150: b621 ecbd e9aa 353c 9f6a 6f3d 9f0f ebbb
00000160: f61a 863d f6b6 143d 006d 813d 9390 843d
00000170: b1ee e63d 71ae a5bc a021 9abd 0c3c 0cbc
00000180: 0b5d a03b 316a 53bd f864 80bd 403c ac3c
00000190: d0dd 053d 47cd a03d d356 32bc c002 173d
000001a0: 8b9e c43d 375f edbd a159 febd b88e 32bd
000001b0: 0dbd ecbd 67a7 6abd ffae 9ebd 6147 ad3c
000001c0: e1c1 d33c b4fb 63bb ee7c 7f3c b83a e53d
000001d0: a525 9fbc 480d ffbc 846c 803d 64ea 49bd
000001e0: d798 ccbd 9248 7a3d ad58 623d d9df bc3d
000001f0: e8cc 6a3d 7e97 9bbd 40c5 b23d a38e 4c3d
00000200: 3755 a43d d857 c8bd 3c37 bfbd 6373 f93d
00000210: c53b f6bc 23c9 c5bc 931f 3f3d 4f39 933c
00000220: b218 ac3d d972 ffbd c474 e23d 972f b2bd
00000230: 8bd2 dabd 0c2e 2e3c fb43 c9bd 4dd1 99bd
00000240: 17b9 9fbd b642 1bbd 7c4c eebd c8ed 31bd
00000250: 6ac8 ccbc af5b 203d 0340 ca3d 0bc8 76bc
00000260: 4dd8 a93d ac2f 8d3d 212d 0bbd 3f2d bdbd
00000270: ae32 d23c bf0e 593d a878 b13d d770 99bd
00000280: bf8b 8dbd 413f c03d 60ae f1bc fbc9 79bd
00000290: 6719 d83d ef0f 8dbd 752a e83d 0964 e93c
000002a0: 59f5 0dbd 09f5 933d 0123 5f3d ff64 bdbc
000002b0: 7cb1 d93d c220 113c 637e 973d 3f6a 33bd
000002c0: 0fee c83d 0b7b 32bd c851 eebd c253 05bd
000002d0: 61aa b5bd c580 203d d745 22bc 6a4d a8bd
000002e0: ea3c a83c 7a3a d7bd c93c 833c a284 ebbd
000002f0: f643 ee3d 31cb 63bd 2df4 5abc c081 d03c
00000300: 5dbc 61bd 683d eebd ef2f 76bd 572c 1f3c
00000310: 4a24 2b3c d79d d1bd bf4d 7bbd c06d 15bd
00000320: 0825 e2bc c88f 8a3d f751 41bd 2fa0 5bbd
00000330: b0de b73d 73f9 eebd c84a 8e39 b3a5 afbc
00000340: 6bf7 423d a6e3 b43c 11f7 e33c d5f6 9bbc
00000350: be6d 983d 7ecf 39bd f43a ec3c 9b51 dd3d
00000360: 427b 34bb 4f53 d63d 11a6 e03b a6e0 6c3d
00000370: cf21 c33c 56ca d03d ba51 c33d d0cc 7e3d
00000380: db0e 61bd cda7 f53b ea6f d7bd c97f 993d
00000390: c359 993c 4be5 b93d 3db4 ec3c 2723 0cbd
000003a0: d0a2 fe3d 8bcc c1bd d771 c73d 886d 123d
000003b0: cc1e bdbd d96a 0dbc 0762 e73d bdf2 b13d
000003c0: 2f46 dbbd 7ff4 01bc 7a1d f9bd 207b bc3d
000003d0: ddf4 05bd ff4a cabc 7870 bdbd 2022 77bd
000003e0: d581 953c 8207 85bd 330a 5d3d c822 c0bd
000003f0: d3b0 803d 9c33 e5bd 8f7d 0bbd 9a50 c3bd

gru.bias_ih_l0 f4 [192]
0.083826035 -0.042845625 -0.0074754017 0.10321154 -0.07166786 -0.07088274 0.026342893 0.059082404
0.050867964 -0.024035979 0.0026282845 -0.06884912 0.013646171 -0.063947156 0.108484596 -0.04893274
0.06274628 0.01337771 -0.067396 -0.06033104 -0.0046483506 -0.0059871026 -0.03364685 0.11640252
-0.08460122 -0.019526966 -0.068311386 0.08090964 -0.054592036 -0.049287982 0.1135303 0.01074002
0.12038441 -0.07202684 -0.049833644 -0.112892315 -0.05105255 -0.10420859 -0.12348734 0.12328593
-0.08833289 -0.06939638 0.01375067 -0.04370182 -0.06523895 0.006820511 0.012411835 0.08689422
-0.109692864 -0.03960507 0.038960364 0.06918974 0.04072939 0.08695957 0.075030744 0.026936518
0.042091534 -0.020211183 -0.09225318 0.024810735 -0.07930793 -0.08469825 -0.11503471 0.06837188
0.0733581 0.0013023699 0.11250699 -0.11137818 0.008705163 -0.0908767 0.12449674 -0.03655988
0.08086578 -0.035008 -0.10550618 0.051296227 0.016965818 -0.062776424 -0.029267939 0.024101451
0.048739556 -0.047852915 -0.06836843 0.10471133 0.026314728 -0.106988735 0.006502342 0.017044688
0.08271708 -0.07340159 -0.0023637533 -0.112114765 0.117736116 0.1036051 0.037908845 -0.065284446
-0.05899332 0.031593338 0.0019781734 0.043211084 0.06576711 0.02219502 -0.021444986 0.115075216
-0.110333726 -0.015901404 -0.06774484 -0.103428 -0.089079276 0.048232336 -0.07015578 -0.0035955636
-0.07672401 -0.07082045 -0.07890529 0.00844119 -0.017131716 -0.029464923 -0.093733 0.09698718
-0.08394527 0.097731896 0.0714606 -0.08041645 0.015312917 0.083820045 -0.11490055 -0.09088865
0.07567199 0.016100995 0.053575065 -0.10913661 0.055830732 -0.15856318 -0.09107332 0.09029999
-0.06507236 0.14715768 -0.063933566 -0.085765705 -0.10618281 -0.09965321 -0.06467851 -0.09392897
-0.13753857 0.034889407 0.07208912 -0.15682934 -0.067758866 -0.086289324 -0.05027841 0.039214477
-0.10859347 -0.10061235 -0.11122978 0.05856831 -0.010513661 0.11570266 0.064892 -0.11580952
0.002552913 0.09444578 0.11564136 0.122533865 0.13731654 -0.06887212 -0.082523756 -0.02429149
0.096999794 -0.006682259 -0.12636155 0.089031264 0.11333456 0.029438362 0.067681074 -0.013605819
0.06099347 0.0029552698 -0.0019737927 0.13429938 0.03635819 0.082538195 0.08670344 0.006362539
-0.1186413 0.06038433 0.025313605 -0.011108018 0.0033627257 0.025017861 0.0064959065 -0.03631709
00000000: fcac ab3d e57e 2fbd 37f4 f4bb 9260 d33d
00000010: 99c6 92bd f82a 91bd 0dcd d73c 6400 723d
00000020: ed5a 503d 1ae7 c4bc 4c3f 2c3b c400 8dbd
00000030: 3194 5f3c baf6 82bd 2c2d de3d b26d 48bd
00000040: 1f81 803d 2f2e 5b3c ea06 8abd ae1d 77bd
00000050: 3151 98bb 752f c4bb 48d1 09bd 7264 ee3d
00000060: 6843 adbd 04f7 9fbc d7e6 8bbd f4b3 a53d
00000070: e69b 5fbd 32e2 49bd 9382 e83d e9f6 2f3c
00000080: 1a8c f63d cf82 93bd 5d1e 4cbd 1634 e7bd
00000090: 7b1c 51bd 506b d5bd eee6 fcbd 557d fc3d
000000a0: e0e7 b4bd b01f 8ebd 7d4a 613c ae00 33bd
000000b0: 009c 85bd 987e df3b 025b 4b3c 99f5 b13d
000000c0: a7a6 e0bd ed38 22bd e794 1f3d 5ab3 8d3d
000000d0: dcd3 263d dc17 b23d b8a9 993d f9a9 dc3c
000000e0: 2c68 2c3d ec91 a5bc 3cef bcbd e23f cb3c
000000f0: 326c a2bd 4776 adbd 5197 ebbd 8e06 8c3d
00000100: c63c 963d 48b4 aa3a 116a e63d 3e1a e4bd
00000110: 1aa0 0e3c 901d babd 26f8 fe3d d0bf 15bd
00000120: f59c a53d 8c64 0fbd a013 d8bd fe1b 523d
00000130: e6fb 8a3c ed90 80bd 51c3 efbc 6870 c53c
00000140: 21a3 473d 6b01 44bd bf04 8cbd e572 d63d
00000150: fc91 d73c e91c dbbd 9911 d53b 4da1 8b3c
00000160: 9367 a93d 9353 96bd 33e9 1abb 6d9c e5bd
00000170: a21f f13d e92e d43d 4e46 1b3d dab3 85bd
00000180: fba2 71bd 0468 013d 3ea4 013b 1bfe 303d
00000190: e8b0 863d 55d2 b53c 65ad afbc 8eac eb3d
000001a0: a6f6 e1bd a943 82bc cfbd 8abd 0fd2 d3bd
000001b0: 326f b6bd 458f 453d d5ad 8fbd 8ca3 6bbb
000001c0: 7a21 9dbd 500a 91bd 1999 a1bd eb4c 0a3c
000001d0: d057 8cbc 6c60 f1bc 16f7 bfbd 37a1 c63d
000001e0: 7feb abbd a927 c83d ef59 923d 61b1 a4bd
000001f0: 07e3 7a3c d8a9 ab3d fb50 ebbd d423 babd
00000200: ebf9 9a3d 3ce6 833c 8771 5b3d 0483 dfbd
00000210: c4ae 643d 635e 22be a684 babd 33ef b83d
00000220: a844 85bd 81b0 163e 9aef 82bd eea5 afbd
00000230: 6076 d9bd fb16 ccbd 2b76 84bd d55d c0bd
00000240: e9d6 0cbe 32e8 0e3d 76a3 933d df97 20be
00000250: 29c5 8abd 75b8 b0bd bcf0 4dbd 5c9f 203d
00000260: 4166 debd d90d cebd 70cc e3bd 53e5 6f3d
00000270: 7e41 2cbc 84f5 ec3d 19e6 843d 8b2d edbd
00000280: c64e 273b ca6c c13d 61d5 ec3d 09f3 fa3d
00000290: b59c 0c3e d30c 8dbd 3702 a9bd f2fe c6bc
000002a0: d4a7 c63d daf6 dabb ec64 01be 0656 b63d
000002b0: f31b e83d b828 f13c 609c 8a3d f1ea 5ebc
000002c0: 4ad4 793d 33ad 413b bf5a 01bb c785 093e
000002d0: 53ec 143d c909 a93d 9391 b13d d87c d03b
000002e0: 36fa f2bd 8f55 773d 7a5e cf3c 68fe 35bc
000002f0: 2d61 5c3b 42f2 cc3c 9ddb d43b 3bc1 14bd

gru.bias_hh_l0 f4 [192]
-0.02561242 0.026531687 0.12333161 0.08412196 -0.02421951 0.030483935 -0.047777023 0.09267914
-0.08693294 0.07508294 -0.020381814 -0.086696416 -0.009217679 -0.034989703 0.011355059 -0.037137054
0.07632691 0.007891484 -0.09648049 -0.083292685 0.106217235 0.0598706 -0.039521158 -0.08630857
-0.015561778 -0.02870693 0.043155953 0.011658152 0.10779259 -0.021869566 -0.007776901 0.07535183
0.0013308732 0.014762209 -0.005428123 -0.06980574 -0.093175046 -0.11936957 0.049691197 -0.09261962
-0.091522664 0.0440206 -0.10889553 0.0436619 -0.0094401855 -0.01405499 0.08559929 0.045578573
0.09364649 -0.1252791 0.06344661 0.06547603 -0.07585025 -0.019546194 0.053020127 0.02963874
-0.044038415 0.02425132 -0.10713765 -0.08080378 0.059226517 0.05074214 -0.02876959 -0.0006833521
0.11832118 -0.005894383 0.09110672 0.025985599 -0.0068784957 0.028658578 0.084554285 -0.032647748
-0.014780021 0.03045791 -0.11022425 -0.06381657 -0.02691086 -0.066635735 0.11155594 -0.07369193
-0.07658306 -0.11273564 0.026265532 -0.028945481 -0.10938471 -0.024544664 -0.055241212 -0.10271286
-0.039588958 -0.05196137 -0.10412557 -0.015480437 -0.044733517 0.023981823 0.020389916 0.028645368
0.018740037 -0.044563353 0.06647553 0.12434852 0.09964217 0.019383842 -0.09217682 0.031225277
0.07813898 0.08847699 0.0129687805 -0.05468021 0.11416039 0.055556227 -0.059753805 -0.122911744
0.03681291 -0.05837823 -0.057585638 0.018932914 -0.06200445 0.11374611 -0.057103034 -0.09630074
-0.014373228 -0.119269274 -0.043814562 -0.07923552 0.08317811 -0.075625986 0.06416213 0.012982412
0.07182343 0.0441966 -0.032417204 0.02639581 -0.00972617 -0.1002265 0.13393708 0.04340975
0.11650901 -0.08343171 0.091705605 0.10800379 -0.11018206 -0.1077368 0.042647988 0.045199953
-0.012013239 -0.05120539 -0.019610796 -0.10276095 0.06726682 0.019969618 -0.030232629 0.11037801
-0.024484463 0.016812779 -0.11257269 -0.008796897 0.105312295 0.051695015 0.07459917 -0.050732255
0.1076475 0.09036706 0.05888499 0.098536976 0.10145969 0.040502846 0.030321624 -0.07513606
0.036985338 0.07247941 -0.028761934 0.0017318379 0.08237699 0.09945607 -0.08345806 -0.08018342
-0.13544105 -0.03542073 -0.11680618 0.05603845 -0.08177128 0.08903828 -0.05723011 -0.011794986
0.08979218 0.10007931 -0.047159433 -0.10195278 0.029503943 -0.09455787 0.112674706 -0.085161805
00000000: 23d1 d1bc fb58 d93c 4895 fc3d 2248 ac3d
00000010: fe67 c6bc 72b9 f93c d7b1 43bd 90ce bd3d
00000020: e609 b2bd 16c5 993d c3f7 a6bc e48d b1bd
00000030: bf05 17bc 5d51 0fbd 920a 3a3c 061d 18bd
00000040: 4851 9c3d 484b 013c 9097 c5bd 5b95 aabd
00000050: 6c88 d93d e03a 753d f0e0 21bd 8cc2 b0bd
00000060: d4f6 7ebc cc2a ebbc 4cc4 303d d501 3f3c
00000070: 5dc2 dc3d ce27 b3bc 60d5 febb 0f52 9a3d
00000080: b270 ae3a 31dd 713c 65de b1bb 50f6 8ebd
00000090: 8fd2 bebd 0878 f4bd ff88 4b3d 5baf bdbd
000000a0: 3c70 bbbd f24e 343d 9f04 dfbd d2d6 323d
000000b0: 02ab 1abc e746 66bc ae4e af3d 99b0 3a3d
000000c0: bbc9 bf3d 2a49 00be 4cf0 813d 4c18 863d
000000d0: 6057 9bbd 571f a0bc a22b 593d f1cc f23c
000000e0: a061 34bd b4aa c63c fc6a dbbd 747c a5bd
000000f0: 8197 723d fdd6 4f3d 34ae ebbc fc22 33ba
00000100: 6052 f23d ab25 c1bb 2996 ba3d c0df d43c
00000110: 0165 e1bb 65c5 ea3c cc2a ad3d a5b9 05bd
00000120: e727 72bc de82 f93c 40bd e1bd 43b2 82bd
00000130: 2a74 dcbc 5178 88bd 7177 e43d cbeb 96bd
00000140: 94d7 9cbd f1e1 e6bd d02a d73c 131f edbc
00000150: 1705 e0bd e411 c9bc 9c44 62bd 1f5b d2bd
00000160: 0828 22bd 72d5 54bd c93f d5bd a9a1 7dbc
00000170: 7e3a 37bd 8775 c43c c108 a73c b1a9 ea3c
00000180: b584 993c 1088 36bd 5324 883d 70aa fe3d
00000190: 3211 cc3d ddca 9e3c 33c7 bcbd 27cc ff3c
000001a0: 5407 a03d 6d33 b53d 027b 543c 5bf8 5fbd
000001b0: eccc e93d ed8e 633d 68c0 74bd 27b9 fbbd
000001c0: 22c9 163d 031e 6fbd ebde 6bbd 3319 9b3c
000001d0: 61f8 7dbd b8f3 e83d dfe4 69bd 5339 c5bd
000001e0: b07d 6bbc 7343 f4bd e676 33bd 3b46 a2bd
000001f0: 4959 aa3d cce1 9abd 6f67 833d 2fb4 543c
00000200: 2a18 933d 7e07 353d e7c7 04bd 073c d83c
00000210: 845a 1fbc 8d43 cdbd cd26 093e 6cce 313d
00000220: 479c ee3d 3fde aabd 26d0 bb3d 1731 dd3d
00000230: 22a7 e1bd 1da5 dcbd a8af 2e3d 9623 393d
00000240: 2dd3 44bc bebc 51bd d2a6 a0bc 5574 d2bd
00000250: 30c3 893d 5397 a33c 6baa f7bc de0d e23d
00000260: a493 c8bc f4ba 893c 838c e6bd dc20 10bc
00000270: f9ad d73d 27be 533d 73c7 983d a0cc 4fbd
00000280: 4b76 dc3d 5d12 b93d 6331 713d c1cd c93d
00000290: 19ca cf3d 50e6 253d 0e65 f83c efe0 99bd
000002a0: f07d 173d 1670 943d 269e ebbc d6fe e23a
000002b0: 44b5 a83d a0af cb3d 0fec aabd 3437 a4bd
000002c0: 0fb1 0abe 5415 11bd 1438 efbd 9388 653d
000002d0: b377 a7bd b459 b63d 1f6a 6abd c23f 41bc
000002e0: f6e4 b73d 62f6 cc3d 402a 41bd 9ecc d0bd
000002f0: 41b2 f13c 8ea7 c1bd ffc1 e63d 5069 aebd

out.weight f4 [5, 64]
-0.13280825 -0.21099676 0.10104039 -0.15170532 -0.077880345 -0.056483924 0.12672456 -0.14608811
-0.08070839 -0.19126962 -0.012519659 0.022431 0.05425637 -0.093798995 0.021188827 -0.10818731
-0.033419035 0.13654248 -0.076249406 -0.02237451 -0.0029543454 0.020661708 -0.0869665 0.05808513
-0.1527339 0.17784092 0.010268844 -0.07530477 0.050090685 -0.07564843 0.02341449 -0.11627649
0.093207784 0.08823516 -0.10265336 -0.09449339 0.17479613 -0.015215785 -0.05556373 -0.1835129
-0.01583099 0.012639523 0.115385026 -0.16202366 0.24089986 0.050274935 -0.08856137 -0.02302764
0.19667178 0.11869971 0.056157973 0.14273492 0.11251169 0.046608526 0.15653013 0.24873614
0.075420775 0.14037511 0.11014928 -0.16315039 0.04874475 -0.084336735 0.05111617 -0.020850485
0.088185444 0.044937443 -0.10974511 0.0441119 -0.0921493 -0.028663449 0.135437 -0.1124446
0.051632334 0.115911335 0.026095062 -0.06542844 0.13743085 0.1067958 -0.063790716 0.011861235
-0.034787353 -0.08892555 0.11976557 -0.12546775 -0.090633176 -0.066768564 0.06654172 -0.02590062
-0.057945058 -0.04062103 0.118013665 -0.10300373 -0.09402037 -0.026896985 0.027989078 -0.03155937
-0.09183887 0.06176496 -0.019895935 -0.017260456 0.09585366 0.015045063 0.10433373 0.021209491
-0.13792697 -0.14554182 -0.118514374 0.02440037 0.13453728 0.04236356 -0.025108421 -0.022837106
0.016328182 -0.026070433 -0.09323687 0.05097862 -0.022555076 0.089057036 0.054355476 -0.04406495
0.01808598 -0.08969996 -0.025980111 0.12868872 0.15308316 -0.10189376 0.13074738 0.1258721
-0.08663027 0.10338717 0.059283733 -0.05215546 0.06036194 0.07997943 -0.031835902 -0.03903834
-0.053794518 0.12541737 -0.068337806 0.1232999 -0.011568817 0.073640525 0.09567421 0.08991702
0.07964292 -0.07197134 0.08414799 0.006377045 -0.0146844415 0.08637596 -0.11240086 0.059342932
-0.07562461 0.101187736 -0.14554466 -0.046539914 0.032082424 -0.03928878 0.12234294 -0.10245198
-0.16311072 -0.090633675 -0.089445025 -0.07101061 -0.05128705 0.023557201 -0.034369312 -0.011604457
-0.13146354 -0.081233695 -0.06322385 -0.041261718 -0.16026281 -0.06713913 -0.05424068 0.08658283
-0.09125559 -0.07460769 -0.076818734 0.074439995 -0.14557941 -0.009773102 -0.042436752 0.016535804
-0.15451254 0.012978447 -0.09042766 0.069314286 -0.06285886 0.10393017 0.10626709 -0.114691146
-0.023072239 -0.13530947 0.030835543 0.08194849 0.09224513 -0.11326276 -0.09917563 0.014619596
-0.09826357 0.08223617 0.1037813 -0.08186691 0.14132082 0.03889929 -0.110032886 0.05198262
-0.02020285 -0.0945704 0.1338364 -0.111126676 -0.14236341 0.10311653 -0.14930819 -0.06010312
-0.056575652 0.025941812 0.038683884 -0.11427993 -0.108401336 0.034167357 0.06589184 -0.13430727
0.011626423 -0.09921127 -0.1306194 -0.1604873 -0.105707325 0.12508082 0.12200632 -0.013277291
-0.11693727 0.040733557 -0.14657548 -0.1523024 -0.081320755 -0.103610784 0.061869092 -0.05271626
0.05863024 -0.0038801965 -0.15613039 -0.15053496 -0.040944714 -0.006201127 -0.015122371 -0.055109847
0.038904004 0.03506292 0.035165317 -0.08512885 0.00025927115 -0.14089765 -0.006204258 -0.09023001
00000000: e3fe 07be 890f 58be 44ee ce3d a458 1bbe
00000010: bb7f 9fbd b05b 67bd 15c4 013e 1f98 15be
00000020: 714a a5bd 2fdc 43be 411f 4dbc 37c1 b73c
00000030: ed3b 5e3d b019 c0bd 3194 ad3c 4f91 ddbd
00000040: 66e2 08bd cbd1 0b3e a628 9cbd c04a b7bc
00000050: b19d 41bb be42 a93c 7e1b b2bd acea 6d3d
00000060: 4766 1cbe ee1b 363e a73e 283c 6339 9abd
00000070: e42b 4d3d 90ed 9abd bfcf bf3c 5e22 eebd
00000080: b9e3 be3d a3b4 b43d ed3b d2bd c085 c1bd
00000090: c2fd 323e a14b 79bc cb96 63bd ceea 3bbe
000000a0: feaf 81bc 0016 4f3c fc4e ec3d 88e9 25be
000000b0: 74ae 763e 17ed 4d3d aa5f b5bd 76a4 bcbc
000000c0: 5464 493e d518 f33d e705 663d 1a29 123e
000000d0: 876c e63d 95e8 3e3d 6f49 203e b0b4 7e3e
000000e0: 3576 9a3d 7ebe 0f3e f295 e13d e510 27be
000000f0: 93a8 473d bdb8 acbd 305f 513d a3ce aabc
00000100: 929a b43d 5310 383d 0bc2 e0bd aeae 343d
00000110: c6b8 bcbd 9ccf eabc ffaf 0a3e 5b49 e6bd
00000120: 6d7c 533d ec62 ed3d 50c5 d53c 59ff 85bd
00000130: acba 0c3e c2b7 da3d b5a4 82bd a055 423c
00000140: 2f7d 0ebd 991e b6bd a747 f53d 9e7a 00be
00000150: e39d b9bd f5bd 88bd 0647 883d 892d d4bc
00000160: cc57 6dbd 3d62 26bd 26b1 f13d 9ff3 d2bd
00000170: c08d c0bd 1157 dcbc 5a49 e53c 6644 01bd
00000180: 0416 bcbd 41fd 7c3d cdfc a2bc cd65 8dbc
00000190: ec4e c43d 917f 763c ecac d53d 87bf ad3c
000001a0: ba3c 0dbe ea08 15be aab7 f2bd 49e3 c73c
000001b0: 24c4 093e 6a85 2d3d 2db0 cdbc e214 bbbc
000001c0: aec2 853c a991 d5bc f9f2 bebd f5ce 503d
000001d0: 6cc5 b8bc 8963 b63d d9a3 5e3d 737d 34bd
000001e0: 0d29 943c 9db4 b7bd 3ed4 d4bc fac6 033e
000001f0: d5c1 1c3e adad d0bd a4e2 053e 9ee4 003e
00000200: 366b b1bd a7bc d33d 80d3 723d f7a0 55bd
00000210: 153e 773d 41cc a33d 5d66 02bd abe6 1fbd
00000220: a457 5cbd 696d 003e b1f4 8bbd a884 fc3d
00000230: 238b 3dbc d8d0 963d d7f0 c33d 6a26 b83d
00000240: d41b a33d b665 93bd c855 ac3d 88f6 d03b
00000250: 0397 70bc e1e5 b03d 6c32 e6bd 9311 733d
00000260: 13e1 9abd 843b cf3d a909 15be a3a0 3ebd
00000270: dc68 033d 46ed 20bd ef8e fa3d 58d2 d1bd
00000280: 7f06 27be 269e b9bd f42e b7bd 036e 91bd
00000290: 5f12 52bd 08fb c03c d6c6 0cbd 9f20 3ebc
000002a0: 619e 06be da5d a6bd 827b 81bd 0c02 29bd
000002b0: ef1b 24be 3d80 89bd 7a2b 5ebd 5752 b13d
000002c0: 36e4 babd ebcb 98bd 2453 9dbd ff73 983d
000002d0: c512 15be 5c1f 20bc 29d2 2dbd 1876 873c
000002e0: 8938 1ebe 8da3 543c 2332 b9bd a6f4 8d3d
000002f0: 25bc 80bd 57d9 d43d 8fa2 d93d 31e3 eabd
00000300: fe01 bdbc 918e 0abe d29a fc3c 9cd4 a73d
00000310: 04eb bc3d 4ef6 e7bd 981c cbbd 0887 6f3c
00000320: 693e c9bd 706b a83d 4a8b d43d d7a9 a7bd
00000330: 68b6 103e dd54 1f3d ec58 e1bd baeb 543d
00000340: 7380 a5bc 20ae c1bd 690c 093e 6296 e3bd
00000350: b7c7 11be c22e d33d 3fe4 18be b02e 76bd
00000360: dfbb 67bd ec83 d43c fe72 1e3d 990b eabd
00000370: 8501 debd 12f3 0b3d 4df2 863d d887 09be
00000380: c17c 3e3c 472f cbbd 18c1 05be c856 24be
00000390: 157d d8bd 3015 003e 73de f93d ff88 59bc
000003a0: cf7c efbd 3bd8 263d e217 16be 29f5 1bbe
000003b0: 7f8b a6bd e431 d4bd 726a 7d3d 01ed 57bd
000003c0: 4326 703d e54a 7ebb a5e0 1fbe d625 1abe
000003d0: a5b5 27bd d332 cbbb d2c3 77bc ddba 61bd
000003e0: ce59 1f3d 239e 0f3d 8209 103d 0958 aebd
000003f0: c9ee 8739 7947 10be 174d cbbb 83ca b8bd

out.bias f4 [5]
0.03449087 0.004098577 -0.8054291 -1.6698656 0.24842004
00000000: 4c46 0d3d 5b4d 863b 9a30 4ebf 28be d5bf
00000010: d361 7e3e
