checkpoint/fix_datasets_eth/val_best.pth (torch, 109846 bytes, 13 tensors)

gat.att_src f4 [1, 1, 64]
0	0x3d9474b8	0.07248825
1	0xbc3b01f3	-0.011414039
2	0x3e8bc1bb	0.27296242
3	0xbe99e873	-0.30060157
4	0xbe73d48b	-0.23811547
5	0x3e96ad49	0.2942908
6	0xbc5f358a	-0.013623605
7	0xbdf1d00d	-0.11807261
8	0x3e41646e	0.18885967
9	0x3e94955b	0.290202
10	0xbe8f195b	-0.27949032
11	0xbe6be444	-0.23036295
12	0xbe31770f	-0.17330573
13	0xbdb77bb8	-0.08959144
14	0xbe19b7a5	-0.15011461
15	0xbe0893d7	-0.13337646
16	0xbe7adcf3	-0.24498348
17	0x3da8848b	0.082284056
18	0x3e5bf76e	0.21481106
19	0x3e746dd9	0.23870029
20	0xbdffda0e	-0.124927625
21	0x3e7e9781	0.24862482
22	0x3de030bc	0.10946795
23	0x3e2542bf	0.16138743
24	0x3dfaddfc	0.122493714
25	0x3e80b20c	0.2513584
26	0xbe95020a	-0.29103118
27	0xbe2bcfbf	-0.16778468
28	0x3e2b59b0	0.16733432
29	0xbe4631bc	-0.1935491
30	0xbdfdad07	-0.12386518
31	0xbd41d2c0	-0.047320127
32	0xbe6bcde6	-0.23027763
33	0xbdac418c	-0.084109396
34	0x3e47f1f3	0.1952589
35	0xbe4cc339	-0.19996347
36	0x3d8dc922	0.06923129
37	0xbd20af13	-0.039229464
38	0x3c4c1913	0.01245715
39	0xbd899ad5	-0.06718985
40	0x3d84a173	0.064761065
41	0x3e98a2af	0.29811618
42	0xbe8bc3ea	-0.27297908
43	0x3bc82578	0.0061079822
44	0x3d8169e7	0.063190274
45	0x3e2010df	0.15631436
46	0x3e36c6aa	0.17849222
47	0x3e5c9862	0.21542504
48	0xbe2a0711	-0.16604258
49	0xbd9e1e08	-0.07720572
50	0xbe85a18f	-0.26099822
51	0xbe522bcb	-0.20524518
52	0xbdb58f26	-0.08865194
53	0x3d833d51	0.064081796
54	0xbe8e3a2c	-0.27778757
55	0xbe873372	-0.26406437
56	0x3e68754f	0.22701
57	0x3e96e151	0.29468778
58	0xbc4d6aa5	-0.012537633
59	0xbd865a6f	-0.065602176
60	0xbe3877d2	-0.18014458
61	0x3df297c4	0.11845353
62	0xbe3e23c3	-0.1856833
63	0x3d9bb76f	0.076033466

gat.att_dst f4 [1, 1, 64]
0	0xbe4e1edd	-0.20128961
1	0xbe668977	-0.22513376
2	0xbd413115	-0.04716595
3	0x3e75a9f8	0.23990619
4	0x3e5fff54	0.21874744
5	0xbe36dbce	-0.17857286
6	0x3d11f785	0.035636444
7	0xbe84a273	-0.2590519
8	0xbe337702	-0.17525867
9	0x3e676c66	0.22599944
10	0xbe8bb1d1	-0.272841
11	0xbe2dceaf	-0.16973375
12	0x3e86dec8	0.26341844
13	0xbe34a57d	-0.17641254
14	0x3e8e3a7f	0.27779004
15	0xbe34c2a5	-0.17652376
16	0x3e53df1a	0.20690575
17	0x3e9308ab	0.2871755
18	0x3de469d2	0.11152996
19	0x3e8612b9	0.2618616
20	0x3e52b43a	0.20576563
21	0x3e6ba684	0.2301274
22	0xbdf35719	-0.11881847
23	0x3e979897	0.29608604
24	0xbe954d88	-0.29160714
25	0xbd278280	-0.04089594
26	0x3e0d5a03	0.13803868
27	0xbdb4b4f7	-0.08823579
28	0xbdd01dca	-0.10161932
29	0x3df5ce1b	0.12002202
30	0xbe806c73	-0.2508274
31	0xbe8f25a3	-0.27958402
32	0x3e4b0c24	0.1982885
33	0xbc4a1773	-0.012334692
34	0x3cadb1fc	0.021203034
35	0xbc9b57dd	-0.018962795
36	0x3e733117	0.23749195
37	0x3e031239	0.1279992
38	0x3e060b18	0.1309017
39	0x3dd3f63c	0.103497
40	0xbe3330d9	-0.17499103
41	0x3e4621db	0.19348852
42	0x3dfac158	0.12243909
43	0x3dd7bde4	0.10534266
44	0x3e974aeb	0.29549345
45	0xbe11e99f	-0.14249276
46	0xbe872824	-0.26397812
47	0x3e1430be	0.14471719
48	0xbe928aa9	-0.28621414
49	0xbe848d96	-0.25889271
50	0xbe6f84ea	-0.23390546
51	0xbd984039	-0.074341245
52	0x3ddb2125	0.10699681
53	0xbdd11d05	-0.10210613
54	0xbe0ea006	-0.13928232
55	0xbe0ebfc5	-0.13940342
56	0x3e94158f	0.28922698
57	0x3e93b72c	0.28850687
58	0x3d7bb8fa	0.061455704
59	0xbe7d6dfb	-0.24748985
60	0xbca9e05f	-0.020736871
61	0x3d032cad	0.032025028
62	0xbddcf866	-0.10789566
63	0x3de2efff	0.11080932

gat.bias f4 [64]
0	0x3cdf3f93	0.027251994
1	0x3c14dd9b	0.009086038
2	0x3c39a1a4	0.011330042
3	0x3cd85eed	0.026412452
4	0xbc45dc4b	-0.012076448
5	0x3b16a2e7	0.002298528
6	0xb5ec17a7	-1.7590254e-06
7	0x3c7d7fab	0.015472333
8	0xbcd7df0f	-0.02635148
9	0x3c832c23	0.016012257
10	0x3d2aceb3	0.04170103
11	0xbaf53f69	-0.0018710914
12	0x3c3c147c	0.011479493
13	0xbcf5884b	-0.029972216
14	0xbca8598e	-0.020550516
15	0xbb5b6ddf	-0.0033482236
16	0x3cb48839	0.022037612
17	0x3cc842ae	0.024445858
18	0x3c1249c5	0.008928721
19	0xbcb62bbd	-0.022237653
20	0xbc07c6f0	-0.0082871765
21	0x3cb0e843	0.021595126
22	0xbcd0466d	-0.025424207
23	0x3b698d8c	0.0035637347
24	0xbb444caf	-0.0029952934
25	0x3c816491	0.015795024
26	0x3c6950c8	0.014240451
27	0x3c8741e4	0.016510911
28	0xb8e44a32	-0.00010885707
29	0x3c4dc3b1	0.0125588635
30	0xbc8b7103	-0.017021662
31	0x3b021bb1	0.001985293
32	0x3ca41ea6	0.020034146
33	0x3b3f1f05	0.0029162776
34	0x3c5f123e	0.013615189
35	0xbc892f16	-0.016746085
36	0x3c599fd3	0.013282734
37	0xbca3323e	-0.019921418
38	0x3cc44f0f	0.02396348
39	0x3be10ed9	0.006868225
40	0xbcaa2d2a	-0.020773489
41	0x3c5b4281	0.013382555
42	0x39e9fceb	0.00044629662
43	0xbc26d47f	-0.010182499
44	0xbc196837	-0.009363226
45	0x3cd777e4	0.026302285
46	0x3cbad346	0.022805821
47	0x3a9466c5	0.0011322132
48	0x3bcfffdc	0.0063476395
49	0xbab710cd	-0.0013966799
50	0x3c98c607	0.018649114
51	0xbbf9b733	-0.007620716
52	0xbc7cc059	-0.015426719
53	0x3c76bb77	0.015059344
54	0x3cb81f2d	0.022475803
55	0xbc4f7a25	-0.012663399
56	0xbc83e935	-0.016102413
57	0xbc433234	-0.011913825
58	0x3c1bbce1	0.009505481
59	0x3b770f55	0.0037698348
60	0x3b4ca359	0.0031225292
61	0xbb7785b5	-0.0037768905
62	0xbccc897c	-0.024967901
63	0xbaff8f85	-0.0019497728

gat.lin_src.weight f4 [64, 4]
0	0x3de23eeb	0.11047157
1	0x3e846722	0.25859934
2	0x3e41a159	0.18909205
3	0x3e04bc28	0.12962401
4	0xbe908b86	-0.28231448
5	0xbe92eceb	-0.2869638
6	0xbd27b4dc	-0.040943965
7	0xbe54f2cc	-0.20795745
8	0xbe9c67ab	-0.30547842
9	0xbe95841d	-0.29202357
10	0x3de2adf2	0.11068334
11	0x3e7acfcd	0.24493332
12	0x3e46f9bd	0.19431205
13	0x3dc34c8b	0.09536084
14	0x3e45b384	0.19306761
15	0x3e5f9d49	0.21837343
16	0x3d4facc3	0.050701868
17	0xbea97531	-0.33097222
18	0x3e7c6a8f	0.24650024
19	0xbd7cb696	-0.061697565
20	0xbcf4d8eb	-0.02988859
21	0xbdef7db0	-0.11693895
22	0x3e5e79df	0.21726178
23	0x3db65571	0.089030154
24	0x3dd3ba26	0.10338239
25	0xbe147c01	-0.14500429
26	0x3d3b6c77	0.045757737
27	0xbd122530	-0.035679996
28	0x3e037b21	0.12839939
29	0xbe93922f	-0.28822467
30	0xbe7ab29e	-0.244822
31	0x3dae1446	0.084999606
32	0x3ea40709	0.32036617
33	0xbe912f4b	-0.28356394
34	0x3e903c6f	0.28171107
35	0x3c23978a	0.00998486
36	0x3dc104b4	0.09424725
37	0x3e91fa1e	0.28511137
38	0xbe02a6d2	-0.1275895
39	0x3e8ec769	0.27886513
40	0xbe5d2935	-0.2159775
41	0x3e2b1ba3	0.16709761
42	0xbdb11024	-0.08645657
43	0x3e8a8c57	0.27060196
44	0xbdead3a9	-0.11466152
45	0xbe6fea74	-0.2342928
46	0xbe93ebd2	-0.28890854
47	0xbe68d105	-0.22735985
48	0xbd8f752f	-0.07004773
49	0x3e1e0779	0.15432538
50	0x3e762ebe	0.24041268
51	0xbe0334ff	-0.12813185
52	0xbceae275	-0.028672436
53	0xbe9168d0	-0.28400278
54	0xbe517f05	-0.2045861
55	0xbe1eea87	-0.15519153
56	0xbe463cd3	-0.1935914
57	0xbe180719	-0.14846458
58	0x3e6fdc93	0.23423986
59	0xbe3159be	-0.1731939
60	0xbddaab7d	-0.1067724
61	0x3e07d346	0.13264188
62	0x3e8fa718	0.2805717
63	0xbd62b28a	-0.05534605
64	0xbe5f0dd9	-0.21782626
65	0x3b89fd9d	0.0042111413
66	0x3d59c456	0.053165756
67	0x3e415887	0.18881427
68	0x3e4ee44f	0.2020428
69	0x3dbba724	0.09162739
70	0x3d8d1ae7	0.06889897
71	0xbe4a9a92	-0.19785526
72	0x3e9fb29a	0.3119095
73	0x3e732043	0.23742776
74	0xbe071435	-0.13191302
75	0xbe4dbae0	-0.20090818
76	0x3e34259c	0.17592472
77	0x3be0996e	0.0068542277
78	0x3e776976	0.24161324
79	0xbe8648d0	-0.26227427
80	0xbe5087cc	-0.20364302
81	0xbcf0a130	-0.029373735
82	0x3e525903	0.20541768
83	0x3e7745bc	0.24147695
84	0x3bfcbbc0	0.007712811
85	0xbeb03dfb	-0.34422287
86	0xbe7204ea	-0.23634687
87	0xbe84a1ac	-0.25904596
88	0x3e1561a2	0.14588025
89	0x3de526a4	0.11189011
90	0x3d6f2559	0.058385227
91	0xbd242b33	-0.04008026
92	0xbe9d0c3e	-0.30673403
93	0x3dd32c6b	0.103112064
94	0x3dbd8526	0.09253912
95	0xbe847f90	-0.25878572
96	0x3e6846d9	0.22683276
97	0xbde2fc98	-0.11083335
98	0x3d444e4a	0.047926225
99	0xbe252094	-0.16125709
100	0xbe2d27ad	-0.16909666
101	0x3e3caeb6	0.18426022
102	0x3dfe55bc	0.12418696
103	0x3e31ffe2	0.17382768
104	0x3e530dd2	0.20610741
105	0xbd3e281f	-0.04642498
106	0x3e0d7676	0.1381472
107	0xbd780e7a	-0.06056068
108	0x3c9ea6c1	0.019366624
109	0xbeb2d71a	-0.34929734
110	0xbc8d95ab	-0.017283281
111	0xbd8a26bf	-0.067456715
112	0xbe3a0a11	-0.18167903
113	0x3e686af9	0.22697057
114	0x3d51741c	0.05113612
115	0xbde0c150	-0.109743714
116	0xbcda11b6	-0.026619773
117	0xbe366129	-0.17810501
118	0xbe93ac67	-0.2884247
119	0xbe5c36d2	-0.21505287
120	0x3e700c81	0.2344227
121	0xbe05bb71	-0.13059784
122	0xbd81bd52	-0.06334938
123	0xbe45f78b	-0.19332711
124	0xbcc8882d	-0.024478996
125	0xbea5ff2a	-0.32421237
126	0x3c0b2d0a	0.008494625
127	0x3d6e86b9	0.05823395
128	0xbc28f7db	-0.010313
129	0x3dd4ebde	0.103965506
130	0xbe25b624	-0.16182762
131	0x3de1a9b3	0.11018696
132	0x3e5c07fc	0.21487421
133	0x3dbff66e	0.093731746
134	0xbe86cae6	-0.26326674
135	0xbe7e9967	-0.24863206
136	0xbe1f833d	-0.15577407
137	0x3ccc6d9c	0.02495461
138	0x3d4e48c0	0.05036235
139	0xbd873984	-0.06602767
140	0xbcc956a5	-0.024577448
141	0xbd8fece6	-0.07027607
142	0x3e490c38	0.19633567
143	0x3e88bbf3	0.26705894
144	0x3db605b8	0.088878095
145	0x3e8a9d3d	0.27073088
146	0x3e8c0152	0.27344757
147	0xbdaa124c	-0.08304271
148	0xbe34df5c	-0.1766333
149	0x3d97657f	0.07392406
150	0xbe0badfa	-0.13640586
151	0xbce5ff81	-0.028075935
152	0xbdafed75	-0.08590213
153	0xbe62a536	-0.22133335
154	0xbe521947	-0.20517455
155	0xbe180525	-0.14845712
156	0xbcd55553	-0.026041662
157	0x3eb1e8ed	0.3474802
158	0xbe0785fb	-0.13234703
159	0x3e8fb210	0.28065538
160	0x3e92647f	0.28592297
161	0xbe31301b	-0.17303507
162	0xbdb2daf7	-0.087331705
163	0xbe0d5a98	-0.1380409
164	0xbe933deb	-0.28758177
165	0xbe519d7d	-0.20470233
166	0x3e2674ae	0.16255447
167	0x3e425480	0.18977547
168	0x3dca6a87	0.098836
169	0x3c015ce7	0.007895685
170	0x3e7568d6	0.23965773
171	0xbd893523	-0.06699588
172	0x3e87e808	0.26544213
173	0x3d4df1f5	0.050279576
174	0xbe22fa3d	-0.15915771
175	0xbe8813f1	-0.26577714
176	0xbdbf1573	-0.09330263
177	0xbe66c15a	-0.22534695
178	0x3e206c3c	0.15666288
179	0x3e83d914	0.25751555
180	0x3dd4d997	0.103930645
181	0xbe273775	-0.16329749
182	0x3e90b7f4	0.28265345
183	0x3e75c9d6	0.24002776
184	0xbe6dc7a8	-0.23220694
185	0x3e6741c5	0.22583683
186	0xbe6066e4	-0.2191425
187	0xbd1d1c25	-0.03835692
188	0xbe11815d	-0.14209504
189	0x3e83d2c6	0.25746745
190	0xbe474d8f	-0.1946318
191	0xbe1fddbf	-0.15611933
192	0x3e3af87d	0.18258853
193	0xbd9871bb	-0.07443567
194	0xbe6efc60	-0.23338461
195	0xbdc14803	-0.09437563
196	0x3e8c8e00	0.27452087
197	0x3ce93f9a	0.02847271
198	0xbc93b583	-0.018030887
199	0x3da88f7d	0.08230493
200	0xbe816de8	-0.25279164
201	0xbe9c6c01	-0.3055115
202	0x3d8eb27d	0.06967638
203	0x3d6cf24f	0.05784827
204	0x3e6f536c	0.23371667
205	0x3da1cb5b	0.07900115
206	0xbbe305fb	-0.006928203
207	0xbe38a0f1	-0.18030144
208	0x3d25605f	0.04037511
209	0xbe60c3cd	-0.21949692
210	0x3e572c44	0.2101298
211	0xbe22a1c7	-0.15882026
212	0xbe731b65	-0.23740919
213	0x3dc21131	0.09475935
214	0x3c734727	0.014848507
215	0xbe8ee0fc	-0.27906024
216	0x3e311bb5	0.17295726
217	0x3e7928e6	0.24332008
218	0xbdccaf4f	-0.09994375
219	0x3e2f78c4	0.17135912
220	0xbe36334c	-0.17793006
221	0x3e9e42ab	0.3091024
222	0xbe7251d7	-0.23664032
223	0x3e90c12a	0.28272372
224	0xbe52b2b5	-0.20575984
225	0xbd55d4d2	-0.052204914
226	0x3e7999f0	0.24375129
227	0xbd8f2bf2	-0.06990804
228	0x3dc37d27	0.09545355
229	0xbdac1168	-0.084017575
230	0x3e196be4	0.14982563
231	0xbe38d320	-0.18049288
232	0x3da532ae	0.08066307
233	0x3dbc99bc	0.0920901
234	0xbd96db68	-0.07366067
235	0x3e942d87	0.28940985
236	0x3e8a5f8d	0.27026024
237	0xbe1224bb	-0.14271824
238	0x3dd580af	0.10424935
239	0x3e9383eb	0.28811583
240	0x3e8f1bd1	0.2795091
241	0xbdac7b02	-0.084218994
242	0x3c584e62	0.013202282
243	0x3de8ec45	0.1137319
244	0xbe52e599	-0.20595397
245	0xbea33ff9	-0.31884745
246	0x3e8fccc6	0.28085917
247	0x3de6b3dd	0.11264775
248	0x3e516270	0.20447707
249	0xbd826504	-0.063669235
250	0x3be285f9	0.0069129434
251	0x3c15efdf	0.009151428
252	0xbda1f262	-0.07907559
253	0xbe020727	-0.12698041
254	0xbe3e5eff	-0.18590926
255	0x3e463208	0.19355023

gat.lin_dst.weight f4 [64, 4]
0	0x3de23eeb	0.11047157
1	0x3e846722	0.25859934
2	0x3e41a159	0.18909205
3	0x3e04bc28	0.12962401
4	0xbe908b86	-0.28231448
5	0xbe92eceb	-0.2869638
6	0xbd27b4dc	-0.040943965
7	0xbe54f2cc	-0.20795745
8	0xbe9c67ab	-0.30547842
9	0xbe95841d	-0.29202357
10	0x3de2adf2	0.11068334
11	0x3e7acfcd	0.24493332
12	0x3e46f9bd	0.19431205
13	0x3dc34c8b	0.09536084
14	0x3e45b384	0.19306761
15	0x3e5f9d49	0.21837343
16	0x3d4facc3	0.050701868
17	0xbea97531	-0.33097222
18	0x3e7c6a8f	0.24650024
19	0xbd7cb696	-0.061697565
20	0xbcf4d8eb	-0.02988859
21	0xbdef7db0	-0.11693895
22	0x3e5e79df	0.21726178
23	0x3db65571	0.089030154
24	0x3dd3ba26	0.10338239
25	0xbe147c01	-0.14500429
26	0x3d3b6c77	0.045757737
27	0xbd122530	-0.035679996
28	0x3e037b21	0.12839939
29	0xbe93922f	-0.28822467
30	0xbe7ab29e	-0.244822
31	0x3dae1446	0.084999606
32	0x3ea40709	0.32036617
33	0xbe912f4b	-0.28356394
34	0x3e903c6f	0.28171107
35	0x3c23978a	0.00998486
36	0x3dc104b4	0.09424725
37	0x3e91fa1e	0.28511137
38	0xbe02a6d2	-0.1275895
39	0x3e8ec769	0.27886513
40	0xbe5d2935	-0.2159775
41	0x3e2b1ba3	0.16709761
42	0xbdb11024	-0.08645657
43	0x3e8a8c57	0.27060196
44	0xbdead3a9	-0.11466152
45	0xbe6fea74	-0.2342928
46	0xbe93ebd2	-0.28890854
47	0xbe68d105	-0.22735985
48	0xbd8f752f	-0.07004773
49	0x3e1e0779	0.15432538
50	0x3e762ebe	0.24041268
51	0xbe0334ff	-0.12813185
52	0xbceae275	-0.028672436
53	0xbe9168d0	-0.28400278
54	0xbe517f05	-0.2045861
55	0xbe1eea87	-0.15519153
56	0xbe463cd3	-0.1935914
57	0xbe180719	-0.14846458
58	0x3e6fdc93	0.23423986
59	0xbe3159be	-0.1731939
60	0xbddaab7d	-0.1067724
61	0x3e07d346	0.13264188
62	0x3e8fa718	0.2805717
63	0xbd62b28a	-0.05534605
64	0xbe5f0dd9	-0.21782626
65	0x3b89fd9d	0.0042111413
66	0x3d59c456	0.053165756
67	0x3e415887	0.18881427
68	0x3e4ee44f	0.2020428
69	0x3dbba724	0.09162739
70	0x3d8d1ae7	0.06889897
71	0xbe4a9a92	-0.19785526
72	0x3e9fb29a	0.3119095
73	0x3e732043	0.23742776
74	0xbe071435	-0.13191302
75	0xbe4dbae0	-0.20090818
76	0x3e34259c	0.17592472
77	0x3be0996e	0.0068542277
78	0x3e776976	0.24161324
79	0xbe8648d0	-0.26227427
80	0xbe5087cc	-0.20364302
81	0xbcf0a130	-0.029373735
82	0x3e525903	0.20541768
83	0x3e7745bc	0.24147695
84	0x3bfcbbc0	0.007712811
85	0xbeb03dfb	-0.34422287
86	0xbe7204ea	-0.23634687
87	0xbe84a1ac	-0.25904596
88	0x3e1561a2	0.14588025
89	0x3de526a4	0.11189011
90	0x3d6f2559	0.058385227
91	0xbd242b33	-0.04008026
92	0xbe9d0c3e	-0.30673403
93	0x3dd32c6b	0.103112064
94	0x3dbd8526	0.09253912
95	0xbe847f90	-0.25878572
96	0x3e6846d9	0.22683276
97	0xbde2fc98	-0.11083335
98	0x3d444e4a	0.047926225
99	0xbe252094	-0.16125709
100	0xbe2d27ad	-0.16909666
101	0x3e3caeb6	0.18426022
102	0x3dfe55bc	0.12418696
103	0x3e31ffe2	0.17382768
104	0x3e530dd2	0.20610741
105	0xbd3e281f	-0.04642498
106	0x3e0d7676	0.1381472
107	0xbd780e7a	-0.06056068
108	0x3c9ea6c1	0.019366624
109	0xbeb2d71a	-0.34929734
110	0xbc8d95ab	-0.017283281
111	0xbd8a26bf	-0.067456715
112	0xbe3a0a11	-0.18167903
113	0x3e686af9	0.22697057
114	0x3d51741c	0.05113612
115	0xbde0c150	-0.109743714
116	0xbcda11b6	-0.026619773
117	0xbe366129	-0.17810501
118	0xbe93ac67	-0.2884247
119	0xbe5c36d2	-0.21505287
120	0x3e700c81	0.2344227
121	0xbe05bb71	-0.13059784
122	0xbd81bd52	-0.06334938
123	0xbe45f78b	-0.19332711
124	0xbcc8882d	-0.024478996
125	0xbea5ff2a	-0.32421237
126	0x3c0b2d0a	0.008494625
127	0x3d6e86b9	0.05823395
128	0xbc28f7db	-0.010313
129	0x3dd4ebde	0.103965506
130	0xbe25b624	-0.16182762
131	0x3de1a9b3	0.11018696
132	0x3e5c07fc	0.21487421
133	0x3dbff66e	0.093731746
134	0xbe86cae6	-0.26326674
135	0xbe7e9967	-0.24863206
136	0xbe1f833d	-0.15577407
137	0x3ccc6d9c	0.02495461
138	0x3d4e48c0	0.05036235
139	0xbd873984	-0.06602767
140	0xbcc956a5	-0.024577448
141	0xbd8fece6	-0.07027607
142	0x3e490c38	0.19633567
143	0x3e88bbf3	0.26705894
144	0x3db605b8	0.088878095
145	0x3e8a9d3d	0.27073088
146	0x3e8c0152	0.27344757
147	0xbdaa124c	-0.08304271
148	0xbe34df5c	-0.1766333
149	0x3d97657f	0.07392406
150	0xbe0badfa	-0.13640586
151	0xbce5ff81	-0.028075935
152	0xbdafed75	-0.08590213
153	0xbe62a536	-0.22133335
154	0xbe521947	-0.20517455
155	0xbe180525	-0.14845712
156	0xbcd55553	-0.026041662
157	0x3eb1e8ed	0.3474802
158	0xbe0785fb	-0.13234703
159	0x3e8fb210	0.28065538
160	0x3e92647f	0.28592297
161	0xbe31301b	-0.17303507
162	0xbdb2daf7	-0.087331705
163	0xbe0d5a98	-0.1380409
164	0xbe933deb	-0.28758177
165	0xbe519d7d	-0.20470233
166	0x3e2674ae	0.16255447
167	0x3e425480	0.18977547
168	0x3dca6a87	0.098836
169	0x3c015ce7	0.007895685
170	0x3e7568d6	0.23965773
171	0xbd893523	-0.06699588
172	0x3e87e808	0.26544213
173	0x3d4df1f5	0.050279576
174	0xbe22fa3d	-0.15915771
175	0xbe8813f1	-0.26577714
176	0xbdbf1573	-0.09330263
177	0xbe66c15a	-0.22534695
178	0x3e206c3c	0.15666288
179	0x3e83d914	0.25751555
180	0x3dd4d997	0.103930645
181	0xbe273775	-0.16329749
182	0x3e90b7f4	0.28265345
183	0x3e75c9d6	0.24002776
184	0xbe6dc7a8	-0.23220694
185	0x3e6741c5	0.22583683
186	0xbe6066e4	-0.2191425
187	0xbd1d1c25	-0.03835692
188	0xbe11815d	-0.14209504
189	0x3e83d2c6	0.25746745
190	0xbe474d8f	-0.1946318
191	0xbe1fddbf	-0.15611933
192	0x3e3af87d	0.18258853
193	0xbd9871bb	-0.07443567
194	0xbe6efc60	-0.23338461
195	0xbdc14803	-0.09437563
196	0x3e8c8e00	0.27452087
197	0x3ce93f9a	0.02847271
198	0xbc93b583	-0.018030887
199	0x3da88f7d	0.08230493
200	0xbe816de8	-0.25279164
201	0xbe9c6c01	-0.3055115
202	0x3d8eb27d	0.06967638
203	0x3d6cf24f	0.05784827
204	0x3e6f536c	0.23371667
205	0x3da1cb5b	0.07900115
206	0xbbe305fb	-0.006928203
207	0xbe38a0f1	-0.18030144
208	0x3d25605f	0.04037511
209	0xbe60c3cd	-0.21949692
210	0x3e572c44	0.2101298
211	0xbe22a1c7	-0.15882026
212	0xbe731b65	-0.23740919
213	0x3dc21131	0.09475935
214	0x3c734727	0.014848507
215	0xbe8ee0fc	-0.27906024
216	0x3e311bb5	0.17295726
217	0x3e7928e6	0.24332008
218	0xbdccaf4f	-0.09994375
219	0x3e2f78c4	0.17135912
220	0xbe36334c	-0.17793006
221	0x3e9e42ab	0.3091024
222	0xbe7251d7	-0.23664032
223	0x3e90c12a	0.28272372
224	0xbe52b2b5	-0.20575984
225	0xbd55d4d2	-0.052204914
226	0x3e7999f0	0.24375129
227	0xbd8f2bf2	-0.06990804
228	0x3dc37d27	0.09545355
229	0xbdac1168	-0.084017575
230	0x3e196be4	0.14982563
231	0xbe38d320	-0.18049288
232	0x3da532ae	0.08066307
233	0x3dbc99bc	0.0920901
234	0xbd96db68	-0.07366067
235	0x3e942d87	0.28940985
236	0x3e8a5f8d	0.27026024
237	0xbe1224bb	-0.14271824
238	0x3dd580af	0.10424935
239	0x3e9383eb	0.28811583
240	0x3e8f1bd1	0.2795091
241	0xbdac7b02	-0.084218994
242	0x3c584e62	0.013202282
243	0x3de8ec45	0.1137319
244	0xbe52e599	-0.20595397
245	0xbea33ff9	-0.31884745
246	0x3e8fccc6	0.28085917
247	0x3de6b3dd	0.11264775
248	0x3e516270	0.20447707
249	0xbd826504	-0.063669235
250	0x3be285f9	0.0069129434
251	0x3c15efdf	0.009151428
252	0xbda1f262	-0.07907559
253	0xbe020727	-0.12698041
254	0xbe3e5eff	-0.18590926
255	0x3e463208	0.19355023

gru.weight_ih_l0 f4 [192, 64]
0	0x3da6d1e7	0.081455044
1	0x3d6de3e9	0.05807868
2	0x3df9727a	0.12180038
3	0x3d69de95	0.057097036
4	0xbdae1418	-0.08499926
5	0xbdb786ab	-0.08961233
6	0xbd8f552e	-0.069986686
7	0xbd449719	-0.04799566
8	0xbdbddeed	-0.09271035
9	0xbd58964c	-0.05287771
10	0x3dc1be3b	0.09460112
11	0x3d1dbd05	0.03851034
12	0xbde3b79f	-0.11119007
13	0xbcf1c213	-0.029511487
14	0x3d597a94	0.053095415
15	0xba28846f	-0.00064284255
16	0x3da0ed05	0.07857708
17	0xbd9fddfb	-0.07806011
18	0xbda3cd00	-0.07998085
19	0x3d8c4e67	0.068508916
20	0xbba0f3e2	-0.0049118856
21	0xbd9dfe85	-0.077145614
22	0xbd844e1d	-0.064602114
23	0x3b1b7149	0.0023718646
24	0x3b30e2a7	0.0026990564
25	0x3d452a9c	0.04813634
26	0xbcaaa4a6	-0.020830464
27	0x3d086d3c	0.0333073
28	0x3c775966	0.015096998
29	0x3d7fcb7d	0.06244992
30	0xba956df1	-0.0011400563
31	0xbd8054fc	-0.062662095
32	0xbdcea3a2	-0.10089804
33	0x3c975b85	0.018476257
34	0xbde7c60d	-0.11317072
35	0x3daf120d	0.08548365
36	0xbde1feda	-0.11034937
37	0xbda14f0b	-0.078764044
38	0x3c5e576f	0.0135706505
39	0x3d8cd818	0.06877154
40	0x3d866fa4	0.065642625
41	0xbd49877d	-0.049201477
42	0xbd2c8a9f	-0.042124387
43	0xbd029a4f	-0.03188544
44	0x3d3452f5	0.044024426
45	0x3d997f44	0.07494977
46	0xbd1969bd	-0.037454356
47	0xbd48ba2e	-0.04900568
48	0xbdce01ac	-0.10058913
49	0x3bec0d25	0.0072037154
50	0x3ded16e4	0.11576632
51	0xbdd88a9b	-0.10573312
52	0x3dbc2d60	0.09188342
53	0xbdf875d4	-0.12131849
54	0x3df59172	0.11990632
55	0x3dd46fc3	0.10372879
56	0xbdec9b87	-0.11553102
57	0xbdfcf041	-0.12350512
58	0xbc962ff1	-0.018333407
59	0xbc123ef3	-0.008926141
60	0x3cdee4a9	0.027208643
61	0x3de4ff74	0.11181536
62	0xbd230e5c	-0.039808616
63	0xbd96155b	-0.07328292
64	0x3d8ec8dc	0.06971905
65	0xbc3db8d8	-0.011579715
66	0x3d935ddd	0.071956374
67	0x3c08ade7	0.008342243
68	0xbc6ae4c6	-0.01433677
69	0xbc876660	-0.016528308
70	0x3aa67efc	0.0012702639
71	0xbce293ae	-0.02765831
72	0xbd41b0f9	-0.047287915
73	0x3cfd385f	0.030910669
74	0xbcd30b11	-0.025762113
75	0xbdd6ed8c	-0.10494527
76	0xbc35bea8	-0.011092819
77	0xbcffb19b	-0.031212619
78	0xbd46c992	-0.048532076
79	0x3c5caf53	0.013469535
80	0xbda02d60	-0.078211546
81	0x3dc0ef8d	0.09420691
82	0x3dcdcfb8	0.10049385
83	0x3d849c4f	0.06475126
84	0x3d45b597	0.04826888
85	0xbcddeb51	-0.027089747
86	0x3ddcefc1	0.10787917
87	0xbdee846c	-0.11646351
88	0xbd12779e	-0.035758607
89	0x3ddb4982	0.1070738
90	0xbc86975e	-0.0164296
91	0x3d3d0d04	0.04615499
92	0xbdc4c4de	-0.09607862
93	0xbdbba1fa	-0.09161754
94	0x3d16c117	0.03680524
95	0x3d1ea570	0.038731992
96	0xbdf7ea8e	-0.12105285
97	0xbd6d24aa	-0.057896294
98	0xb9707805	-0.00022932894
99	0xbdaef6bf	-0.08543157
100	0x3d9a59f7	0.07536691
101	0xbd69049b	-0.056889158
102	0x3dccb9bc	0.099963635
103	0x3daa3878	0.08311552
104	0x3cf80e5b	0.030280283
105	0xbd946195	-0.07245175
106	0xbdc82650	-0.097729325
107	0x3cba0eca	0.02271213
108	0x3d3853ae	0.04500168
109	0xbc5b5252	-0.013386326
110	0x3d97760b	0.07395562
111	0xbca5fd6f	-0.020262448
112	0x3dddf8d9	0.108384795
113	0x3c9fdb66	0.019513797
114	0xbcfaf312	-0.030633483
115	0xbd92a16f	-0.07159697
116	0xbd203361	-0.0391115
117	0xbd642a87	-0.05570462
118	0xbd0b88b6	-0.034065925
119	0xbdd8f8f1	-0.10594357
120	0xbd87c14e	-0.06628667
121	0xbdde6560	-0.108591795
122	0xbd6155c0	-0.05501342
123	0x3d0b2891	0.033974234
124	0xbd72bb6c	-0.05926077
125	0xbb192d51	-0.0023372958
126	0xbd1196d2	-0.035544224
127	0x3d922008	0.07135016
128	0xbc0873c6	-0.008328384
129	0x3d286542	0.041112192
130	0x3d4b6a48	0.049661905
131	0x3de68a78	0.112568796
132	0x3dd9f7b1	0.106429465
133	0xbcb8c7b6	-0.022556167
134	0xbdf33296	-0.11874883
135	0xbdaf4a8a	-0.08559139
136	0x3ca7d07d	0.020485157
137	0xbc490755	-0.0122698145
138	0x3da4d811	0.08049024
139	0xbace301e	-0.0015730893
140	0x3d44d568	0.048055083
141	0x3d4d2ad1	0.05008966
142	0x3db39d29	0.0877021
143	0xbd1cba7b	-0.03826378
144	0xbd50539b	-0.050860982
145	0xbd6daa94	-0.058024004
146	0xbdff4f82	-0.12466337
147	0x3d314398	0.043277353
148	0x3dd237a5	0.102645196
149	0xbca3d64e	-0.01999965
150	0xbc8c206f	-0.01710531
151	0x3d9501dd	0.07275746
152	0x3c664d2a	0.014056483
153	0xbba789b0	-0.005112849
154	0x3da65823	0.081222795
155	0x3cd1b457	0.025598688
156	0xbd519a53	-0.051172566
157	0x3da558fe	0.080736145
158	0x3d4a1f30	0.04934615
159	0xbd930c51	-0.071800835
160	0x3deb2257	0.11481159
161	0xbda80d70	-0.08205688
162	0x3cdc90ff	0.026924608
163	0x3dc590cc	0.096467584
164	0xbdf07be8	-0.11742383
165	0x3d79786b	0.060905855
166	0x3d72af2a	0.05924908
167	0x3d7e9c4c	0.062160775
168	0xbc9fac25	-0.019491265
169	0xbd75faa4	-0.060053483
170	0x3dcb234f	0.09918844
171	0x3de6eccd	0.11275635
172	0xbcc47e30	-0.023985952
173	0xbc06e3ca	-0.00823302
174	0x3d64d0b0	0.055863082
175	0x3cdc3945	0.026882777
176	0x3d03cf98	0.0321804
177	0xbb847d1c	-0.0040432345
178	0x3deb946c	0.115029186
179	0x3da0b93a	0.07847829
180	0x3d10a5df	0.035314437
181	0xbd608ace	-0.054819874
182	0xbd19fc74	-0.037594274
183	0xbd960110	-0.073244214
184	0x3db2c51b	0.08729001
185	0x3d8bfc20	0.068351984
186	0xbde6daa7	-0.112721734
187	0x3d799df2	0.060941644
188	0x3db888b8	0.09010452
189	0xbd125d08	-0.035733253
190	0xbde56d39	-0.11202473
191	0xbdf62966	-0.12019615
192	0xbcb4578f	-0.022014407
193	0x3dbb0fa8	0.091338456
194	0x3dab9152	0.08377327
195	0xbcdce1fc	-0.026963226
196	0x3d052861	0.03250921
197	0xbcd45562	-0.02591962
198	0x3d9e6a29	0.07735092
199	0xbdd98a4d	-0.10622082
200	0x3d81eec3	0.06344368
201	0xbd8f3b67	-0.06993752
202	0xbdfd39ae	-0.12364517
203	0x3dea5494	0.11441913
204	0x3d8569c1	0.065143116
205	0xbde2ec1a	-0.11080189
206	0xbd9bbc21	-0.07604242
207	0xbc981be4	-0.018567987
208	0xbb5e2c50	-0.0033900924
209	0x3dd9d549	0.10636384
210	0x3df16d5d	0.117884375
211	0xbd41d32a	-0.047320522
212	0xbd2299ed	-0.039697576
213	0xbd820262	-0.06348111
214	0xbdcf30ec	-0.10116753
215	0xbd945882	-0.07243444
216	0x3c4b5588	0.012410529
217	0x3df06386	0.117377326
218	0x3cc80bc3	0.02441967
219	0xbdb4312a	-0.0879844
220	0xbd7dd17a	-0.06196735
221	0xbd12ff62	-0.035888083
222	0xbdf53e73	-0.11974802
223	0xbd1377f8	-0.036003083
224	0xbd847c0a	-0.06468971
225	0x3cee68e7	0.029102756
226	0xbdef37fc	-0.116806
227	0x3d3f3144	0.046677843
228	0xbc8337f7	-0.016017897
229	0xbd368eef	-0.044569906
230	0x3bee1a8a	0.0072663473
231	0x3d720b56	0.059092842
232	0xbdd923af	-0.10602509
233	0xbc61b147	-0.013775176
234	0x3ca871de	0.020562109
235	0x3d97a705	0.07404903
236	0x3c8f0e13	0.017462766
237	0xbd5f0124	-0.054444447
238	0x3d3b8fd3	0.04579146
239	0xbda0cc38	-0.07851452
240	0xbdb1df4f	-0.08685171
241	0xbdae1c15	-0.0850145
242	0xbd3f1706	-0.046652816
243	0xbdc710fe	-0.09720038
244	0x3c4f189f	0.0126401475
245	0xbca83106	-0.020531189
246	0xbccc36cc	-0.024928473
247	0x3dfc0aee	0.12306772
248	0xbdbfd251	-0.093662865
249	0x3c2df44a	0.010617325
250	0xbd5b14cb	-0.053486627
251	0xbd961804	-0.07328799
252	0x3cf35c93	0.029707229
253	0xbdcc4be7	-0.09975415
254	0xbc66f654	-0.014096815
255	0x3dad7acd	0.08470688

gru.weight_hh_l0 f4 [192, 64]
0	0x3de53595	0.111918606
1	0x3dc4e742	0.096144214
2	0x3d3bedd8	0.045881122
3	0x3dd04d2f	0.101709716
4	0x3cfb216e	0.030655589
5	0xbdf5062a	-0.11964066
6	0xbdd13ac9	-0.102162905
7	0x3dcfaff4	0.10140982
8	0x3d7bbb5c	0.061457977
9	0x3d27646c	0.040867254
10	0x3dba5f81	0.09100247
11	0xbd098f62	-0.033584006
12	0x3db14ef1	0.08657635
13	0xbd769188	-0.060197383
14	0xbcd05a54	-0.025433697
15	0x3bbed047	0.0058231684
16	0xbce937b3	-0.028468942
17	0x3d6ff328	0.0585815
18	0x3df3f121	0.11911226
19	0xbd8cf27e	-0.06882189
20	0xbde47b3a	-0.11156316
21	0x3dec1fff	0.1152954
22	0x3d0c6ed1	0.03428537
23	0xbcd33a57	-0.025784655
24	0x3de1fd87	0.11034685
25	0x3dc67a7e	0.09691332
26	0x3d23fe09	0.04003719
27	0x3bbae2b8	0.0057032965
28	0x3db9bc00	0.09069061
29	0xbdd51bcf	-0.10405695
30	0xbdf96923	-0.12178256
31	0x3c3dfeed	0.011596424
32	0xbd3378dc	-0.043816432
33	0xbb32806a	-0.0027237185
34	0x3db6b40d	0.08921061
35	0x3a5a848a	0.000833579
36	0xbdedc6e6	-0.116102025
37	0xbdc82889	-0.097733565
38	0xbc238666	-0.009980774
39	0x3da3179e	0.07963489
40	0xbd973a6e	-0.073841915
41	0x3cb79f5f	0.022414861
42	0x3d8ee3d3	0.06977048
43	0xbb182154	-0.0023213224
44	0x3dba1710	0.0908643
45	0xbda40211	-0.08008207
46	0x3cd122d3	0.0255293
47	0xbd02380e	-0.03179174
48	0x3d6b0e92	0.057386942
49	0x3d9292ca	0.07156904
50	0x39ebf6ce	0.00045006577
51	0xbcb06703	-0.021533495
52	0x3dff73fb	0.124732934
53	0xbdefe85a	-0.117142394
54	0x3cf84016	0.030303996
55	0xbcd86191	-0.02641371
56	0xba665d34	-0.0008787692
57	0xbd54887c	-0.051887974
58	0xbdc9a9cf	-0.098468415
59	0x3d3ed74e	0.04659205
60	0xbc2e8310	-0.010651365
61	0x3dc10e22	0.09426524
62	0x3d977dc3	0.07397034
63	0x3d66d1b9	0.05635235
64	0x3d62298a	0.055215396
65	0x3dd55e78	0.10418409
66	0x3bd40e74	0.0064714495
67	0xbd08ba47	-0.033380773
68	0x3ca2cdbd	0.019873494
69	0x3d4e1e7e	0.05032205
70	0xbdf579df	-0.11986136
71	0x3dc14339	0.0943665
72	0xbcf1c84c	-0.029514454
73	0xbdf492d8	-0.11942071
74	0xbdfa7b50	-0.12230551
75	0xbcbac9f7	-0.022801382
76	0xbdd24c9a	-0.10268517
77	0x3cf78c93	0.030218398
78	0xbdd8e146	-0.105898425
79	0x3df5b917	0.11998194
80	0xbc91931b	-0.01777034
81	0x3de3d498	0.111245334
82	0x3d941c8e	0.07232009
83	0x3c2c935e	0.010533182
84	0xbd2d9225	-0.042375702
85	0xbd11fa41	-0.03563905
86	0xbc3f3aee	-0.011671765
87	0x3c49ed21	0.012324602
88	0xbd3a9ece	-0.045561604
89	0xbd12cab6	-0.03583785
90	0x3db80ba2	0.08986594
91	0x3d910818	0.07081622
92	0xbdf8fc06	-0.12157445
93	0xbd7eced4	-0.062208965
94	0x3cbd6a8b	0.023122093
95	0x3d8326b5	0.06403867
96	0xbd9e3f2b	-0.07726892
97	0xbd4676aa	-0.04845301
98	0xbcf297bf	-0.029613374
99	0x3d69aa60	0.057047248
100	0x3dee0b59	0.11623258
101	0xbdd39324	-0.10330799
102	0x3cbc0466	0.022951316
103	0xbd74d7ea	-0.059776224
104	0xbd096bbf	-0.03355002
105	0xbd9489e7	-0.07252865
106	0xbda88863	-0.08229139
107	0xbdc46c55	-0.09590975
108	0xbdb2b6f6	-0.08726303
109	0xbc9f8557	-0.019472761
110	0x3d77007a	0.06030319
111	0xbd272b51	-0.040812794
112	0x3d9bccf2	0.076074496
113	0xbdf05db4	-0.117366225
114	0xbdcd03bd	-0.10010479
115	0xbcf9b696	-0.030482572
116	0xbcc0c018	-0.023529097
117	0xbcc134f4	-0.02358482
118	0x3de72c4c	0.11287746
119	0xbcb90825	-0.022586891
120	0x3dabf792	0.0839683
121	0xbd95cc06	-0.07314305
122	0xbd98c528	-0.074594796
123	0x3d91ae69	0.07113344
124	0x3ddd7bc4	0.10814622
125	0x3dcfe398	0.10150832
126	0x3d0e3ff7	0.03472897
127	0xba8fbe19	-0.0010966688
128	0xbd98b569	-0.07456476
129	0xbd852db5	-0.065028585
130	0xbca7e844	-0.020496495
131	0x3b457970	0.0030132197
132	0x3dc8948f	0.0979396
133	0xbdf4e688	-0.11958033
134	0xbd9863c4	-0.07440904
135	0xbddae6b9	-0.10688538
136	0x3dd28d06	0.10280804
137	0xbdc6fb97	-0.09715956
138	0x3d27e559	0.040990207
139	0xbdf5707f	-0.119843476
140	0x3d9b1380	0.07572079
141	0x3c8f3712	0.017482314
142	0x3c169389	0.009190449
143	0xbdb993dd	-0.09061406
144	0x3dff2a58	0.12459248
145	0x3d7754a7	0.060383465
146	0xbd6f8191	-0.058473174
147	0x3ccede7c	0.025252573
148	0x3c19d2ea	0.009388665
149	0xbdf55909	-0.11979873
150	0xbd0bb68a	-0.03410963
151	0x3d98090e	0.07423602
152	0xbdb3a364	-0.08771399
153	0x3c1f3d0b	0.009719144
154	0xbc5e0f60	-0.01355347
155	0x3d529ca7	0.051418927
156	0x3c957cc7	0.018247975
157	0x3dfa0897	0.1220867
158	0xbd823536	-0.063578054
159	0xbd6a9a48	-0.05727604
160	0x3df74362	0.12073399
161	0xbdb4b27f	-0.08823108
162	0xbdd414ce	-0.10355531
163	0xbd85652d	-0.065134384
164	0xbbde167c	-0.0067775827
165	0xbd0e3d16	-0.034726225
166	0x3dadf042	0.08493091
167	0xbd0d4f81	-0.03449965
168	0xbcbfab64	-0.023397155
169	0xbdf1de6f	-0.11810004
170	0x3df37b1a	0.11888714
171	0x3d467e0f	0.048460063
172	0x3dbc57eb	0.091964565
173	0xbbcfbf73	-0.006339961
174	0xbda0c90f	-0.07850849
175	0xbdc703f0	-0.09717548
176	0xbd5eedf1	-0.054426137
177	0x3a1e1ea0	0.0006031785
178	0x3d964ef1	0.07339276
179	0x3da361e7	0.07977658
180	0x3d4155f1	0.0472011
181	0x3dc6a0f5	0.09698669
182	0x3d735f7d	0.059417237
183	0xbdc95487	-0.098305754
184	0xbdf188cf	-0.11793672
185	0x3cd371a2	0.02581102
186	0xbc329ec1	-0.010902108
187	0x3d4bc9a8	0.04975286
188	0xbd8bc9b0	-0.06825578
189	0x3d20f17c	0.039292797
190	0xbde1c811	-0.11024488
191	0x3db89abb	0.090138875
192	0x3dfd0146	0.123537585
193	0xbdced125	-0.10098485
194	0x3cf11f7c	0.029433958
195	0x3d591b07	0.05300429
196	0xbc9cd320	-0.019143641
197	0xbd554789	-0.052070174
198	0xbdbc0edb	-0.09182521
199	0xbced610f	-0.028976945
200	0xbd2d8ff5	-0.042373616
201	0x3b703d94	0.0036657797
202	0xbd8e2b58	-0.06941861
203	0xbb30f7ef	-0.0027003249
204	0x3db828e8	0.08992177
205	0xbd3c971b	-0.046042543
206	0xbae40542	-0.0017396586
207	0xbd2a55ce	-0.041585736
208	0x3cb0ad3c	0.02156698
209	0x3d824e12	0.06362547
210	0xbdea7022	-0.11447169
211	0xbdeb4a13	-0.11488738
212	0x3dfde4dc	0.12397167
213	0xbd1e7cc5	-0.03869321
214	0x3d72e089	0.059296165
215	0xbdfe25c8	-0.1240955
216	0x3db48577	0.08814519
217	0x3c34a2b0	0.011025116
218	0xbdf883e6	-0.12134533
219	0x3cf13d10	0.029448062
220	0x3d476aec	0.048685953
221	0x3dc00181	0.09375287
222	0x3dd5ab84	0.10433105
223	0xbd89a99f	-0.06721806
224	0xbdd9169f	-0.10600018
225	0xbdfc518f	-0.123202436
226	0xbd47548e	-0.048664622
227	0x3d90d941	0.07072688
228	0x3db77f21	0.08959795
229	0x3cdaf6fc	0.0267291
230	0xbdbbb2cc	-0.09164962
231	0xbdc6cb32	-0.09706725
232	0xbd82c552	-0.06385292
233	0x3d467ba8	0.04845777
234	0xbbd2ce95	-0.006433318
235	0x3dff84e4	0.12476519
236	0x3d07defa	0.03317163
237	0x3dbf76ef	0.09348857
238	0x3d5065a5	0.050878186
239	0x3de1c7a0	0.110244036
240	0xbda61f19	-0.081114
241	0x3dce1082	0.10061742
242	0x3db1c0c0	0.08679342
243	0xbdc13ac6	-0.09435038
244	0xbd029f10	-0.031889975
245	0xbcba1c4b	-0.02271857
246	0xbcff75e5	-0.031184146
247	0x3bf3c79b	0.0074395663
248	0x3db4a0e7	0.08819752
249	0x3dfba1b7	0.12286704
250	0xbdc18418	-0.09449023
251	0x3d03f082	0.032211788
252	0xbd08b8e0	-0.033379436
253	0xbdea4e03	-0.11440661
254	0x3df954e0	0.12174392
255	0x3d31f510	0.0434466

gru.bias_ih_l0 f4 [192]
0	0xbd637476	-0.055530988
1	0xbdcd945e	-0.100380644
2	0xbdc14805	-0.09437565
3	0xbdd40cda	-0.10354014
4	0xbd26d4b7	-0.040730204
5	0x3d159aab	0.036524456
6	0xbc96bd81	-0.01840091
7	0x3cdf7ddd	0.027281696
8	0x3db3f900	0.08787727
9	0x3d1d7b70	0.038447797
10	0xbc769bc7	-0.015051789
11	0x3d89ae0e	0.067226514
12	0x3ced8385	0.028993377
13	0xbde42723	-0.11140277
14	0xbdc7cc44	-0.097557575
15	0x3db0223f	0.08600282
16	0xbd9fa76b	-0.07795604
17	0xbd3a4586	-0.04547646
18	0xbd025826	-0.031822346
19	0x3d9e617f	0.0773344
20	0xbd99a7fb	-0.07502743
21	0x3d56f90f	0.052483615
22	0xbd5a28ef	-0.053261694
23	0x3df8240a	0.12116249
24	0x3de962b8	0.11395782
25	0xbc547322	-0.012966903
26	0xbde7a21c	-0.11310217
27	0xbd5980dc	-0.053101406
28	0xbdb603f9	-0.088874765
29	0xbd0e88dd	-0.03479849
30	0x3d56167a	0.05226753
31	0xbca06979	-0.019581543
32	0x3c95d47e	0.0182898
33	0x3dc21010	0.0947572
34	0x3c9aa2ea	0.018876512
35	0xbdd07a4a	-0.10179575
36	0x3ddbc133	0.10730209
37	0x3d8d0120	0.0688498
38	0x3d84eb84	0.064902335
39	0x3ddd6fbb	0.108123265
40	0xbcf2f697	-0.029658599
41	0x3d4593ce	0.04823666
42	0x3d9e2d07	0.07723432
43	0xbd1b6481	-0.037937645
44	0x3da98ce6	0.08278827
45	0xbbc8acbf	-0.0061241086
46	0x3d7b11b6	0.061296187
47	0xbded480b	-0.11586007
48	0x3d0b05ad	0.03394096
49	0xbd2cd0b0	-0.042191207
50	0x3cd9abb7	0.026571138
51	0xbdf7830a	-0.120855406
52	0x3dfd437d	0.12366388
53	0x3df87390	0.12131417
54	0x3cce0364	0.025148101
55	0xbd99a80f	-0.07502758
56	0xbc89f443	-0.016840106
57	0xbd04c3c3	-0.032413255
58	0xbd5d2796	-0.05399283
59	0x3de46422	0.11151911
60	0xbcf754c6	-0.03019179
61	0x3d7de3e7	0.061984923
62	0x3db1d3ac	0.08682951
63	0x3c8c775b	0.017146757
64	0x3d90e96f	0.07075774
65	0xbbc93c6f	-0.0061412374
66	0xbd58c757	-0.05292448
67	0x3dbb4b1e	0.09145187
68	0x3bc46274	0.005993182
69	0x3de54424	0.111946374
70	0x3d3c6ab8	0.046000212
71	0xbde548a6	-0.11195497
72	0x3d90605b	0.07049628
73	0x3d4e9a0f	0.05043989
74	0x3dd2a324	0.10285023
75	0x3c9e5d1b	0.019331506
76	0xbdff8485	-0.12476448
77	0xbdaf33fa	-0.085548356
78	0xbda29656	-0.079388306
79	0xbd3e029c	-0.046389207
80	0x3d4c7378	0.049914807
81	0xbdc01bab	-0.09380277
82	0x3c0ce38a	0.008599171
83	0x3c3d8043	0.0115662245
84	0x3d67e11e	0.056611173
85	0xbd35381b	-0.04424296
86	0xbdc6ac82	-0.09700872
87	0x3ca7abfc	0.02046775
88	0x3c17db09	0.009268531
89	0x3df67f27	0.12035971
90	0xbd5b4d23	-0.05354036
91	0xbccd51c6	-0.025063407
92	0xbd9e9f05	-0.07745174
93	0xbd0def6c	-0.03465216
94	0x3d33cd2b	0.043896835
95	0x3df68bd9	0.120383926
96	0x3daff734	0.08592072
97	0xbd6ad8ef	-0.05733579
98	0x3b6a39b2	0.0035739955
99	0xbdbd9fc3	-0.09258988
100	0xbdd8f8b1	-0.10594309
101	0x3d949007	0.072540335
102	0xbd061ece	-0.03274422
103	0xbd73f33f	-0.05955815
104	0x3d323f2f	0.043517288
105	0xbda4445f	-0.08020853
106	0xbdd87b41	-0.10570384
107	0x3d9647c3	0.07337906
108	0x3d8808fa	0.06642337
109	0xbd714daa	-0.058911957
110	0xbde04539	-0.10950703
111	0xbde0bca6	-0.10973482
112	0x3d9ff6ab	0.0781072
113	0xbb0fee22	-0.0021962007
114	0x3d710db9	0.058850978
115	0xbd9d5a3d	-0.07683227
116	0x3d213652	0.039358445
117	0x3da8726c	0.08224949
118	0x3c644404	0.013932232
119	0xbdc804da	-0.0976655
120	0xbdada8fd	-0.084794976
121	0x3db7ed54	0.089808136
122	0x3df5928d	0.11990843
123	0xbc0b588b	-0.008504997
124	0xbdea3ae4	-0.11437014
125	0xbdba2dfc	-0.09090802
126	0xbdf6d487	-0.12052255
127	0xbdaf119e	-0.08548282
128	0xbd9e9a56	-0.07744281
129	0x3dc852e0	0.09781432
130	0xbe10aa90	-0.14127564
131	0xbc474470	-0.012162313
132	0x3dd2d845	0.102951564
133	0x3da83899	0.0821392
134	0xbd5a413a	-0.05328486
135	0xbe1965f4	-0.14980298
136	0x3d50d233	0.05098171
137	0x3d2129f8	0.039346665
138	0xbd2979b3	-0.041375827
139	0xbd194288	-0.037416965
140	0xbdbeee02	-0.0932274
141	0x3dbfc48c	0.0936366
142	0x3c829328	0.01593931
143	0x3d376ebb	0.044783335
144	0x3c7743cf	0.01509185
145	0x3e032007	0.12805186
146	0xbe10057d	-0.14064594
147	0x3d1cfe64	0.038328543
148	0xbc4b64b6	-0.012414148
149	0xbdb6f593	-0.08933558
150	0xbd780eed	-0.06056111
151	0xbc5d496c	-0.013506275
152	0xbcb25d7b	-0.02177309
153	0x3d0f49ca	0.03498248
154	0xbdb5ffb7	-0.08886664
155	0xbdc3c718	-0.095594585
156	0x3d820215	0.06348053
157	0xbc7c2627	-0.015389956
158	0xbdd9ea1f	-0.10640358
159	0xbc522fda	-0.0128287915
160	0x3d7f0ebd	0.062269915
161	0x3d7057f0	0.058677614
162	0x3dd726e1	0.105054624
163	0xbe01e122	-0.12683538
164	0x3ce43f42	0.027862195
165	0xbd23322d	-0.039842773
166	0x3e046f9d	0.12933202
167	0x3d9eb51c	0.077493876
168	0x3e07c33c	0.1325807
169	0xbd8fa4ed	-0.07013879
170	0xbd9edc5e	-0.077568755
171	0xbdc1f6cc	-0.09470901
172	0x3c9138da	0.017727304
173	0xbdc37e14	-0.09545532
174	0xbcc84fbf	-0.024452088
175	0xbe1ff210	-0.15619683
176	0xbdbebbdd	-0.09313176
177	0x3e1a9adf	0.15098141
178	0x3d7b3323	0.061328065
179	0x3dcb56de	0.09928678
180	0xbdc0eaa8	-0.09419757
181	0x3d8d011e	0.06884979
182	0xbce817b3	-0.028331613
183	0xbdbdda71	-0.0927018
184	0xbdba9beb	-0.0911177
185	0x3d9cd319	0.07657451
186	0x3dd4f0f0	0.10397518
187	0x3b001757	0.0019545162
188	0x3d6d8be3	0.057994734
189	0x3cc75f14	0.024337329
190	0x3d004784	0.031318203
191	0x3dac5a3d	0.08415649

gru.bias_hh_l0 f4 [192]
0	0xbd23b7ca	-0.039970197
1	0x3dbde1c2	0.092715755
2	0xbda6e4a5	-0.08149079
3	0x3d811d70	0.06304443
4	0xbd693fbb	-0.056945544
5	0xbd8d7e9c	-0.069089144
6	0x3d4b9f51	0.049712483
7	0x3b42173c	0.00296159
8	0xbd31e532	-0.04343147
9	0xbcc653c8	-0.024209872
10	0x3db8c596	0.090220615
11	0xbd8789c6	-0.06618075
12	0x3de1f7ec	0.110336155
13	0xbdf3e713	-0.11909308
14	0x3dbb4b02	0.09145166
15	0x3d939127	0.0720542
16	0xbd1e7078	-0.038681477
17	0xbcdfd92f	-0.02732524
18	0x3d5378ae	0.05162876
19	0xbdd53a17	-0.104114704
20	0x3d2c3d8d	0.042050887
21	0xbd582a59	-0.05277476
22	0xbd1ce7eb	-0.03830711
23	0xbd2ac935	-0.041695792
24	0x3d69e7c7	0.057105806
25	0x3c7e291c	0.015512731
26	0x3d72d6df	0.05928695
27	0xbc8f254e	-0.017473843
28	0xbdcd62e1	-0.10028625
29	0x3d648d23	0.05579866
30	0xbd1aa61e	-0.037756078
31	0xbd19bd76	-0.0375342
32	0x3dd86287	0.105656676
33	0xbd811edf	-0.06304716
34	0x3d9458b0	0.07243478
35	0xbccfe8f3	-0.025379634
36	0xbdb17c2f	-0.08666264
37	0x3d3f9b9c	0.04677926
38	0xbd4b8500	-0.049687386
39	0xbc3109fe	-0.010805605
40	0xbdb8fba0	-0.09032369
41	0x3d9bc47d	0.076058365
42	0xbd34eaf9	-0.0441694
43	0x3dc0cfcc	0.09414634
44	0x3d08d02a	0.033401646
45	0x3d899ed2	0.06719746
46	0xbc19d606	-0.009389406
47	0x3dfac02f	0.12243687
48	0x3d174361	0.036929492
49	0xbde55d52	-0.1119944
50	0x3deb29a8	0.11482555
51	0xbdb22012	-0.08697523
52	0x3d272fd2	0.04081709
53	0x3d7d1eb9	0.061796878
54	0xbcfab094	-0.030601777
55	0x3dc52b43	0.09627392
56	0x3d836418	0.06415576
57	0x3c388ffe	0.011264799
58	0xbcbb67b5	-0.0228766
59	0x3de25956	0.11052196
60	0x3de4e603	0.11176684
61	0x3dd2d1b3	0.10293903
62	0xbc007f59	-0.007842862
63	0x3dad0a6c	0.084492534
64	0x3d672277	0.056429353
65	0xbb92334f	-0.004461683
66	0x3d901a23	0.07036235
67	0xbdf48f3e	-0.11941384
68	0x3cc9e02d	0.024643028
69	0x3da8e576	0.08246891
70	0xbdce5595	-0.10074917
71	0xbdca0d7c	-0.09865853
72	0xbdffc7dd	-0.12489293
73	0xbd84f954	-0.06492868
74	0xb9a84f1d	-0.000321024
75	0xbded8eff	-0.1159954
76	0x39c8c31a	0.00038292335
77	0xbd5c8501	-0.05383778
78	0xba7b472d	-0.0009585496
79	0xbac69cef	-0.0015152971
80	0x3dc9bd7f	0.09850597
81	0xbc4c31b5	-0.012463023
82	0xbd25027f	-0.040285584
83	0xbbae09dd	-0.0053112344
84	0xbd1bc6ba	-0.038031317
85	0xbd0984df	-0.03357398
86	0x3daf7ea4	0.08569077
87	0x3cc95e44	0.024581082
88	0xbb580de9	-0.0032967275
89	0xbd6d5b39	-0.057948325
90	0x3d4a146d	0.049335886
91	0x3d9bbfe5	0.0760496
92	0x3c9caaeb	0.019124469
93	0xbdd34180	-0.103152275
94	0x3dc84be2	0.097800985
95	0x3dc6dbc1	0.097098835
96	0xbc2040de	-0.009781091
97	0x3db8a6dd	0.09016202
98	0x3d460028	0.048339993
99	0xbe013ce6	-0.12620887
100	0x3b5e55cc	0.003392565
101	0x3d961155	0.073275246
102	0x3b7066ea	0.0036682435
103	0x3c9fb741	0.019496562
104	0x3dcecd0c	0.10097703
105	0x3d8e0f09	0.069364615
106	0x3daeef27	0.085417084
107	0x3d86fc21	0.065910585
108	0x3df44018	0.119262874
109	0xbc9e7beb	-0.019346198
110	0xbdea7161	-0.114474066
111	0x3c9a5cab	0.018843016
112	0x3d45325d	0.048143733
113	0x3bb9e2ba	0.00567278
114	0xbd3a5683	-0.04549266
115	0x3d15ab96	0.03654059
116	0xbda43bdf	-0.08019232
117	0x3d25f14f	0.040513333
118	0xbd5da86f	-0.05411571
119	0x3dad12fa	0.08450885
120	0x3d928aa7	0.07155352
121	0xbcc89f1d	-0.024489934
122	0x3da0ae6b	0.078457676
123	0x3d1a5626	0.037679814
124	0x3d8d8140	0.06909418
125	0x3de3fcce	0.11132203
126	0xbdf9b27b	-0.121922456
127	0xbdd9d294	-0.10635868
128	0x3da0bb91	0.078482755
129	0x3d230f10	0.039809287
130	0xbded99f1	-0.116016276
131	0xbbcff685	-0.006346526
132	0x3de07456	0.10959689
133	0xbc471f0c	-0.012153398
134	0x3dea04a0	0.114266634
135	0xbdb47794	-0.0881187
136	0xbcfe675a	-0.031055141
137	0xbdc1ba93	-0.09459414
138	0xbdb43d65	-0.088007726
139	0x3c6eecda	0.014582837
140	0x3d94837b	0.072516404
141	0xbdce9764	-0.10087469
142	0x3de115a6	0.10990457
143	0x3cedd0ec	0.029030286
144	0xbdafee74	-0.08590403
145	0x3ce409bc	0.027836673
146	0x3d7a9d2c	0.061185047
147	0x3d0c0d3c	0.03419231
148	0xbdedee11	-0.11617673
149	0x3db9881f	0.09059166
150	0xbcc8cb7c	-0.024511091
151	0x3d1ef5e0	0.038808703
152	0xbddc7213	-0.107639454
153	0xbd4fa6cf	-0.05069619
154	0x3d6ee48f	0.05832344
155	0x3c7ffcb3	0.015624213
156	0x3cb9cca6	0.022680592
157	0xbd129270	-0.035784185
158	0xbe0d0123	-0.13769965
159	0xbd2fc3ee	-0.042911462
160	0x3daf8e69	0.085720845
161	0xbc923f67	-0.017852498
162	0x3d7e09aa	0.062020935
163	0x3cf3f5ea	0.029780347
164	0x3db3702a	0.08761628
165	0xbdc010ed	-0.09378228
166	0x3d4a08ea	0.049324907
167	0x3dfbe927	0.1230033
168	0x3cfc32d8	0.030785963
169	0x3d010159	0.031495426
170	0xbddb90c3	-0.107209705
171	0x3d7695b5	0.060201366
172	0xbdc555b2	-0.09635486
173	0x3c5d9e62	0.013526531
174	0x3d949ef8	0.072568834
175	0xbbb11e59	-0.005405229
176	0x3d805fee	0.06268297
177	0xbd87bfec	-0.06628403
178	0xbde4ea74	-0.11177531
179	0xbd9bd8d5	-0.07609717
180	0x3b6d05e4	0.0036166841
181	0x3d794514	0.060856894
182	0x3b942ac0	0.0045216978
183	0xbc34c840	-0.011034071
184	0x3d81bf0c	0.063352674
185	0xbaf414ed	-0.0018621959
186	0x3c73daf9	0.01488375
187	0x3a2d6f06	0.000661597
188	0x3df5ae53	0.1199614
189	0x3da6403a	0.08117719
190	0x3daf2ee3	0.08553865
191	0x3ca03e13	0.01956085

out.weight f4 [5, 64]
0	0xbd183ecb	-0.03716926
1	0xbc8c8982	-0.017155413
2	0x3df50e87	0.119656615
3	0xbd4ff37d	-0.050769318
4	0xbd87c228	-0.06628829
5	0x3c8ece47	0.017432345
6	0xbc79a214	-0.015236396
7	0xbd2f805d	-0.042847026
8	0x3d12606f	0.035736497
9	0x3d85512d	0.06509624
10	0xbd9d0373	-0.076666735
11	0x3c488eec	0.0122411065
12	0xbd4ca3ab	-0.049960773
13	0x3d42c534	0.04755135
14	0x3da0bec7	0.07848888
15	0xbdd7a2d9	-0.105291076
16	0xbd1e082a	-0.038582005
17	0xbe0355d4	-0.1282571
18	0xbd3d4f5e	-0.04621827
19	0xbcca08b6	-0.024662357
20	0x3db5d3ec	0.088783115
21	0xbd24d561	-0.040242556
22	0xbd32b8cc	-0.043633267
23	0xbd340d41	-0.043957952
24	0xbc98c913	-0.018650567
25	0xbd839a11	-0.0642587
26	0x3dac4025	0.08410672
27	0xbc267758	-0.01016029
28	0x3d3a10dc	0.045426235
29	0x3a8cd000	0.0010743141
30	0xbcabc2b5	-0.020966867
31	0xbcad31b1	-0.021141859
32	0x3ccd20c9	0.025040047
33	0xbce89de4	-0.0283956
34	0x3dff51a7	0.12466746
35	0x3db0d6ce	0.08634721
36	0x3ded0834	0.1157383
37	0x3dd98af2	0.10622205
38	0x3d78018f	0.06054836
39	0x3e0cdd64	0.13756329
40	0xbe2b0218	-0.16700017
41	0x3d49c1e2	0.049257167
42	0xbd464b92	-0.048411913
43	0xbcd395e9	-0.025828319
44	0x3d4ac55c	0.049504623
45	0xbd5fbc74	-0.054623082
46	0x3dce63c3	0.10077622
47	0xbe0324b0	-0.12806964
48	0xbdae5f48	-0.08514267
49	0x3d1d3bcd	0.03838711
50	0xbe0592e6	-0.13044319
51	0xbceceee6	-0.02892251
52	0x3e1dcafa	0.1540946
53	0xbc1115fe	-0.008855341
54	0x3cb6b131	0.022301288
55	0x3d55eab0	0.05222577
56	0xbcc72278	-0.024308428
57	0x3d797d66	0.060910605
58	0x3dcef5ad	0.10105453
59	0xbd014911	-0.031563822
60	0xbdaf717a	-0.08566566
61	0xbd47743c	-0.048694834
62	0x3d37673f	0.044776198
63	0xbd8163e2	-0.06317879
64	0xbd38e0d1	-0.045136277
65	0xb85a6950	-5.207333e-05
66	0xbd073223	-0.0330068
67	0x3db161bd	0.0866122
68	0xbe04f379	-0.12983502
69	0xbe198fa8	-0.14996207
70	0x3d9dddfc	0.07708356
71	0x3cecdcf0	0.028913945
72	0xbd266f37	-0.040633406
73	0xbe139f38	-0.14416206
74	0x3d4c3404	0.049854293
75	0x3e2b113e	0.16705796
76	0x3cf01d8f	0.02931097
77	0xbd93cc80	-0.0721674
78	0x3d933ffe	0.0718994
79	0x3e13da7d	0.14438815
80	0x3b82c45e	0.003990694
81	0xbd11535d	-0.035479892
82	0xbde71ad1	-0.11284412
83	0xbdba9708	-0.09110838
84	0x3d3dc536	0.046330653
85	0xbdbc1ab6	-0.09184782
86	0xbcac844c	-0.021059178
87	0x3e3846ce	0.1799576
88	0xbdaffca6	-0.08593111
89	0xbdd4ba6e	-0.10387121
90	0x3d469af6	0.048487626
91	0x3e7b261f	0.24526261
92	0xbd323370	-0.043506086
93	0xbdde6aba	-0.108602
94	0x3d2514ce	0.040303044
95	0x3d107651	0.035269085
96	0x3e0b4403	0.13600163
97	0xbddd4b59	-0.10805387
98	0x3e2b1ea3	0.16710906
99	0xbcb3425c	-0.021882229
100	0xbe194b6e	-0.1497018
101	0xbd1e58c2	-0.038658865
102	0xbd2d7134	-0.042344287
103	0xbd91a9ec	-0.07112488
104	0xbd8defdb	-0.069305144
105	0xbd4c0eef	-0.04981893
106	0xbd9a4ce8	-0.075342
107	0xbd88bf48	-0.06677109
108	0x3d0c3e30	0.034238994
109	0xbd849849	-0.064743586
110	0xbdad5b34	-0.08464661
111	0x3e064566	0.13112411
112	0x3d673450	0.056446373
113	0xbd5c58e0	-0.053795695
114	0x3d62e7e0	0.055396914
115	0xbd80a910	-0.06282246
116	0xbe5d94f9	-0.2163886
117	0x3d948c39	0.07253308
118	0x3e2c9824	0.16854912
119	0xbaa5e5dd	-0.0012657006
120	0xbe6b0ce7	-0.2295414
121	0x3e2334f5	0.1593817
122	0x3e654dff	0.22393034
123	0x3dbcbcd8	0.092157066
124	0xbe4cd812	-0.200043
125	0xbc9fee9c	-0.019522958
126	0x3e3ac9d9	0.18241061
127	0x3d6b30d5	0.057419617
128	0xbe044117	-0.12915455
129	0xbcb7c3f4	-0.022432305
130	0xbd9daaa6	-0.07698564
131	0xbe73c933	-0.2380722
132	0x3dbe1405	0.09281162
133	0x3defe426	0.11713438
134	0x3df9dfbd	0.12200878
135	0xbe3276b3	-0.17428093
136	0xbe2e4481	-0.1701832
137	0x3d354361	0.04425371
138	0x3bcc341c	0.006231798
139	0xbd97a531	-0.07404555
140	0xbdec6a91	-0.115437634
141	0xbde0ebdf	-0.10982489
142	0xbe1893fb	-0.149002
143	0x3daa9b0a	0.083303526
144	0xbe0c7110	-0.13715005
145	0x3da8bd89	0.08239276
146	0xbde5150c	-0.11185655
147	0x3d9dfe37	0.07714503
148	0xbd9e8266	-0.07739715
149	0xbd5c7ff5	-0.053832967
150	0xbdbd0cca	-0.09230955
151	0xbd444160	-0.04791391
152	0xbdc5c92c	-0.09657511
153	0xbddbd584	-0.10734084
154	0xbe2440b9	-0.16040315
155	0xbe43c570	-0.19118285
156	0xbdb33b3f	-0.08751535
157	0x3da6962c	0.08134112
158	0xbdb95b7d	-0.09050653
159	0xbe5f631f	-0.21815155
160	0xbe18abc6	-0.14909276
161	0x3c9da6a0	0.019244492
162	0x3dfe8a24	0.12428692
163	0xbdf05aec	-0.11736092
164	0xbde61e37	-0.11236232
165	0xbbb2846c	-0.005447915
166	0xbd124081	-0.035706047
167	0xbb5421d7	-0.0032368803
168	0xbcaa2b4a	-0.020772595
169	0x3ddf9d39	0.1091866
170	0xbd714cd2	-0.058911152
171	0xbe2dd17b	-0.16974442
172	0xbd471a8b	-0.048609298
173	0xbd83e945	-0.06440977
174	0xbce47535	-0.02788792
175	0xbdd7e9ad	-0.10542617
176	0xbe3d82fa	-0.18506995
177	0xbcc86616	-0.02446274
178	0x3d2482c0	0.040163755
179	0x3dbfa227	0.093571
180	0xbe34936a	-0.17634359
181	0xbda7a9d5	-0.0818669
182	0x3df877e9	0.12132246
183	0x3d8e6d0e	0.06954394
184	0xbd9a4ad3	-0.07533803
185	0xbe0ed649	-0.13948931
186	0x3dac3f92	0.084105626
187	0xbdbb280a	-0.09138496
188	0x3dd71f04	0.10503963
189	0x3d872300	0.065984726
190	0x3d235c56	0.03988298
191	0x3d9e3910	0.077257276
192	0x3cb0fdf2	0.021605466
193	0x3d9b85d8	0.07593888
194	0xbc1f2e29	-0.009715595
195	0xbe27c2db	-0.16382925
196	0x3d47ceb8	0.048781127
197	0x3e0253e3	0.12727313
198	0x3cf02750	0.02931562
199	0x3c876b0e	0.01653054
200	0xbdc7ccba	-0.09755845
201	0xbdaf92c9	-0.08572919
202	0x3d976187	0.07391649
203	0xbdf43450	-0.1192404
204	0xbd627534	-0.055287555
205	0x3cd38b84	0.025823362
206	0x3d73860f	0.05945402
207	0x3de76659	0.11298818
208	0xbdf2721a	-0.118381694
209	0x3dd06ce2	0.10177018
210	0x3cad320d	0.02114203
211	0xbdd7425e	-0.105107054
212	0xbc0bd9f1	-0.008535848
213	0xbe0eb7ae	-0.13937256
214	0xbdb867e2	-0.09004189
215	0xbde4ffd6	-0.11181609
216	0xbe0f4e48	-0.13994706
217	0xbdd461b3	-0.10370197
218	0xbd30f3af	-0.043201145
219	0xbd15a84a	-0.036537446
220	0xbd60deea	-0.054900087
221	0x3e1b8d79	0.15190686
222	0xbdfe074a	-0.12403734
223	0xbe5ffe24	-0.2187429
224	0xbdc70fbc	-0.09719798
225	0x3cb14dbf	0.021643518
226	0x3db4d354	0.0882937
227	0xbdf7a8b1	-0.12092722
228	0x3c9b79cc	0.018978976
229	0xbe054a3b	-0.13016598
230	0xbdd5a11f	-0.10431122
231	0x3dd5167e	0.10404681
232	0x3e1fd621	0.15609027
233	0x3dfc09b0	0.12306535
234	0xbc848077	-0.016174538
235	0x3d053371	0.03251976
236	0x3d8f0688	0.069836676
237	0xbe2724ae	-0.16322586
238	0x3d3b5fc7	0.045745637
239	0xbd8c38b6	-0.06846754
240	0xbe48b068	-0.19598544
241	0x3bea2791	0.00714583
242	0x3acb091f	0.0015490389
243	0x3dc62349	0.09674699
244	0x3d16f179	0.03685138
245	0xbd2711c8	-0.040788442
246	0x3da17ff0	0.0788573
247	0x3d660900	0.056160927
248	0xbde0b136	-0.109713
249	0xbe11d8ac	-0.1424281
250	0xbd52b930	-0.05144614
251	0x3db45576	0.08805363
252	0xbd2ce5a2	-0.042211182
253	0x3d5078e1	0.05089653
254	0x3c8810b0	0.01660952
255	0x3d9253ed	0.07144914

out.bias f4 [5]
0	0x3c939dee	0.018019643
1	0x3c267764	0.010160301
2	0xbfe047e7	-1.7521943
3	0xbf83bac2	-1.0291369
4	0xbdde03cb	-0.10840567
