checkpoint/eth_debug/val_best.pth (torch, 87411 bytes, 36 tensors)

fc1.weight f4 [16, 2]
000000 4c f3 8a 3e f7 a3 83 be 04 0d 67 bf 78 3b 84 3e
       0.27138746 -0.25711033 -0.90254235 0.2582662
000010 41 28 fc 3e ed 0b 4f 3f d4 53 bc 3e 4c b2 72 bf
       0.4924946 0.8087757 0.36782706 -0.9480331
000020 ad b8 bc 3e 1d 39 ec bd 75 e2 3a 3f 4a c5 47 3e
       0.36859646 -0.11534331 0.73001796 0.19508854
000030 4a 30 69 3d 0f d1 01 3e a4 fe cd 3d b4 09 32 3f
       0.056930818 0.12677406 0.100583345 0.69546056
000040 01 20 66 be a1 07 f3 be 02 b1 f3 be 9d d2 23 3f
       -0.22473146 -0.47466758 -0.47595984 0.63993245
000050 02 89 07 bd 73 7d 96 3f 83 a0 30 be 1e 32 e1 3e
       -0.033089645 1.1757034 -0.1724873 0.4398355
000060 1a 6b 45 3f 0e 3a f0 bd 54 71 36 3f 93 10 11 3f
       0.7711655 -0.11729823 0.71266675 0.56665915
000070 ba 7d 7b 3d 16 6f 2f 3e df ab bd 3e 54 52 11 be
       0.0613992 0.1713222 0.3704519 -0.14191562

fc1.bias f4 [16]
000000 f6 1e 89 be 07 f5 40 3d 06 80 b5 3e 55 9c ea 3c
       -0.26781434 0.047108676 0.35449237 0.028638998
000010 e8 0c 97 3e 2d ae f3 3e e7 59 b4 be 15 5a 33 be
       0.29502034 0.47593823 -0.3522484 -0.17514832
000020 8f 01 94 be 16 56 e7 3e 63 8c 89 3e 33 42 e5 be
       -0.2890744 0.45182866 0.2686492 -0.44777068
000030 fe 7a 0a 3f 6e 06 85 be bc 51 19 be 2b be 07 bf
       0.5409392 -0.25981468 -0.14972585 -0.5302455

fc_seq.weight f4 [12, 8]
000000 64 0b 91 3e 45 78 8f be 50 94 d7 bd 41 af 56 bd
       0.28329003 -0.28021446 -0.10526335 -0.05241323
000010 3c d3 85 3e cf 63 2b 3e c4 f0 fd bd db e7 95 be
       0.26137722 0.16737293 -0.12399438 -0.29278454
000020 14 b3 67 3d 93 78 bb 3d dc ec 8f 3d f5 36 56 bb
       0.056567267 0.09153857 0.07027599 -0.0032686566
000030 c5 fd d1 3d 24 3a 43 be 71 40 34 3e d0 d1 f0 3c
       0.10253481 -0.19065148 0.17602707 0.029396921
000040 25 6a 80 3d a1 d4 f2 bd b2 fd 07 3c 5b 1c 58 be
       0.062702455 -0.11856962 0.008300232 -0.21104567
000050 a7 e4 89 be 9c 55 cd 3b 3a 8a 98 be 6a 87 82 3d
       -0.2693226 0.006266309 -0.29792958 0.063734844
000060 47 d8 83 be 8a 6b af be 23 7d a0 3e 5f b6 de 3d
       -0.25750944 -0.34261733 0.31345472 0.10874628
000070 4b 37 b4 3d 84 f8 93 be ca 26 ae be bb d9 e2 3d
       0.08799609 -0.2890054 -0.3401397 0.11076685
000080 ae c0 1d 3d 7b 5c eb bd c8 25 fd bd e8 c1 9a 3e
       0.03851383 -0.114922486 -0.12360722 0.30226064
000090 73 ba 93 3e e8 3c 0c 3e 73 8f 8e 3e a0 e2 66 3e
       0.28853187 0.13695109 0.27843818 0.22547388
0000a0 84 6c 92 3e 11 72 96 3e cb 63 97 bd fd 16 55 3c
       0.28598416 0.293839 -0.07392081 0.013005969
0000b0 17 63 2b 3c 33 a3 26 be 9f 3a b1 bc fd d0 58 3e
       0.010460637 -0.16273193 -0.021634398 0.21173473
0000c0 9a bd 20 be ac 8c 3d 3d 9e a6 ef bd 37 f2 1a 3c
       -0.15697327 0.046276733 -0.117017016 0.009457163
0000d0 07 af be bc 1c e6 11 3e 75 73 13 3e cd 3c 80 be
       -0.023276819 0.14247936 0.14399512 -0.25046387
0000e0 3a cc 3a 3e a2 ff 1b 3e 3f 6c 1f 3e d2 91 65 3e
       0.18241969 0.15234235 0.15568636 0.22418907
0000f0 5d 7d 25 be 47 de 86 be e4 7d ac be 5b 71 46 3e
       -0.16161104 -0.2634146 -0.33689797 0.19379179
000100 e8 54 96 3d fc 55 d6 3c 5a 7c 4c 3e b2 1f a9 be
       0.07340413 0.026164047 0.19969311 -0.33031994
000110 38 21 62 be 3b fa c9 3d 08 67 45 3e bb ef 05 3e
       -0.22082984 0.09862181 0.19277585 0.13079731
000120 3a 52 85 be 51 6d ce 3d fe ef 4b bc 26 28 5b bd
       -0.26039296 0.10079444 -0.012447355 -0.053505085
000130 97 46 8a be b5 2d 5b 3e fa c9 18 be bf fc 88 3e
       -0.2700698 0.21404155 -0.14920798 0.2675533
000140 7d d3 89 3e 56 bc 78 be 00 6d a4 3e b7 06 01 be
       0.26919165 -0.24290594 0.3211441 -0.12600218
000150 5e 92 90 3d f8 03 87 be bc 38 2a 3d 8e 47 a1 be
       0.07059167 -0.26370215 0.041558012 -0.31499904
000160 4f 47 e3 bd aa 13 be 3d 4c 5a d1 bd 08 5c 14 3e
       -0.110975854 0.09281094 -0.10222301 0.14488232
000170 2d 30 a3 3e c5 fa 72 3e 82 46 29 bc ad 2f a2 be
       0.31872693 0.23728473 -0.010331752 -0.31677

fc_seq.bias f4 [12]
000000 c6 3b 63 be c2 fe a2 be 3a 40 22 3e b5 59 af be
       -0.2219077 -0.3183499 0.15844813 -0.3424813
000010 c6 1a 47 3e 16 dc 46 3e 33 1e 99 bd 33 db 87 3e
       0.19443807 0.19419894 -0.07476463 0.26534423
000020 f5 d5 88 3e 4d c6 8e be a5 f9 d4 3c 5e 61 a6 3e
       0.26725736 -0.27885666 0.025997946 0.3249616

gat1.gat.att_src f4 [1, 1, 30]
000000 90 c6 a0 be ed 30 32 3e 9d 30 1d bd 06 08 87 3e
       -0.3140149 0.17401476 -0.03837644 0.2637331
000010 33 34 1a be f3 7e 73 3e be 13 99 be 75 83 20 3e
       -0.15058975 0.23778896 -0.29897875 0.15675147
000020 db dc 3c be 29 d2 90 3c d4 c0 9a bd 07 6d 04 be
       -0.18443625 0.017678337 -0.0755631 -0.12932216
000030 41 bb 80 3d 59 79 19 3d 0e a3 b3 3c 56 07 61 3e
       0.06285716 0.03746924 0.021928336 0.21975455
000040 4e f4 8f 3e 68 8c 9b be be 46 63 bc b8 a9 db bd
       0.28116077 -0.3038056 -0.013871847 -0.10725731
000050 d2 8a 19 3e c0 93 42 bd 00 8c 39 be 28 64 48 be
       0.14994362 -0.047504187 -0.18119812 -0.19569457
000060 b0 c5 b3 bd af 33 b0 3d 8c d9 78 be 98 b5 07 3e
       -0.0877794 0.08603608 -0.24301738 0.13252866
000070 4a 71 39 be 5e 7c 86 bd
       -0.18109623 -0.0656669

gat1.gat.att_dst f4 [1, 1, 30]
000000 02 18 c2 3d 7e bb 6d 3e de 4a ab bd c4 3e 89 3e
       0.094772354 0.23216054 -0.08363889 0.268057
000010 29 5b 07 3d 87 52 c2 3d bf 9f e3 3d 72 75 9a be
       0.03304592 0.09488397 0.111144535 -0.3016773
000020 b9 54 a5 3e 9a 0a 42 be fd ca 50 be 18 4f a4 be
       0.322912 -0.18949357 -0.20389934 -0.32091594
000030 8e 65 3f 3d a2 8b 8e be a8 38 ab bd db fe 58 3e
       0.04672771 -0.27840906 -0.08360416 0.2119097
000040 a9 03 4a be d4 e5 51 3e 09 6f 1b 3e 92 4f 8d be
       -0.19727959 0.20497829 0.15179075 -0.2759977
000050 28 0d c8 3d 92 d5 82 be 11 4e 0c 3e 44 e9 0f 3e
       0.09768134 -0.25553566 0.13701655 0.14053828
000060 90 2d 6c be 22 bb 88 be c9 08 1f 3e 57 73 5b 3e
       -0.23064256 -0.2670527 0.15530695 0.21430717
000070 47 ec 1a be 80 01 3b be
       -0.15129195 -0.18262291

gat1.gat.bias f4 [30]
000000 51 99 0a 3d 0b 4c 48 bc 34 03 20 bd fe d2 04 3d
       0.03383762 -0.012225161 -0.039065555 0.03242778
000010 7c ac 81 bc 00 00 00 00 50 f5 90 bd 92 ba 6f bc
       -0.015829317 0.0 -0.0707804 -0.014631884
000020 00 00 00 00 60 82 d1 3c 00 00 00 00 70 e5 01 3d
       0.0 0.025574863 0.0 0.03171295
000030 f0 ba 76 bc 8c dd 15 bd 02 37 3e bd 00 00 00 00
       -0.015059218 -0.036588237 -0.04643918 0.0
000040 c9 9c 6c bc 00 00 00 00 00 00 00 00 a0 16 d6 3d
       -0.014441677 0.0 0.0 0.10453534
000050 fc 8d 18 3d 19 7f 0a bd 34 1c 38 bc ca 57 c3 bc
       0.03724478 -0.033812616 -0.011237193 -0.023845572
000060 bf 4b b4 3c 00 00 00 00 e0 10 89 3d 74 dd 89 bb
       0.022008775 0.0 0.06692672 -0.0042073075
000070 d7 75 35 3b 00 00 00 00
       0.0027688646 0.0

gat1.gat.lin_src.weight f4 [30, 30]
000000 f3 0c d2 3d 86 c4 88 3e 0f eb e4 bd 41 9f 93 3e
       0.10256376 0.26712435 -0.11177646 0.2883244
000010 55 62 19 bb 48 4c 1b 3d fd fb 53 3d 8f d5 6e be
       -0.0023404558 0.037914544 0.051753987 -0.23323654
000020 52 3e 03 3e 86 d8 81 be ab cb 3f bd 9a bd c2 3d
       0.12816742 -0.25360507 -0.046825092 0.0950882
000030 03 84 7f be 05 ab 66 3e 64 cf 8d bd 96 d8 53 be
       -0.24952702 0.22526176 -0.06924322 -0.2068809
000040 ee 2f 68 be 47 00 3e 3e 43 dd 4e be 89 19 25 be
       -0.22674534 0.18554793 -0.20201592 -0.16123022
000050 fe c8 61 3e 10 88 a5 3d 04 d7 2b be 51 1a 31 3e
       0.22049329 0.080825925 -0.1678124 0.17295195
000060 13 98 a3 ba 93 62 0a be 08 12 5a be 0c a8 d0 bd
       -0.0012481235 -0.13514166 -0.21295941 -0.101883024
000070 79 e7 55 3e 90 46 5e be cd d8 17 3e 71 6f 6d be
       0.20889081 -0.21706605 0.14828797 -0.23187043
000080 bc 32 54 bd f3 f2 c0 bd 67 23 23 3e 9b 6d 0d 3e
       -0.051806197 -0.09421339 0.15931474 0.13811342
000090 70 68 5e be fb 8c 4c 3e 53 ed 11 be e9 f4 ab bd
       -0.21719527 0.19975655 -0.14250688 -0.08396322
0000a0 a0 eb 6f be a6 d7 d4 3d 12 2d 3d 3e f1 d6 18 bc
       -0.23429728 0.10392694 0.18474224 -0.00932859
0000b0 56 b2 e7 bd aa 4b 59 bd 8f 74 0a be 51 52 7c bd
       -0.11313312 -0.053050674 -0.13521026 -0.06160194
0000c0 29 4b 93 bd 1e 23 3a be 84 0e 8e 3e 2d 8e 6e be
       -0.0719207 -0.18177459 0.2774545 -0.23296423
0000d0 8e 08 6a 3e b8 e1 46 be f9 02 41 be ae 01 56 3e
       0.22854826 -0.19422042 -0.1884879 0.20899078
0000e0 8a fb 42 3e 0f 9a 78 3e c8 61 16 be ff 32 27 3d
       0.19041267 0.24277519 -0.14685738 0.040820118
0000f0 65 38 d0 3d 2b 97 5d 3e c4 dd 66 be 12 7e 45 3e
       0.101670064 0.21639697 -0.22545534 0.19286373
000100 e2 d6 7e 3e 1e 51 78 be 1c ab 39 be 55 ad ce 3d
       0.24886659 -0.24249694 -0.1813168 0.10091654
000110 46 d8 9f bc e7 2c c7 3d 1a 8e ec bd 54 ca 9c 3d
       -0.019512307 0.09725361 -0.11550541 0.076557785
000120 b1 51 94 3d ad 53 21 be b3 f7 66 3e 74 9b 3a be
       0.07242144 -0.15754576 0.22555427 -0.18223363
000130 97 14 08 bd 89 fd 4e bc 99 cb 5f 3d b0 19 31 be
       -0.03322276 -0.01263369 0.054637525 -0.17294955
000140 fa 78 98 bd 41 e0 4a be 3f b4 db 3c 36 68 20 be
       -0.074449494 -0.19812109 0.026819346 -0.15664753
000150 33 a4 1a 3e 4f 13 dc 3d 7e 34 a4 bd cf 5b 4c 3e
       0.151017 0.1074587 -0.080178246 0.19956897
000160 8c 44 2b be aa 0c 72 be 14 97 e4 3d 3f 30 77 3d
       -0.16725367 -0.23637643 0.11161628 0.060348745
000170 00 88 19 3e b9 75 8b be d1 15 6d 3e 8d a3 85 be
       0.14993286 -0.27238253 0.23152854 -0.26101342
000180 f5 1e 91 be 92 60 06 bd 52 a8 63 be e4 32 7d be
       -0.2834393 -0.03280694 -0.22232178 -0.24726444
000190 1e f9 94 bd 66 7c ad 3e 8b 38 c0 ba 4b e5 09 3e
       -0.07274078 0.3388397 -0.0014665289 0.13466375
0001a0 86 a6 a8 bc 11 a9 1d be 52 8c 96 3d d7 8e 1a bd
       -0.020587217 -0.15396525 0.07350983 -0.03773388
0001b0 9a 8d 0f 3d 9e d9 53 be 96 26 b1 3c 87 8e ed bc
       0.03504715 -0.20688483 0.021624845 -0.028998626
0001c0 c9 dc 3b 3e 56 0f 59 bb a0 fa 9e 3d f2 56 61 3d
       0.18345942 -0.0033120713 0.07762647 0.055014558
0001d0 86 7d a7 bd 3e 78 26 3d 77 00 17 3d a0 3d 5b 3e
       -0.081782386 0.040642016 0.036865678 0.21410227
0001e0 41 93 a4 3c 6e 08 a5 3e 22 44 1c be aa 83 88 3e
       0.020089747 0.32232994 -0.15260366 0.26662952
0001f0 f1 a8 71 be f6 6f 43 3e bb c2 b5 bd 83 9d b1 bb
       -0.23599602 0.19085678 -0.088750325 -0.005420388
000200 4d 7b c9 bd e1 02 50 be 84 0e 03 be 2f aa ae 3b
       -0.09837971 -0.20313598 -0.12798506 0.005330346
000210 67 9f 81 3e f2 bc 71 3e 6d d7 c7 3d 3c 32 08 be
       0.25316927 0.23607233 0.09757886 -0.13300413
000220 eb 90 53 3e 21 a2 3d be 6f 66 db 3d 86 4d 0c 3e
       0.2066075 -0.18518879 0.10712897 0.13701448
000230 8c ed 03 3e d4 00 11 3c 93 49 8c be 33 fc c9 3c
       0.12883586 0.008850295 -0.27399883 0.02465639
000240 4f 60 a5 be 45 f7 bd bd 8f 99 50 3e 59 fa 70 3d
       -0.3230004 -0.092756785 0.20371078 0.0588325
000250 da b8 0d 3d 33 d0 4e 3e 03 d1 a3 3d 1e 0e 4f be
       0.034600116 0.20196609 0.0799885 -0.20220229
000260 9a e1 e4 bd 70 d3 0e be f7 27 25 3d bb df a0 ba
       -0.111758426 -0.13947845 0.040321317 -0.0012273708
000270 32 93 5a be ee 27 a5 3d 72 68 e7 3d c2 a0 e2 bb
       -0.21345213 0.080642566 0.11299218 -0.0069161365
000280 15 2a b7 3d 9f 7f 35 3e c7 97 25 be 55 25 a2 3d
       0.089435734 0.17724465 -0.1617118 0.07917277
000290 85 71 13 bd 8a a0 4b 3e 3a 25 a4 3d 01 9c 1d 3e
       -0.035996933 0.1988546 0.08014913 0.15391542
0002a0 3d 50 00 be 89 28 66 3d b0 7e 17 3e ed 43 98 bd
       -0.12530608 0.056191 0.14794421 -0.07434831
0002b0 f8 bc 90 bc 6f 10 57 be 69 56 ee bd bc 2d f2 3d
       -0.017668232 -0.21002363 -0.11637575 0.118251294
0002c0 d7 f7 59 be 72 c1 80 bc 1a f1 6f 3e e4 10 a3 bd
       -0.2128595 -0.015717242 0.23431817 -0.07962206
0002d0 dc 95 9d 3d 92 8b fd bd 1c 84 40 bc 37 cc 65 3c
       0.07694599 -0.123801365 -0.011750247 0.014025739
0002e0 01 07 58 3e 29 f4 2c 3d f2 7b db bd b8 ce 6b be
       0.21096422 0.042225037 -0.10717 -0.23028076
0002f0 dc 05 3c 3e 5b f4 59 3e 2f f4 15 bd 06 e3 e2 bd
       0.1836161 0.2128462 -0.036609825 -0.110784575
000300 80 99 3b bd 7b 03 12 be db 09 47 3d 5f 1b 1d 3c
       -0.045800686 -0.1425914 0.048593383 0.009589045
000310 ae 04 18 3e c6 64 60 be 5a 30 30 be 29 af 9a bd
       0.14845535 -0.21913442 -0.17205945 -0.075529404
000320 7b b5 73 3d 16 0a 48 3e 8e 6a 1f be 98 6d 55 3e
       0.059499245 0.19535097 -0.15567991 0.20842588
000330 c3 c5 7c be fd 74 8e bd 59 f6 4b ba 02 1e c5 3d
       -0.24684815 -0.069559075 -0.0007780544 0.09624864
000340 68 d8 d7 bd c3 27 a7 3d 88 0d 88 3d 6c 30 43 3e
       -0.10539323 0.08161881 0.06643206 0.1906144
000350 03 ab 7d bd 82 88 81 3e 70 39 98 3e fd a7 ab bd
       -0.061930668 0.2529946 0.2973132 -0.083816506
000360 a5 27 74 bd ab 41 2d 3e f9 5e 28 3d f1 bc b1 bc
       -0.05960812 0.16919582 0.041106198 -0.02169654
000370 07 d5 85 be bf a1 07 3e 7e 7b 48 be 85 be 40 be
       -0.2613909 0.13245295 -0.19578359 -0.18822677
000380 66 3a 38 3d c4 14 42 3e d5 65 e1 bd d6 fd 95 3c
       0.044977568 0.18953234 -0.11005751 0.018309515
000390 c8 aa 42 3e bf e7 5f 3e a7 51 da 3c 64 af 8e 3e
       0.1901046 0.21865748 0.026650263 0.27868187
0003a0 30 dd 02 bd 9f 5b 17 be f6 a7 16 bd 79 90 3c be
       -0.031949222 -0.14781044 -0.036781274 -0.18414487
0003b0 54 2f 9c 3e ae 7c a5 bd 44 23 02 be 6f d4 40 be
       0.30504858 -0.080804214 -0.12708765 -0.18831037
0003c0 2f 63 2c be 9c 0a 16 be 11 63 42 be 62 5d 69 bd
       -0.1683471 -0.14652485 -0.18983103 -0.056973822
0003d0 17 59 40 be 97 c5 c4 3d 32 32 61 be 15 07 e6 3d
       -0.18783985 0.09608 -0.21991804 0.112318195
0003e0 78 f6 1a 3e d3 1c c3 3d 3b 10 20 be 13 71 f3 bd
       0.15133083 0.09526982 -0.15631191 -0.118868016
0003f0 3c bc 01 be d5 57 d8 bc c3 03 2d 3e 26 32 23 be
       -0.12669462 -0.02640907 0.16895966 -0.15937099

gat1.gat.lin_dst.weight f4 [30, 30]
000000 f3 0c d2 3d 86 c4 88 3e 0f eb e4 bd 41 9f 93 3e
       0.10256376 0.26712435 -0.11177646 0.2883244
000010 55 62 19 bb 48 4c 1b 3d fd fb 53 3d 8f d5 6e be
       -0.0023404558 0.037914544 0.051753987 -0.23323654
000020 52 3e 03 3e 86 d8 81 be ab cb 3f bd 9a bd c2 3d
       0.12816742 -0.25360507 -0.046825092 0.0950882
000030 03 84 7f be 05 ab 66 3e 64 cf 8d bd 96 d8 53 be
       -0.24952702 0.22526176 -0.06924322 -0.2068809
000040 ee 2f 68 be 47 00 3e 3e 43 dd 4e be 89 19 25 be
       -0.22674534 0.18554793 -0.20201592 -0.16123022
000050 fe c8 61 3e 10 88 a5 3d 04 d7 2b be 51 1a 31 3e
       0.22049329 0.080825925 -0.1678124 0.17295195
000060 13 98 a3 ba 93 62 0a be 08 12 5a be 0c a8 d0 bd
       -0.0012481235 -0.13514166 -0.21295941 -0.101883024
000070 79 e7 55 3e 90 46 5e be cd d8 17 3e 71 6f 6d be
       0.20889081 -0.21706605 0.14828797 -0.23187043
000080 bc 32 54 bd f3 f2 c0 bd 67 23 23 3e 9b 6d 0d 3e
       -0.051806197 -0.09421339 0.15931474 0.13811342
000090 70 68 5e be fb 8c 4c 3e 53 ed 11 be e9 f4 ab bd
       -0.21719527 0.19975655 -0.14250688 -0.08396322
0000a0 a0 eb 6f be a6 d7 d4 3d 12 2d 3d 3e f1 d6 18 bc
       -0.23429728 0.10392694 0.18474224 -0.00932859
0000b0 56 b2 e7 bd aa 4b 59 bd 8f 74 0a be 51 52 7c bd
       -0.11313312 -0.053050674 -0.13521026 -0.06160194
0000c0 29 4b 93 bd 1e 23 3a be 84 0e 8e 3e 2d 8e 6e be
       -0.0719207 -0.18177459 0.2774545 -0.23296423
0000d0 8e 08 6a 3e b8 e1 46 be f9 02 41 be ae 01 56 3e
       0.22854826 -0.19422042 -0.1884879 0.20899078
0000e0 8a fb 42 3e 0f 9a 78 3e c8 61 16 be ff 32 27 3d
       0.19041267 0.24277519 -0.14685738 0.040820118
0000f0 65 38 d0 3d 2b 97 5d 3e c4 dd 66 be 12 7e 45 3e
       0.101670064 0.21639697 -0.22545534 0.19286373
000100 e2 d6 7e 3e 1e 51 78 be 1c ab 39 be 55 ad ce 3d
       0.24886659 -0.24249694 -0.1813168 0.10091654
000110 46 d8 9f bc e7 2c c7 3d 1a 8e ec bd 54 ca 9c 3d
       -0.019512307 0.09725361 -0.11550541 0.076557785
000120 b1 51 94 3d ad 53 21 be b3 f7 66 3e 74 9b 3a be
       0.07242144 -0.15754576 0.22555427 -0.18223363
000130 97 14 08 bd 89 fd 4e bc 99 cb 5f 3d b0 19 31 be
       -0.03322276 -0.01263369 0.054637525 -0.17294955
000140 fa 78 98 bd 41 e0 4a be 3f b4 db 3c 36 68 20 be
       -0.074449494 -0.19812109 0.026819346 -0.15664753
000150 33 a4 1a 3e 4f 13 dc 3d 7e 34 a4 bd cf 5b 4c 3e
       0.151017 0.1074587 -0.080178246 0.19956897
000160 8c 44 2b be aa 0c 72 be 14 97 e4 3d 3f 30 77 3d
       -0.16725367 -0.23637643 0.11161628 0.060348745
000170 00 88 19 3e b9 75 8b be d1 15 6d 3e 8d a3 85 be
       0.14993286 -0.27238253 0.23152854 -0.26101342
000180 f5 1e 91 be 92 60 06 bd 52 a8 63 be e4 32 7d be
       -0.2834393 -0.03280694 -0.22232178 -0.24726444
000190 1e f9 94 bd 66 7c ad 3e 8b 38 c0 ba 4b e5 09 3e
       -0.07274078 0.3388397 -0.0014665289 0.13466375
0001a0 86 a6 a8 bc 11 a9 1d be 52 8c 96 3d d7 8e 1a bd
       -0.020587217 -0.15396525 0.07350983 -0.03773388
0001b0 9a 8d 0f 3d 9e d9 53 be 96 26 b1 3c 87 8e ed bc
       0.03504715 -0.20688483 0.021624845 -0.028998626
0001c0 c9 dc 3b 3e 56 0f 59 bb a0 fa 9e 3d f2 56 61 3d
       0.18345942 -0.0033120713 0.07762647 0.055014558
0001d0 86 7d a7 bd 3e 78 26 3d 77 00 17 3d a0 3d 5b 3e
       -0.081782386 0.040642016 0.036865678 0.21410227
0001e0 41 93 a4 3c 6e 08 a5 3e 22 44 1c be aa 83 88 3e
       0.020089747 0.32232994 -0.15260366 0.26662952
0001f0 f1 a8 71 be f6 6f 43 3e bb c2 b5 bd 83 9d b1 bb
       -0.23599602 0.19085678 -0.088750325 -0.005420388
000200 4d 7b c9 bd e1 02 50 be 84 0e 03 be 2f aa ae 3b
       -0.09837971 -0.20313598 -0.12798506 0.005330346
000210 67 9f 81 3e f2 bc 71 3e 6d d7 c7 3d 3c 32 08 be
       0.25316927 0.23607233 0.09757886 -0.13300413
000220 eb 90 53 3e 21 a2 3d be 6f 66 db 3d 86 4d 0c 3e
       0.2066075 -0.18518879 0.10712897 0.13701448
000230 8c ed 03 3e d4 00 11 3c 93 49 8c be 33 fc c9 3c
       0.12883586 0.008850295 -0.27399883 0.02465639
000240 4f 60 a5 be 45 f7 bd bd 8f 99 50 3e 59 fa 70 3d
       -0.3230004 -0.092756785 0.20371078 0.0588325
000250 da b8 0d 3d 33 d0 4e 3e 03 d1 a3 3d 1e 0e 4f be
       0.034600116 0.20196609 0.0799885 -0.20220229
000260 9a e1 e4 bd 70 d3 0e be f7 27 25 3d bb df a0 ba
       -0.111758426 -0.13947845 0.040321317 -0.0012273708
000270 32 93 5a be ee 27 a5 3d 72 68 e7 3d c2 a0 e2 bb
       -0.21345213 0.080642566 0.11299218 -0.0069161365
000280 15 2a b7 3d 9f 7f 35 3e c7 97 25 be 55 25 a2 3d
       0.089435734 0.17724465 -0.1617118 0.07917277
000290 85 71 13 bd 8a a0 4b 3e 3a 25 a4 3d 01 9c 1d 3e
       -0.035996933 0.1988546 0.08014913 0.15391542
0002a0 3d 50 00 be 89 28 66 3d b0 7e 17 3e ed 43 98 bd
       -0.12530608 0.056191 0.14794421 -0.07434831
0002b0 f8 bc 90 bc 6f 10 57 be 69 56 ee bd bc 2d f2 3d
       -0.017668232 -0.21002363 -0.11637575 0.118251294
0002c0 d7 f7 59 be 72 c1 80 bc 1a f1 6f 3e e4 10 a3 bd
       -0.2128595 -0.015717242 0.23431817 -0.07962206
0002d0 dc 95 9d 3d 92 8b fd bd 1c 84 40 bc 37 cc 65 3c
       0.07694599 -0.123801365 -0.011750247 0.014025739
0002e0 01 07 58 3e 29 f4 2c 3d f2 7b db bd b8 ce 6b be
       0.21096422 0.042225037 -0.10717 -0.23028076
0002f0 dc 05 3c 3e 5b f4 59 3e 2f f4 15 bd 06 e3 e2 bd
       0.1836161 0.2128462 -0.036609825 -0.110784575
000300 80 99 3b bd 7b 03 12 be db 09 47 3d 5f 1b 1d 3c
       -0.045800686 -0.1425914 0.048593383 0.009589045
000310 ae 04 18 3e c6 64 60 be 5a 30 30 be 29 af 9a bd
       0.14845535 -0.21913442 -0.17205945 -0.075529404
000320 7b b5 73 3d 16 0a 48 3e 8e 6a 1f be 98 6d 55 3e
       0.059499245 0.19535097 -0.15567991 0.20842588
000330 c3 c5 7c be fd 74 8e bd 59 f6 4b ba 02 1e c5 3d
       -0.24684815 -0.069559075 -0.0007780544 0.09624864
000340 68 d8 d7 bd c3 27 a7 3d 88 0d 88 3d 6c 30 43 3e
       -0.10539323 0.08161881 0.06643206 0.1906144
000350 03 ab 7d bd 82 88 81 3e 70 39 98 3e fd a7 ab bd
       -0.061930668 0.2529946 0.2973132 -0.083816506
000360 a5 27 74 bd ab 41 2d 3e f9 5e 28 3d f1 bc b1 bc
       -0.05960812 0.16919582 0.041106198 -0.02169654
000370 07 d5 85 be bf a1 07 3e 7e 7b 48 be 85 be 40 be
       -0.2613909 0.13245295 -0.19578359 -0.18822677
000380 66 3a 38 3d c4 14 42 3e d5 65 e1 bd d6 fd 95 3c
       0.044977568 0.18953234 -0.11005751 0.018309515
000390 c8 aa 42 3e bf e7 5f 3e a7 51 da 3c 64 af 8e 3e
       0.1901046 0.21865748 0.026650263 0.27868187
0003a0 30 dd 02 bd 9f 5b 17 be f6 a7 16 bd 79 90 3c be
       -0.031949222 -0.14781044 -0.036781274 -0.18414487
0003b0 54 2f 9c 3e ae 7c a5 bd 44 23 02 be 6f d4 40 be
       0.30504858 -0.080804214 -0.12708765 -0.18831037
0003c0 2f 63 2c be 9c 0a 16 be 11 63 42 be 62 5d 69 bd
       -0.1683471 -0.14652485 -0.18983103 -0.056973822
0003d0 17 59 40 be 97 c5 c4 3d 32 32 61 be 15 07 e6 3d
       -0.18783985 0.09608 -0.21991804 0.112318195
0003e0 78 f6 1a 3e d3 1c c3 3d 3b 10 20 be 13 71 f3 bd
       0.15133083 0.09526982 -0.15631191 -0.118868016
0003f0 3c bc 01 be d5 57 d8 bc c3 03 2d 3e 26 32 23 be
       -0.12669462 -0.02640907 0.16895966 -0.15937099

gat2.gat.att_src f4 [1, 1, 30]
000000 f2 3e 87 be bf 3c 9f 3e d8 a1 03 be bd 3b bf bd
       -0.2641521 0.31101033 -0.12854707 -0.09337566
000010 c4 89 aa 3e 20 d8 8a 3e 9e c9 39 bc fd 86 97 be
       0.33308232 0.27118015 -0.011339573 -0.29595175
000020 52 79 7b 3e 23 ce 50 3e ad 16 1f 3e e2 a8 62 3e
       0.24557999 0.20391135 0.15535994 0.22134736
000030 2e a3 ce 3d 87 6f 63 3e c2 69 46 3d 71 c2 c0 3e
       0.10089718 0.22210513 0.048440702 0.37648347
000040 b7 2b 8f be c8 b0 fc bd 28 c9 10 be 72 77 ab 3e
       -0.2796304 -0.12338406 -0.14139235 0.33489567
000050 b5 f3 5e 3e aa 84 49 3e d7 45 d3 bc 96 43 a7 3e
       0.21772654 0.19679514 -0.025790138 0.3266875
000060 f8 02 af bd 7c 12 9e be a8 8a f2 3d ed 59 cc 3e
       -0.08545488 -0.30873477 0.11842853 0.39912358
000070 a3 28 c8 3e c0 d1 3a be
       0.39093503 -0.18244076

gat2.gat.att_dst f4 [1, 1, 30]
000000 e1 4c 68 be 91 cf d0 3e 19 0e 8f be e4 64 07 bd
       -0.22685577 0.4078336 -0.27940443 -0.0330552
000010 fd 11 99 3e 5f 85 9b 3d cc 2f de be 78 9d 97 bd
       0.29896536 0.07593798 -0.4339584 -0.07403082
000020 8e 36 63 be 37 fa e8 bd cd 22 16 be 9b f7 42 3e
       -0.2218878 -0.1137585 -0.14661713 0.19039766
000030 0b 31 7b 3e 87 51 df 3d a6 9c 33 3e a5 0d 9f bd
       0.24530427 0.10904222 0.17540225 -0.07766274
000040 c9 88 c8 bd 33 17 f8 3d 1d 10 65 be 56 dc 5b 39
       -0.09791715 0.121138 -0.22369428 0.00020967549
000050 ed 00 e0 3d 9f e5 c3 3e a9 30 1f 3e 38 db c5 be
       0.109376766 0.38261124 0.15545906 -0.38643813
000060 12 c5 63 3e 1f b7 92 be d7 39 83 be 2f 6d 05 be
       0.22243145 -0.28655335 -0.25630066 -0.13029931
000070 79 5a fc bd 25 33 57 3e
       -0.12321944 0.21015604

gat2.gat.bias f4 [30]
000000 00 00 00 00 00 00 00 00 00 00 00 00 00 00 00 00
       0.0 0.0 0.0 0.0
000010 00 00 00 00 00 00 00 00 00 00 00 00 00 00 00 00
       0.0 0.0 0.0 0.0
000020 00 00 00 00 00 00 00 00 00 00 00 00 00 00 00 00
       0.0 0.0 0.0 0.0
000030 00 00 00 00 00 00 00 00 00 00 00 00 00 00 00 00
       0.0 0.0 0.0 0.0
000040 00 00 00 00 00 00 00 00 00 00 00 00 00 00 00 00
       0.0 0.0 0.0 0.0
000050 00 00 00 00 00 00 00 00 00 00 00 00 00 00 00 00
       0.0 0.0 0.0 0.0
000060 00 00 00 00 00 00 00 00 00 00 00 00 00 00 00 00
       0.0 0.0 0.0 0.0
000070 00 00 00 00 00 00 00 00
       0.0 0.0

gat2.gat.lin_src.weight f4 [30, 30]
000000 e2 40 34 3e 95 5d 81 be 43 f9 ad bd ff 8b 0a 3e
       0.17602876 -0.2526671 -0.084948085 0.13529967
000010 95 bc 5d be cc 91 5f be a7 53 8f be a6 c7 43 3e
       -0.2165397 -0.21832961 -0.2799351 0.19119129
000020 9a f2 45 3e 3c 4b 85 3e fe e4 57 be c2 28 3a 3e
       0.19330826 0.26033962 -0.21083447 0.1817961
000030 ab d9 88 3d 8e 14 ae 3c ac b1 1e be 85 1f ca 3d
       0.06682142 0.021250036 -0.15497464 0.09869293
000040 a0 13 91 3d cf 76 52 be 99 49 20 bd 98 0a 81 3d
       0.07083821 -0.20553134 -0.03913269 0.06300849
000050 57 1b d2 bd c7 ea de bd e9 f8 6b bd a1 2a 8b be
       -0.10259121 -0.10884624 -0.057610426 -0.2718096
000060 77 b8 ec 3c 01 33 9a be 34 b8 0c 3e e2 c5 33 3e
       0.028896553 -0.30117038 0.13742143 0.17555955
000070 eb a8 86 be 65 8b 83 be a8 15 94 3e bd 8d 19 3e
       -0.2630075 -0.25692287 0.28922772 0.14995475
000080 29 38 9a be cf 38 4c 3e bf 7a 2c 3e 6a fc d2 3c
       -0.30120972 0.19943546 0.16843699 0.025755126
000090 a2 0a fb bd fe a8 86 3e 40 12 86 3e 1a 13 78 be
       -0.122578874 0.26300806 0.261858 -0.24226037
0000a0 96 91 5a 3e 26 4a a3 3c 9f fd d2 bd a0 31 32 3e
       0.21344599 0.019932818 -0.10302281 0.17401743
0000b0 a1 fd 83 be ee 5c 97 3d 4b 0d 82 be 80 92 02 bd
       -0.2577944 0.07390772 -0.25400767 -0.031877995
0000c0 8a b7 9c 3e 40 48 06 3d 39 0d 21 be a6 49 22 3e
       0.3060878 0.032783747 -0.157277 0.15848407
0000d0 c3 34 8e be 61 51 43 bd 1e 9d 9d be a4 b6 0c be
       -0.2777463 -0.04768503 -0.30783933 -0.13741547
0000e0 51 9a 6e 3d f4 3e 2d be 8b 02 08 3e a1 88 b4 3d
       0.058252636 -0.16918546 0.1328222 0.088151224
0000f0 61 d5 5d be b1 67 96 be 3c cc 73 be f8 a0 24 3e
       -0.21663429 -0.29375985 -0.23808378 0.1607703
000100 a5 27 3a bd 7d a0 81 bd 83 9e 77 3e 8c 53 3b 3e
       -0.045447964 -0.06329439 0.24181561 0.1829359
000110 fe 0e 86 be 46 82 71 3e 92 8c 9f bd 0e 54 d1 bd
       -0.26183313 0.23584852 -0.077904835 -0.1022111
000120 4d c1 02 bd 1e b7 81 bd ba df 0d be 40 79 81 3e
       -0.031922627 -0.06333755 -0.13854876 0.2528782
000130 33 d2 82 be e7 3d 4e 3e 2c b8 82 be 82 6c a8 3d
       -0.25550994 0.20140801 -0.25531137 0.08223821
000140 45 39 2e be e6 64 85 be 0a fb 99 3e cb 77 0e be
       -0.17014034 -0.26053542 0.3007434 -0.13912885
000150 bd 6b 8a 3e 80 89 1e 3e 23 ed 83 3e 72 bb b8 3d
       0.27035323 0.1548214 0.25766858 0.09020127
000160 01 db 2d bc 92 44 9a 3e b0 34 4c 3e 13 4b 3c 3d
       -0.010611297 0.3013044 0.19941974 0.045970034
000170 2e 11 85 bd 4f 33 11 bc bd b9 cd 3d 87 18 db 3c
       -0.064974174 -0.008862331 0.100451924 0.026745094
000180 c1 6c 40 3e 9e d0 a0 3e 77 93 03 be c2 9c 12 bc
       0.18791486 0.31409162 -0.12849222 -0.008948507
000190 dd d8 9c 3e ee a9 3a bd 99 64 0d be 9a 49 5e be
       0.30634204 -0.045572214 -0.13807906 -0.21707764
0001a0 4e 3d 84 be d6 21 80 3e 6f fa 4b 3e 31 6d 42 be
       -0.25828022 0.25025815 0.19919752 -0.18986966
0001b0 0c 87 8c 3e 7d d1 7e 3e 40 46 bc bd ed fd 99 3e
       0.27446783 0.24884601 -0.091930866 0.30076542
0001c0 15 e0 79 be 24 c1 a0 3e c0 2e 8e 3e 42 bf 98 be
       -0.24401887 0.31397355 0.27770042 -0.29833418
0001d0 72 7c 41 3e 72 4c ee 3d 10 cb 7c 3e 73 a9 78 be
       0.18895128 0.116356745 0.24686837 -0.2428339
0001e0 5e 0f 8c 3e 78 39 00 bd 70 03 e1 bd 3f ae 97 3e
       0.27355474 -0.031304806 -0.10986984 0.29625127
0001f0 1f 49 9f 3e 7c 46 81 3e 00 ee 76 be d3 c9 78 be
       0.31110474 0.25249088 -0.24114227 -0.2429574
000200 70 a8 a5 bd 91 39 e7 3d f1 29 96 be 53 84 90 be
       -0.080887675 0.11290277 -0.29328874 -0.28225955
000210 27 15 2d 3e e6 1c 86 be 53 27 92 3e d7 e1 92 be
       0.169026 -0.26193923 0.28545627 -0.28687927
000220 fe 77 bb ba ac 4d 90 be a6 5d 3d be c3 82 88 3e
       -0.0014302728 -0.2818426 -0.18492755 0.26662263
000230 88 43 c4 3a 80 2f 2f 3e a3 5a 07 3e 5e 21 4a 3e
       0.0014973739 0.17107964 0.13218169 0.19739291
000240 89 4b 42 be 87 36 51 be 69 ef 12 be b6 9e c2 3c
       -0.18974127 -0.20430957 -0.1434914 0.02375732
000250 25 ba 98 3e b2 8b 0b 3d 57 ed 9d be 90 b3 e5 bd
       0.29829517 0.03406877 -0.30845138 -0.112158895
000260 12 d8 0c 3e 7a a9 47 bc 8a 66 28 3d 0d 75 3c bd
       0.137543 -0.012186402 0.041113414 -0.046010066
000270 41 02 39 be a2 9d 3d 3d c2 13 8b 3e c4 8d a7 3b
       -0.18067266 0.04629291 0.27163512 0.0051133353
000280 91 37 49 bd 6a 50 16 bd 12 f9 55 3e 2c 9a b9 bb
       -0.049125258 -0.036697783 0.20895794 -0.0056641307
000290 a4 0b 36 be 22 42 46 3e 57 a8 97 be 3f 6e 65 3d
       -0.17777878 0.19361165 -0.2962062 0.056013342
0002a0 7c 94 83 3e 42 8c 26 3e 4d 57 20 be 2a c9 8f 3e
       0.25699222 0.16264442 -0.15658303 0.28083163
0002b0 46 83 5b 3e 15 6d 7a be e8 bb 22 3e d6 cf 9d 3c
       0.21436796 -0.24455674 0.15891993 0.019264143
0002c0 93 75 fe 3c ec 5d f2 3d db 2f 86 3e e5 90 4a 3e
       0.031061923 0.118343204 0.26208386 0.19781835
0002d0 aa 58 09 3e d9 36 7d 3e 96 c2 b2 3d b7 69 44 3e
       0.13412729 0.24727954 0.087285206 0.19180952
0002e0 f7 f2 26 3e b9 fa 48 be 39 2b e4 3d 19 ee 59 be
       0.16303621 -0.19626893 0.111410566 -0.21282233
0002f0 60 f1 6f be a6 96 a5 bb 62 c0 a7 bd 51 d7 72 3e
       -0.23431921 -0.005053359 -0.08190991 0.23714949
000300 06 87 28 3e 43 fd 10 3e a9 17 8e bd 7a 72 9e 3d
       0.16457757 0.14159112 -0.069381066 0.077366784
000310 d7 8a 98 be e2 4c 36 be 92 8a 03 3e d2 fe 51 be
       -0.29793426 -0.17802766 0.12845829 -0.20507362
000320 03 af 87 3d 31 d2 24 be 6f 26 6a 3d 17 d7 2a bc
       0.06625178 -0.16095807 0.05716556 -0.010427258
000330 a7 ec 0b be 5d f2 77 3e 62 8a 28 3e b9 08 c9 3c
       -0.13664494 0.24213548 0.16459039 0.024540292
000340 c3 4e 55 3e 4b 08 21 3e 31 e6 8d 3d c9 d9 84 be
       0.20830826 0.1572582 0.06928671 -0.25947407
000350 ca de e9 bd 39 ee 55 3d 01 93 1c be 19 84 e0 bd
       -0.11419447 0.05222914 -0.15290453 -0.10962696
000360 cb 09 9b be 8e 8b 07 3e 9c 95 8e be e6 b0 f9 3d
       -0.3028091 0.1323683 -0.27848518 0.12191944
000370 65 57 85 be 77 74 28 3e 51 b8 aa bd 49 e3 15 3e
       -0.2604324 0.16450678 -0.08335937 0.14637484
000380 f0 40 e0 bb 4e 07 6a be 08 84 d9 3d f8 22 32 bd
       -0.0068436787 -0.22854349 0.10620886 -0.04349038
000390 53 73 46 3e bf 45 64 bd 24 c4 07 be 97 76 0b 3c
       0.1937993 -0.055730578 -0.13258415 0.008512161
0003a0 bb 32 10 be 95 56 47 bd b2 52 21 be 01 ec 11 3e
       -0.14081852 -0.048666555 -0.15754202 0.14250185
0003b0 03 09 a0 3e 7a ed 73 be 1b 01 17 3c 50 17 78 be
       0.31256875 -0.23821059 0.009216572 -0.24227643
0003c0 89 c8 f9 3d 00 1f c3 3d 24 f3 29 3e 42 7b af bd
       0.12196452 0.09527397 0.16596657 -0.085684314
0003d0 c6 34 3d 3e 95 63 0c be 9a b8 a8 bd a0 08 85 3d
       0.18477163 -0.13709863 -0.08238335 0.06495786
0003e0 9c 6e 69 be e6 2e 83 be 6d 3e b6 3d f4 83 9b be
       -0.227961 -0.25621718 0.088986255 -0.3037411
0003f0 79 b6 73 bc 5d ba bf 3d 7b 49 12 be 94 d8 8e 3b
       -0.014875048 0.09361718 -0.14285843 0.004359314

gat2.gat.lin_dst.weight f4 [30, 30]
000000 e2 40 34 3e 95 5d 81 be 43 f9 ad bd ff 8b 0a 3e
       0.17602876 -0.2526671 -0.084948085 0.13529967
000010 95 bc 5d be cc 91 5f be a7 53 8f be a6 c7 43 3e
       -0.2165397 -0.21832961 -0.2799351 0.19119129
000020 9a f2 45 3e 3c 4b 85 3e fe e4 57 be c2 28 3a 3e
       0.19330826 0.26033962 -0.21083447 0.1817961
000030 ab d9 88 3d 8e 14 ae 3c ac b1 1e be 85 1f ca 3d
       0.06682142 0.021250036 -0.15497464 0.09869293
000040 a0 13 91 3d cf 76 52 be 99 49 20 bd 98 0a 81 3d
       0.07083821 -0.20553134 -0.03913269 0.06300849
000050 57 1b d2 bd c7 ea de bd e9 f8 6b bd a1 2a 8b be
       -0.10259121 -0.10884624 -0.057610426 -0.2718096
000060 77 b8 ec 3c 01 33 9a be 34 b8 0c 3e e2 c5 33 3e
       0.028896553 -0.30117038 0.13742143 0.17555955
000070 eb a8 86 be 65 8b 83 be a8 15 94 3e bd 8d 19 3e
       -0.2630075 -0.25692287 0.28922772 0.14995475
000080 29 38 9a be cf 38 4c 3e bf 7a 2c 3e 6a fc d2 3c
       -0.30120972 0.19943546 0.16843699 0.025755126
000090 a2 0a fb bd fe a8 86 3e 40 12 86 3e 1a 13 78 be
       -0.122578874 0.26300806 0.261858 -0.24226037
0000a0 96 91 5a 3e 26 4a a3 3c 9f fd d2 bd a0 31 32 3e
       0.21344599 0.019932818 -0.10302281 0.17401743
0000b0 a1 fd 83 be ee 5c 97 3d 4b 0d 82 be 80 92 02 bd
       -0.2577944 0.07390772 -0.25400767 -0.031877995
0000c0 8a b7 9c 3e 40 48 06 3d 39 0d 21 be a6 49 22 3e
       0.3060878 0.032783747 -0.157277 0.15848407
0000d0 c3 34 8e be 61 51 43 bd 1e 9d 9d be a4 b6 0c be
       -0.2777463 -0.04768503 -0.30783933 -0.13741547
0000e0 51 9a 6e 3d f4 3e 2d be 8b 02 08 3e a1 88 b4 3d
       0.058252636 -0.16918546 0.1328222 0.088151224
0000f0 61 d5 5d be b1 67 96 be 3c cc 73 be f8 a0 24 3e
       -0.21663429 -0.29375985 -0.23808378 0.1607703
000100 a5 27 3a bd 7d a0 81 bd 83 9e 77 3e 8c 53 3b 3e
       -0.045447964 -0.06329439 0.24181561 0.1829359
000110 fe 0e 86 be 46 82 71 3e 92 8c 9f bd 0e 54 d1 bd
       -0.26183313 0.23584852 -0.077904835 -0.1022111
000120 4d c1 02 bd 1e b7 81 bd ba df 0d be 40 79 81 3e
       -0.031922627 -0.06333755 -0.13854876 0.2528782
000130 33 d2 82 be e7 3d 4e 3e 2c b8 82 be 82 6c a8 3d
       -0.25550994 0.20140801 -0.25531137 0.08223821
000140 45 39 2e be e6 64 85 be 0a fb 99 3e cb 77 0e be
       -0.17014034 -0.26053542 0.3007434 -0.13912885
000150 bd 6b 8a 3e 80 89 1e 3e 23 ed 83 3e 72 bb b8 3d
       0.27035323 0.1548214 0.25766858 0.09020127
000160 01 db 2d bc 92 44 9a 3e b0 34 4c 3e 13 4b 3c 3d
       -0.010611297 0.3013044 0.19941974 0.045970034
000170 2e 11 85 bd 4f 33 11 bc bd b9 cd 3d 87 18 db 3c
       -0.064974174 -0.008862331 0.100451924 0.026745094
000180 c1 6c 40 3e 9e d0 a0 3e 77 93 03 be c2 9c 12 bc
       0.18791486 0.31409162 -0.12849222 -0.008948507
000190 dd d8 9c 3e ee a9 3a bd 99 64 0d be 9a 49 5e be
       0.30634204 -0.045572214 -0.13807906 -0.21707764
0001a0 4e 3d 84 be d6 21 80 3e 6f fa 4b 3e 31 6d 42 be
       -0.25828022 0.25025815 0.19919752 -0.18986966
0001b0 0c 87 8c 3e 7d d1 7e 3e 40 46 bc bd ed fd 99 3e
       0.27446783 0.24884601 -0.091930866 0.30076542
0001c0 15 e0 79 be 24 c1 a0 3e c0 2e 8e 3e 42 bf 98 be
       -0.24401887 0.31397355 0.27770042 -0.29833418
0001d0 72 7c 41 3e 72 4c ee 3d 10 cb 7c 3e 73 a9 78 be
       0.18895128 0.116356745 0.24686837 -0.2428339
0001e0 5e 0f 8c 3e 78 39 00 bd 70 03 e1 bd 3f ae 97 3e
       0.27355474 -0.031304806 -0.10986984 0.29625127
0001f0 1f 49 9f 3e 7c 46 81 3e 00 ee 76 be d3 c9 78 be
       0.31110474 0.25249088 -0.24114227 -0.2429574
000200 70 a8 a5 bd 91 39 e7 3d f1 29 96 be 53 84 90 be
       -0.080887675 0.11290277 -0.29328874 -0.28225955
000210 27 15 2d 3e e6 1c 86 be 53 27 92 3e d7 e1 92 be
       0.169026 -0.26193923 0.28545627 -0.28687927
000220 fe 77 bb ba ac 4d 90 be a6 5d 3d be c3 82 88 3e
       -0.0014302728 -0.2818426 -0.18492755 0.26662263
000230 88 43 c4 3a 80 2f 2f 3e a3 5a 07 3e 5e 21 4a 3e
       0.0014973739 0.17107964 0.13218169 0.19739291
000240 89 4b 42 be 87 36 51 be 69 ef 12 be b6 9e c2 3c
       -0.18974127 -0.20430957 -0.1434914 0.02375732
000250 25 ba 98 3e b2 8b 0b 3d 57 ed 9d be 90 b3 e5 bd
       0.29829517 0.03406877 -0.30845138 -0.112158895
000260 12 d8 0c 3e 7a a9 47 bc 8a 66 28 3d 0d 75 3c bd
       0.137543 -0.012186402 0.041113414 -0.046010066
000270 41 02 39 be a2 9d 3d 3d c2 13 8b 3e c4 8d a7 3b
       -0.18067266 0.04629291 0.27163512 0.0051133353
000280 91 37 49 bd 6a 50 16 bd 12 f9 55 3e 2c 9a b9 bb
       -0.049125258 -0.036697783 0.20895794 -0.0056641307
000290 a4 0b 36 be 22 42 46 3e 57 a8 97 be 3f 6e 65 3d
       -0.17777878 0.19361165 -0.2962062 0.056013342
0002a0 7c 94 83 3e 42 8c 26 3e 4d 57 20 be 2a c9 8f 3e
       0.25699222 0.16264442 -0.15658303 0.28083163
0002b0 46 83 5b 3e 15 6d 7a be e8 bb 22 3e d6 cf 9d 3c
       0.21436796 -0.24455674 0.15891993 0.019264143
0002c0 93 75 fe 3c ec 5d f2 3d db 2f 86 3e e5 90 4a 3e
       0.031061923 0.118343204 0.26208386 0.19781835
0002d0 aa 58 09 3e d9 36 7d 3e 96 c2 b2 3d b7 69 44 3e
       0.13412729 0.24727954 0.087285206 0.19180952
0002e0 f7 f2 26 3e b9 fa 48 be 39 2b e4 3d 19 ee 59 be
       0.16303621 -0.19626893 0.111410566 -0.21282233
0002f0 60 f1 6f be a6 96 a5 bb 62 c0 a7 bd 51 d7 72 3e
       -0.23431921 -0.005053359 -0.08190991 0.23714949
000300 06 87 28 3e 43 fd 10 3e a9 17 8e bd 7a 72 9e 3d
       0.16457757 0.14159112 -0.069381066 0.077366784
000310 d7 8a 98 be e2 4c 36 be 92 8a 03 3e d2 fe 51 be
       -0.29793426 -0.17802766 0.12845829 -0.20507362
000320 03 af 87 3d 31 d2 24 be 6f 26 6a 3d 17 d7 2a bc
       0.06625178 -0.16095807 0.05716556 -0.010427258
000330 a7 ec 0b be 5d f2 77 3e 62 8a 28 3e b9 08 c9 3c
       -0.13664494 0.24213548 0.16459039 0.024540292
000340 c3 4e 55 3e 4b 08 21 3e 31 e6 8d 3d c9 d9 84 be
       0.20830826 0.1572582 0.06928671 -0.25947407
000350 ca de e9 bd 39 ee 55 3d 01 93 1c be 19 84 e0 bd
       -0.11419447 0.05222914 -0.15290453 -0.10962696
000360 cb 09 9b be 8e 8b 07 3e 9c 95 8e be e6 b0 f9 3d
       -0.3028091 0.1323683 -0.27848518 0.12191944
000370 65 57 85 be 77 74 28 3e 51 b8 aa bd 49 e3 15 3e
       -0.2604324 0.16450678 -0.08335937 0.14637484
000380 f0 40 e0 bb 4e 07 6a be 08 84 d9 3d f8 22 32 bd
       -0.0068436787 -0.22854349 0.10620886 -0.04349038
000390 53 73 46 3e bf 45 64 bd 24 c4 07 be 97 76 0b 3c
       0.1937993 -0.055730578 -0.13258415 0.008512161
0003a0 bb 32 10 be 95 56 47 bd b2 52 21 be 01 ec 11 3e
       -0.14081852 -0.048666555 -0.15754202 0.14250185
0003b0 03 09 a0 3e 7a ed 73 be 1b 01 17 3c 50 17 78 be
       0.31256875 -0.23821059 0.009216572 -0.24227643
0003c0 89 c8 f9 3d 00 1f c3 3d 24 f3 29 3e 42 7b af bd
       0.12196452 0.09527397 0.16596657 -0.085684314
0003d0 c6 34 3d 3e 95 63 0c be 9a b8 a8 bd a0 08 85 3d
       0.18477163 -0.13709863 -0.08238335 0.06495786
0003e0 9c 6e 69 be e6 2e 83 be 6d 3e b6 3d f4 83 9b be
       -0.227961 -0.25621718 0.088986255 -0.3037411
0003f0 79 b6 73 bc 5d ba bf 3d 7b 49 12 be 94 d8 8e 3b
       -0.014875048 0.09361718 -0.14285843 0.004359314

gru1.weight_ih_l0 f4 [90, 16]
000000 57 80 bc 3d d3 3d de 3d f6 5c 28 bd 79 9e 0a 3e
       0.092041664 0.10851636 -0.04110428 0.13537015
000010 f8 5b 9f bd fc 9a f1 bd 97 d4 f5 3c 54 cd e5 bc
       -0.077812135 -0.11797139 0.030008597 -0.02805201
000020 a6 c4 db 3a 2f 33 0d 3e f2 e2 17 be c8 5a e4 bd
       0.001676698 0.13789056 -0.14832667 -0.11150128
000030 45 1f ec 3d 40 2f ac bd 86 f1 50 3b 58 3e ef 3c
       0.11529402 -0.0840745 0.003188224 0.029204533
000040 d6 ec a2 3d 98 b4 ac bd 6a 65 1d be 19 f7 0e 3e
       0.07955329 -0.08432883 -0.15370718 0.13961448
000050 d1 40 42 3d da 72 43 bd c4 20 02 3e 24 e5 83 3d
       0.047425095 -0.047716953 0.12707812 0.064401895
000060 24 76 b6 3c b9 52 a7 bd fe 85 2d be c0 35 0d 3e
       0.02227313 -0.08170075 -0.16945645 0.13790035
000070 6b cc 9d bd c5 f0 8f 3c 5f 66 56 3d bd 3e 2e bd
       -0.07705005 0.017570863 0.052343722 -0.0425403
000080 f8 8b 7f 3c 7f 8d 9c bc 80 60 a1 3d 01 a7 49 bd
       0.015597336 -0.01911044 0.07879734 -0.049231533
000090 0a 16 84 3d 17 ca e4 bd 81 1d 78 bd 6e 40 eb 3d
       0.06449516 -0.11171358 -0.060575012 0.11486898
0000a0 fd 6d dc bd 73 db 9c 3d a4 97 0b 3e ba 05 a5 bd
       -0.10763166 0.07659044 0.13632065 -0.08057733
0000b0 2c 3b f9 bd ab ae e9 3d a3 15 bd bd 13 1d 12 bd
       -0.12169489 0.114102684 -0.092326425 -0.03567226
0000c0 96 13 f4 3d a2 e1 e6 3d 12 59 dd 3d 8f d4 a2 bd
       0.11917798 0.11273505 0.108080044 -0.079506986
0000d0 ea 89 24 3e df f8 18 3e 0b d4 7b bd 64 2f 75 bd
       0.16068235 0.14938687 -0.061481517 -0.05985965
0000e0 61 6b ac bc 68 ed 60 3d e5 f7 ca 3d a8 ce e4 3d
       -0.021047296 0.05491391 0.099105634 0.11172229
0000f0 02 30 56 bd 91 5f d5 bc e8 d5 d1 bb d6 93 1e bd
       -0.052291878 -0.026046546 -0.0064036734 -0.038715206
000100 41 cf 32 3b e3 22 e3 3b 0d fc b5 3d 38 01 da bd
       0.0027284177 0.006931649 0.088859655 -0.10644764
000110 3f bc bf 3c 7f d5 8e 3d b6 a8 04 bd f1 b5 25 bd
       0.023405192 0.06974315 -0.032387458 -0.040456716
000120 8f 6f 98 bd bf 8f f3 3b 89 e4 66 bd 89 a5 a7 bd
       -0.07443153 0.0074329074 -0.05637029 -0.0818587
000130 f6 0b f7 3d ed 49 fe bd cf 7f 10 3d 0e c3 94 bc
       0.12062828 -0.12416444 0.035278138 -0.018159416
000140 d6 51 00 be eb 99 c7 bd 50 34 06 be b4 ec 1d 3c
       -0.12531218 -0.097461544 -0.13105893 0.009638954
000150 90 ac d1 bd d9 d4 3d 3d 79 bc c1 bd 82 63 7f 3d
       -0.10237992 0.046345565 -0.094597764 0.062350757
000160 1b 14 f9 3d 9d 37 f4 bd 6a fe 83 3d 70 c5 93 3c
       0.12162038 -0.1192467 0.0644501 0.018038481
000170 4a 0f 0a bc a8 42 f6 bd 97 c2 91 bd a1 c4 04 be
       -0.008426497 -0.120244324 -0.07117193 -0.12965633
000180 63 7b bc bd 62 4d bc 3d 82 fb 25 be 43 69 24 bd
       -0.09203222 0.09194447 -0.16209224 -0.040139448
000190 2e 6e 91 bd 80 d1 7b bd d0 ae bb 3d 19 3e 8f bd
       -0.07101093 -0.06147909 0.09164202 -0.06994266
0001a0 44 19 31 3d a7 42 ee bc bc e2 96 3d eb 2e cc bd
       0.043236986 -0.029084517 0.07367465 -0.099698864
0001b0 82 9b 5a bd 5d 51 81 3c fd ec 8f bd 9e 68 02 be
       -0.05337096 0.015785867 -0.07027624 -0.12735221
0001c0 64 d0 24 bd b7 d7 50 3d ba 04 02 be 42 f7 0a 3d
       -0.0402378 0.05098697 -0.12697116 0.03392721
0001d0 a9 7f fe 3d 74 81 86 bd 64 86 a4 3d d3 7e b8 3d
       0.12426693 -0.0656766 0.080334455 0.09008565
0001e0 f7 4c 79 bd 8c 1e a7 3d 0d a8 d5 3d 21 2d 0f 3e
       -0.060864415 0.08160123 0.10432444 0.13982059
0001f0 fd 02 b9 3d 3a bc 95 3d 7e ce 3a bd a5 fc 46 bd
       0.09033773 0.07311292 -0.045607083 -0.048580784
000200 7a f5 b3 3d 08 db d1 3d f1 a7 8e 3d f5 03 a7 3d
       0.08787055 0.10246855 0.06965626 0.081550516
000210 12 c1 f0 3d 2c fc 8c 3d 7f bd 13 3d 32 8f 43 3d
       0.11755575 0.068840355 0.03606939 0.047743984
000220 63 da 01 3d 8f 84 0c 3c 14 99 d8 bd 54 26 ba 3c
       0.03170241 0.008576526 -0.10576072 0.022723354
000230 3b 17 0f 3e 8d 0c 11 3e 4b b9 d3 3d d3 c7 e0 bd
       0.13973705 0.14164944 0.10338076 -0.109756134
000240 02 ad 94 bd 94 1c af bd 01 62 f3 bd cf 0e 17 3d
       -0.07259561 -0.08550373 -0.11883927 0.036879357
000250 4d 4c dd 3d f6 3a 0b 3e 6d 93 2c bd 2a ca 07 be
       0.10805569 0.1359671 -0.042132784 -0.13260713
000260 cc 73 74 ba d2 ff cc bd c2 eb 38 3d b1 d9 e2 bd
       -0.00093251164 -0.10009731 0.04514671 -0.110766776
000270 15 79 2a 3e fe 69 9d 3b 73 20 e7 bd ed 1c 0c be
       0.16647752 0.004803895 -0.11285486 -0.1368291
000280 59 a7 c5 bd 1d 05 f1 3d 6b 6f 74 3d e4 ed f0 3d
       -0.0965106 0.117685534 0.05967657 0.11764124
000290 bb 29 03 be 48 cf a9 3d 6b 2a 0d 3e 6a 09 bb 3d
       -0.12808888 0.08291489 0.13785712 0.09132655
0002a0 7f 05 6b bd 22 c8 96 bd 82 9d be 3b a2 50 a4 bd
       -0.05737829 -0.07362391 0.0058171162 -0.08023192
0002b0 9c f6 84 3d 9a 44 00 be 0f 88 36 3d a6 96 58 3d
       0.064923495 -0.1252617 0.04456335 0.052878045
0002c0 be 2e a3 bd 2b e3 ad 3d c9 9b 00 3e 1f 0f 08 be
       -0.079679 0.084905945 0.12559427 -0.13287018
0002d0 9b f8 17 3d 65 28 86 bd 0a f0 25 bd ab 25 83 3c
       0.037102323 -0.065506734 -0.040512122 0.016009172
0002e0 e5 9f 59 bd 24 a7 83 bb 2f 34 10 3e 39 68 8b bd
       -0.053131003 -0.0040177274 0.14082406 -0.06806988
0002f0 66 b0 13 be 34 6b b1 3d 46 2d cc 3b 3d 2f 05 be
       -0.1442276 0.086630255 0.006230983 -0.13006301
000300 b9 71 99 bd 40 d2 bb bb cb 14 be bd f9 34 9d 3c
       -0.07492394 -0.005731851 -0.0928131 0.019190298
000310 de 69 bc bc c0 0d 2d 3d e0 8a f5 3d a6 0b e6 bd
       -0.0229997 0.04224944 0.11989379 -0.112326905
000320 ea f4 95 3d dc f4 b4 bd d0 24 b9 ba 75 61 07 be
       0.07322104 -0.08835766 -0.0014125351 -0.1322077
000330 ef 68 a7 bd 6f 7b 4d 3d e8 2e 03 3e 3c fe bc 3d
       -0.08174311 0.050166544 0.12810862 0.09228179
000340 84 78 92 3d 5e fa de 3b f4 9d b8 3c e8 f5 97 3d
       0.07151893 0.0068047484 0.022536255 0.0741995
000350 b3 c9 c8 3d 7d 61 72 3d ab f4 e6 3d 24 9d 80 3d
       0.09804096 0.059175003 0.112771355 0.06279972
000360 1b 94 14 bc 67 a6 7c bd d5 10 1e be 54 e9 f8 3d
       -0.009068514 -0.06168213 -0.15436108 0.12153879
000370 26 45 82 bc 62 5c 6d 3d 16 72 eb bd c4 9a 00 3d
       -0.015902113 0.05794943 -0.114963695 0.031397596
000380 31 e4 d3 3d 3b d9 30 3c 36 d4 ea bd 96 b9 21 bd
       0.103462584 0.010793979 -0.11466257 -0.03948363
000390 ef 89 92 3d 37 7c c9 bb a2 a7 a9 3c c5 8e ff 3d
       0.07155215 -0.0061488408 0.020709816 0.12478403
0003a0 2a 60 47 3d 0b f3 ab bd 92 ef 9a bd 1d 48 fc 3d
       0.048675694 -0.08395966 -0.07565226 0.12318442
0003b0 74 ad 06 3e 0e da d7 bd e0 cf 0d bc dd 6b 97 bd
       0.13152105 -0.105396375 -0.008655518 -0.0739362
0003c0 ef bd 59 bc e2 84 28 bd c6 c8 d1 3d f6 f6 8c bd
       -0.013289913 -0.041142352 0.102433726 -0.068830416
0003d0 7f 3c 07 bd 14 eb 87 3d 4d 6d e0 3d 4b b0 a0 3d
       -0.033016678 0.066366345 0.109583475 0.07846125
0003e0 f2 e7 52 bd 69 e5 a7 3d a4 87 fd 3d a4 a9 84 bd
       -0.05149073 0.081980534 0.12379387 -0.06477669
0003f0 ac 97 0d 3c 1c c5 89 bd 54 d8 82 3d 4a 5e cc 3d
       0.008642118 -0.06727049 0.063889176 0.09978922
