checkpoint/GAT-eth/val_best.pth (torch, 246087 bytes, 24 tensors)

gat1.gat.att_src f4 [1, 1, 64]
0	0x3e377883	0.17917065
1	0x3d23cf7d	0.039992798
2	0x3cf9052a	0.03039797
3	0xbd57d972	-0.052697606
4	0x3d69a3a2	0.057040818
5	0xbb00b495	-0.0019638885
6	0x3de8c7ec	0.11366257
7	0xbe808549	-0.25101689
8	0xbdcc6abf	-0.09981298
9	0x3dafaeec	0.085782856
10	0x3e2c8664	0.16848141
11	0x3e4cf20d	0.2001421
12	0x3e4c4c6d	0.19951029
13	0x3dc27562	0.09495045
14	0x3dcc585a	0.09977789
15	0xbe30c9a9	-0.17264427
16	0x3e108b4d	0.14115639
17	0xbd2af6c3	-0.041739237
18	0xbdb35e4c	-0.0875822
19	0xbd93f76f	-0.072249286
20	0xbdd6be73	-0.10485544
21	0x3d8b48a3	0.06800964
22	0xbe9b712b	-0.30359778
23	0xbe9520ad	-0.29126492
24	0x3e48843b	0.19581692
25	0xbc9420d2	-0.018082056
26	0x3e848e92	0.25890023
27	0xbdab5719	-0.08366222
28	0xbe96bf01	-0.294426
29	0xbe960bea	-0.29305965
30	0x3e01a9ef	0.12662481
31	0x3e828be3	0.2549735
32	0x3d4b7e62	0.049681075
33	0x3e75208d	0.23938198
34	0x3e83dfb3	0.25756606
35	0xbd6fc041	-0.058532957
36	0x3e4cdb72	0.20005587
37	0xbe6c07af	-0.23049806
38	0x3e994a61	0.2993956
39	0xbe718050	-0.23584104
40	0xbc8f6c03	-0.017507559
41	0xbe81b7fa	-0.25335675
42	0xbdaf4775	-0.08558551
43	0xbc59d4c0	-0.013295352
44	0xbd62fed5	-0.055418808
45	0x3e67b6b2	0.22628286
46	0x3e99ed1a	0.30063707
47	0xbc58d6e7	-0.01323483
48	0x3e022e3f	0.12712954
49	0x3d48a67c	0.048986897
50	0x3d6f11da	0.058366634
51	0x3ded166a	0.11576541
52	0xbe45930e	-0.19294378
53	0xbe5b2500	-0.21400833
54	0xbe89adb9	-0.26890352
55	0xbdf9b0c1	-0.12191916
56	0xbe4a908b	-0.19781701
57	0x3e1653aa	0.14680353
58	0xbd0750c2	-0.033036
59	0xbddb02d9	-0.106939025
60	0xbdb0bdd6	-0.08629958
61	0x3e524043	0.20532326
62	0xbe6b6282	-0.22986796
63	0x3e83e10d	0.25757638

gat1.gat.att_dst f4 [1, 1, 64]
0	0x3e9a342f	0.30117938
1	0x3a214985	0.0006152618
2	0x3e8db606	0.27677935
3	0xbac65729	-0.0015132177
4	0x3cb74097	0.022369666
5	0xbcc24239	-0.023713218
6	0x3e67217c	0.22571367
7	0xbe5412dc	-0.2071032
8	0x3e63c189	0.22241797
9	0xbc06b254	-0.008221228
10	0x3cb85be9	0.022504764
11	0x3e3a28fd	0.18179698
12	0xbdb199bc	-0.08671901
13	0x3e71c645	0.2361079
14	0x3dcc6ead	0.09982047
15	0xbe4c17c5	-0.19930942
16	0xbd3a74c9	-0.04552153
17	0x3d2d0107	0.042237308
18	0x3e88098d	0.26569787
19	0x3ab14962	0.0013525898
20	0xbe47f09d	-0.1952538
21	0xbda1bfbf	-0.07897901
22	0x3e38addd	0.18035074
23	0x3e08b452	0.13350037
24	0x3e48b652	0.196008
25	0xbe536de5	-0.2064739
26	0xbe8dc79f	-0.2769136
27	0x3da76105	0.08172802
28	0xbd937fcb	-0.07202109
29	0xbc95251a	-0.018206168
30	0xbe640afa	-0.22269812
31	0xbde42a5f	-0.11140894
32	0xbe674391	-0.22584368
33	0xbe5214fe	-0.2051582
34	0xbd8e23d9	-0.06940431
35	0xbcf54e3b	-0.02994453
36	0xbd97fb29	-0.07420952
37	0xbdaa5bd6	-0.083182976
38	0xbde231d7	-0.110446624
39	0x3e3da3c9	0.1851951
40	0x3de1d7b7	0.110274725
41	0xbe621223	-0.22077231
42	0xbdbc3dcb	-0.091914736
43	0xbe13571e	-0.14388701
44	0x3e441153	0.19147234
45	0x3da2b15c	0.07943985
46	0x3d6aaf16	0.05729588
47	0x3d980603	0.07423022
48	0x3d921cf1	0.071344264
49	0xbd50d665	-0.050985713
50	0x3d3c5ff3	0.04598994
51	0x3daab5dd	0.08335469
52	0xbdeb8bdf	-0.11501288
53	0xbe8b9b3c	-0.27266872
54	0xbdb03c11	-0.08605207
55	0x3b067ce8	0.0020521227
56	0xbddadc2e	-0.10686527
57	0x3e3c16aa	0.1836802
58	0x3e34e5a4	0.17665726
59	0x3dbb928f	0.09158813
60	0x3cd682fe	0.026185509
61	0x3dd5621a	0.10419102
62	0x3cbf203c	0.0233308
63	0xbd5c18bb	-0.053734522

gat1.gat.bias f4 [64]
0	0x3b128bbd	0.0022361123
1	0xba3831ab	-0.0007026444
2	0x3a5dae83	0.0008456485
3	0xbb48982e	-0.0030608284
4	0xba9f2fe4	-0.001214501
5	0x3b57e3e1	0.0032942223
6	0x3a3ba954	0.0007158716
7	0x3a2147c8	0.0006152359
8	0xb927168b	-0.00015934759
9	0xb955e09f	-0.00020396941
10	0xb8a6aa54	-7.947223e-05
11	0x3a56d92c	0.0008195813
12	0xb9efcc8c	-0.00045738032
13	0x3a812bca	0.0009854969
14	0x38926d87	6.9822236e-05
15	0x3aec6949	0.0018036749
16	0x3a6f093f	0.0009118504
17	0x3b82ab64	0.0039877165
18	0xba64796b	-0.00087156025
19	0x39d85c50	0.0004126751
20	0xba565a4c	-0.00081769074
21	0x3a358a20	0.0006925184
22	0xb95e7b8d	-0.00021217596
23	0xba4490c6	-0.00074983796
24	0xbab708e4	-0.0013964442
25	0xb9864e7c	-0.00025616947
26	0xba9776ee	-0.001155583
27	0x39022c8d	0.00012414363
28	0xb81b0be9	-3.6965972e-05
29	0xb94cbba7	-0.00019524862
30	0xba4b7646	-0.00077614596
31	0xb9f071a6	-0.00045861042
32	0x3b1e8214	0.002418642
33	0xba74fa8e	-0.0009345197
34	0x3ad68e26	0.0016369268
35	0x39f71e03	0.00047133872
36	0xba82f656	-0.0009991627
37	0xba8b877a	-0.0010645234
38	0x3999338b	0.00029220837
39	0x39e7e17a	0.00044227747
40	0x3aad8533	0.0013238549
41	0xbb71a47e	-0.0036871727
42	0x3b17a84a	0.002314108
43	0x3af3dccc	0.0018605231
44	0xbaadeec1	-0.0013270007
45	0x3a95b6a1	0.0011422226
46	0x3a27a20e	0.00063946925
47	0x3af6fa5e	0.0018842926
48	0x3ac2aa48	0.0014851773
49	0x393c1931	0.00017938462
50	0xba85d4ec	-0.001021055
51	0xbad11f51	-0.0015954768
52	0xbb07dce0	-0.0020731017
53	0xbabff872	-0.0014646186
54	0xba9d6673	-0.0012008682
55	0x3a980104	0.0011596982
56	0x3a505632	0.00079474144
57	0x3ab44a95	0.0013755137
58	0xba1bf396	-0.0005949078
59	0x3a522392	0.00080161646
60	0xb928d54d	-0.00016101189
61	0x3acbcc17	0.0015548494
62	0x39431f60	0.00018608337
63	0x3ae978b7	0.0017812465

gat1.gat.lin_src.weight f4 [64, 4]
0	0xbde782df	-0.113042586
1	0x3d5b9a23	0.053613793
2	0xbe17a6e0	-0.14809752
3	0x3e82f835	0.25579992
4	0x3e649c56	0.22325262
5	0xbd6500a5	-0.055908818
6	0xbdd902f7	-0.105962686
7	0xbe86de5a	-0.26341516
8	0x3e826b43	0.2547246
9	0x3e5ac51a	0.21364251
10	0xbe31e994	-0.17374259
11	0x3db550e9	0.08853323
12	0xbdad7248	-0.08469063
13	0xbde91cac	-0.11382422
14	0x3dd4124e	0.10355054
15	0xbd02aa65	-0.031900782
16	0x3bb8f2cc	0.005644178
17	0x3e18e144	0.14929682
18	0xbe1acb6a	-0.15116659
19	0x3e5f9158	0.21832788
20	0xbe42b04d	-0.19012566
21	0xbe3b298b	-0.18277566
22	0x3dad418d	0.084597684
23	0xbe4445b9	-0.19167222
24	0xbc54a266	-0.012978172
25	0x3d8c70f3	0.06857481
26	0xbb7962ba	-0.003805323
27	0xbe7913db	-0.2432398
28	0x3e6a521a	0.22882882
29	0x3e93f5d3	0.28898486
30	0x3dabe8e9	0.083940335
31	0x3e8a1241	0.26967052
32	0xbdcab8f0	-0.09898555
33	0x3e2750ef	0.16339467
34	0xbe1e1693	-0.15438299
35	0xbe9502ed	-0.29103795
36	0xbd5c8638	-0.05383894
37	0x3e8122ea	0.2522195
38	0x3dcd626f	0.1002854
39	0x3db39724	0.08769062
40	0xbd80fdf7	-0.0629844
41	0x3dc5f204	0.096653014
42	0x3e76ff0a	0.24120727
43	0xbe6f2fb3	-0.2335804
44	0x3e7973bb	0.24360554
45	0x3e8cb23d	0.27479735
46	0x3e76ddff	0.24108122
47	0x3da41545	0.08011869
48	0xbe841fa2	-0.25805384
49	0x3e928c40	0.28622627
50	0xbe288d41	-0.16460134
51	0x3e13f67f	0.144495
52	0xbd9ae3dc	-0.07562992
53	0xbe8274f4	-0.25479853
54	0x3e06961a	0.13143197
55	0x3e8a146b	0.26968703
56	0x3de1c9c0	0.11024809
57	0x3e225160	0.15851355
58	0x3d271ee6	0.04080095
59	0x3e39ab7e	0.18131825
60	0xbe6dcd2c	-0.23222798
61	0xbe2db0ff	-0.1696205
62	0xbcf79f5c	-0.030227356
63	0x3e4251ce	0.18976519
64	0x3e6c8dbb	0.23100941
65	0x3e91d5e5	0.284835
66	0xbe61d83c	-0.22055143
67	0xbe88d723	-0.26726636
68	0xbe5bebd9	-0.21476687
69	0xbe6c06e2	-0.230495
70	0x3e3892c2	0.18024734
71	0x3c71953c	0.014745053
72	0x3e6db32a	0.23212877
73	0xbd87decf	-0.06634294
74	0x3d7eb6a8	0.062185913
75	0x3e8fb50b	0.28067812
76	0x3db902f8	0.09033769
77	0x3d8dd8ac	0.069260925
78	0x3e794b12	0.24345043
79	0x3c2266f8	0.009912245
80	0xbe82d0ff	-0.25550076
81	0x3e847391	0.2586942
82	0xbdb2244b	-0.086983286
83	0xbe3ff475	-0.18745597
84	0xbe20a39c	-0.15687412
85	0x3d5c6eb1	0.0538165
86	0xbe4f264d	-0.20229454
87	0xbe3f7e09	-0.18700422
88	0x3d4a1974	0.04934068
89	0x3ce36878	0.027759776
90	0xbe5dd7a0	-0.21664286
91	0xbe1f5c1f	-0.15562485
92	0xbe5baee9	-0.21453442
93	0x3e78403c	0.24243253
94	0x3e8ad1c1	0.27113155
95	0xbe57e763	-0.21084361
96	0x3c0f58ab	0.008749167
97	0x3cefb222	0.029259745
98	0x3e88f9a2	0.26752955
99	0x3c5f8a8e	0.013643874
100	0xbe862b9b	-0.26205143
101	0x3e8884ac	0.2666372
102	0x3e5f3043	0.21795754
103	0x3d26c61e	0.040716283
104	0xbe250bfc	-0.16117853
105	0x3e68b3de	0.22724864
106	0xbd4bbad0	-0.049738705
107	0xbc7e1186	-0.015507108
108	0x3d24d1ce	0.040239148
109	0x3c0264de	0.007958619
110	0xbe5d88aa	-0.21634164
111	0xbe92af8c	-0.28649557
112	0x3e94bd7e	0.2905082
113	0x3e8b7e62	0.2724486
114	0xbb6c85b3	-0.0036090433
115	0x3bbcd076	0.005762155
116	0x3de36d5d	0.11104844
117	0x3e1057bd	0.1409597
118	0xbe83801c	-0.25683677
119	0xbe116770	-0.14199615
120	0xbdd4ae6e	-0.10384832
121	0xbdde05bf	-0.1084094
122	0x3d82841a	0.063728526
123	0xbd8a6217	-0.067569904
124	0xbce039dd	-0.027371341
125	0xbd963302	-0.07333948
126	0xbe1dd6b3	-0.15413933
127	0x3c4054e1	0.011738987
128	0xbe202fc2	-0.15643218
129	0x3dd2f282	0.10300161
130	0x3dcf475a	0.10121031
131	0xbe4649f0	-0.19364142
132	0xba8ebae9	-0.0010889444
133	0xbe90c5c8	-0.28275895
134	0xbcf2bf0b	-0.029632112
135	0xbe897b7f	-0.26852033
136	0xbe9425ca	-0.2893508
137	0x3def7f77	0.11694234
138	0x3e159275	0.1460665
139	0xbe170cef	-0.14751028
140	0x3daecc90	0.08535111
141	0x3cca590f	0.02470067
142	0x3da75f19	0.08172435
143	0xbe5b3ffb	-0.21411125
144	0x3d2964a2	0.041355737
145	0x3e3a1e92	0.18175724
146	0xbe020aa3	-0.1269937
147	0x3e677f80	0.22607231
148	0x3e97545c	0.2955655
149	0x3e757bb3	0.23972969
150	0xbd2509d1	-0.040292565
151	0xbe58d5df	-0.21175335
152	0x3e7559cc	0.23960036
153	0xbdb18c6a	-0.0866936
154	0xbe6c7b34	-0.23093873
155	0xbe813f86	-0.25243777
156	0xbe3efd59	-0.18651332
157	0x3b00bc32	0.0019643423
158	0x3e6f8340	0.23389912
159	0xbe439183	-0.19098477
160	0x3e312431	0.17298962
161	0xbe46ae7d	-0.194025
162	0xbe47020c	-0.19434375
163	0xbd375d51	-0.044766728
164	0x3e2307d1	0.1592095
165	0xbde5a72e	-0.112135276
166	0x3e585a12	0.21128109
167	0xbe5a0e24	-0.21294457
168	0x3de9382b	0.11387666
169	0xbe8ead93	-0.27866802
170	0x3e463787	0.1935712
171	0x3dba6087	0.091004424
172	0xbe3b6544	-0.18300349
173	0xbdf2f6ca	-0.118634775
174	0x3e4cf70c	0.20016116
175	0xbdb1e237	-0.08685725
176	0xbdba9b9d	-0.09111712
177	0xbe63f7cf	-0.222625
178	0xbc5d3341	-0.013500989
179	0xbe3c8997	-0.18411861
180	0x3e8e456c	0.2778734
181	0x3e3cc271	0.18433549
182	0xbda45773	-0.08024492
183	0xbd1b4826	-0.037910603
184	0xbd99991c	-0.074999064
185	0xbdaaf0c2	-0.08346702
186	0x3e04ae41	0.12957098
187	0xbe042000	-0.12902832
188	0xbe8e07d7	-0.27740356
189	0x3e1d975f	0.15389775
190	0xbe5c60eb	-0.21521346
191	0xbd1d7708	-0.038443595
192	0x3e33761c	0.17525524
193	0xbe82f91e	-0.25580686
194	0xbe4003df	-0.18751477
195	0xbe82950a	-0.25504333
196	0x3e5d7e8a	0.21630302
197	0x3e927e2b	0.28611884
198	0x3e341a88	0.17588246
199	0xbe711093	-0.23541479
200	0xbe73572e	-0.23763725
201	0xbd5a7fd8	-0.053344578
202	0x3d9d89f7	0.0769233
203	0x3d21583b	0.039390784
204	0xbe1f75d1	-0.15572287
205	0x3e634b7f	0.22196768
206	0xbe7551e0	-0.23957014
207	0xbe595830	-0.21225047
208	0xbd32e2a9	-0.04367319
209	0xbdb7d958	-0.08977002
210	0xbdf2f122	-0.11862399
211	0x3e67790b	0.22604768
212	0xbe008697	-0.12551342
213	0x3e50f40e	0.204056
214	0xbe545c5e	-0.2073836
215	0xbe95c840	-0.2925434
216	0xbe450f72	-0.19244173
217	0xbd7830b9	-0.06059334
218	0xbe4c7861	-0.19967796
219	0xbe7f4955	-0.24930318
220	0x3e26bad6	0.1628221
221	0x3e8635ed	0.26213017
222	0xbde19988	-0.11015612
223	0xbe24c90f	-0.16092323
224	0x3e9200a3	0.2851611
225	0x3bea6c21	0.0071540033
226	0xbd0a57e3	-0.03377522
227	0x3e8025ec	0.25028932
228	0xbd818a57	-0.06325214
229	0x3e57a2ee	0.21058246
230	0xbe0dfd4f	-0.13866161
231	0x3dd80896	0.10548513
232	0xbe28166e	-0.16414806
233	0x3e07d32a	0.13264146
234	0xbd582dc8	-0.052778035
235	0x3e94cd98	0.29063106
236	0xbe69b58f	-0.22823165
237	0x3e74e94d	0.23917122
238	0xbdb5527a	-0.08853622
239	0x3e8b1641	0.27165416
240	0x3e3078d7	0.17233597
241	0x3d824927	0.06361609
242	0x3e84ae19	0.25914076
243	0xbe474ba1	-0.19462444
244	0xbd2b4211	-0.041811053
245	0x3d95ccfa	0.07314487
246	0x3e9280a6	0.28613776
247	0xbe663ddb	-0.22484533
248	0xbe05fe81	-0.13085367
249	0x3e3a6478	0.18202388
250	0x3dca5489	0.09879405
251	0x3c7b461c	0.01533654
252	0x3e7236aa	0.23653665
253	0x3e0ce2fb	0.13758461
254	0x3d4d25d0	0.05008489
255	0xbc88f0d4	-0.016716398

gat1.gat.lin_dst.weight f4 [64, 4]
0	0xbde782df	-0.113042586
1	0x3d5b9a23	0.053613793
2	0xbe17a6e0	-0.14809752
3	0x3e82f835	0.25579992
4	0x3e649c56	0.22325262
5	0xbd6500a5	-0.055908818
6	0xbdd902f7	-0.105962686
7	0xbe86de5a	-0.26341516
8	0x3e826b43	0.2547246
9	0x3e5ac51a	0.21364251
10	0xbe31e994	-0.17374259
11	0x3db550e9	0.08853323
12	0xbdad7248	-0.08469063
13	0xbde91cac	-0.11382422
14	0x3dd4124e	0.10355054
15	0xbd02aa65	-0.031900782
16	0x3bb8f2cc	0.005644178
17	0x3e18e144	0.14929682
18	0xbe1acb6a	-0.15116659
19	0x3e5f9158	0.21832788
20	0xbe42b04d	-0.19012566
21	0xbe3b298b	-0.18277566
22	0x3dad418d	0.084597684
23	0xbe4445b9	-0.19167222
24	0xbc54a266	-0.012978172
25	0x3d8c70f3	0.06857481
26	0xbb7962ba	-0.003805323
27	0xbe7913db	-0.2432398
28	0x3e6a521a	0.22882882
29	0x3e93f5d3	0.28898486
30	0x3dabe8e9	0.083940335
31	0x3e8a1241	0.26967052
32	0xbdcab8f0	-0.09898555
33	0x3e2750ef	0.16339467
34	0xbe1e1693	-0.15438299
35	0xbe9502ed	-0.29103795
36	0xbd5c8638	-0.05383894
37	0x3e8122ea	0.2522195
38	0x3dcd626f	0.1002854
39	0x3db39724	0.08769062
40	0xbd80fdf7	-0.0629844
41	0x3dc5f204	0.096653014
42	0x3e76ff0a	0.24120727
43	0xbe6f2fb3	-0.2335804
44	0x3e7973bb	0.24360554
45	0x3e8cb23d	0.27479735
46	0x3e76ddff	0.24108122
47	0x3da41545	0.08011869
48	0xbe841fa2	-0.25805384
49	0x3e928c40	0.28622627
50	0xbe288d41	-0.16460134
51	0x3e13f67f	0.144495
52	0xbd9ae3dc	-0.07562992
53	0xbe8274f4	-0.25479853
54	0x3e06961a	0.13143197
55	0x3e8a146b	0.26968703
56	0x3de1c9c0	0.11024809
57	0x3e225160	0.15851355
58	0x3d271ee6	0.04080095
59	0x3e39ab7e	0.18131825
60	0xbe6dcd2c	-0.23222798
61	0xbe2db0ff	-0.1696205
62	0xbcf79f5c	-0.030227356
63	0x3e4251ce	0.18976519
64	0x3e6c8dbb	0.23100941
65	0x3e91d5e5	0.284835
66	0xbe61d83c	-0.22055143
67	0xbe88d723	-0.26726636
68	0xbe5bebd9	-0.21476687
69	0xbe6c06e2	-0.230495
70	0x3e3892c2	0.18024734
71	0x3c71953c	0.014745053
72	0x3e6db32a	0.23212877
73	0xbd87decf	-0.06634294
74	0x3d7eb6a8	0.062185913
75	0x3e8fb50b	0.28067812
76	0x3db902f8	0.09033769
77	0x3d8dd8ac	0.069260925
78	0x3e794b12	0.24345043
79	0x3c2266f8	0.009912245
80	0xbe82d0ff	-0.25550076
81	0x3e847391	0.2586942
82	0xbdb2244b	-0.086983286
83	0xbe3ff475	-0.18745597
84	0xbe20a39c	-0.15687412
85	0x3d5c6eb1	0.0538165
86	0xbe4f264d	-0.20229454
87	0xbe3f7e09	-0.18700422
88	0x3d4a1974	0.04934068
89	0x3ce36878	0.027759776
90	0xbe5dd7a0	-0.21664286
91	0xbe1f5c1f	-0.15562485
92	0xbe5baee9	-0.21453442
93	0x3e78403c	0.24243253
94	0x3e8ad1c1	0.27113155
95	0xbe57e763	-0.21084361
96	0x3c0f58ab	0.008749167
97	0x3cefb222	0.029259745
98	0x3e88f9a2	0.26752955
99	0x3c5f8a8e	0.013643874
100	0xbe862b9b	-0.26205143
101	0x3e8884ac	0.2666372
102	0x3e5f3043	0.21795754
103	0x3d26c61e	0.040716283
104	0xbe250bfc	-0.16117853
105	0x3e68b3de	0.22724864
106	0xbd4bbad0	-0.049738705
107	0xbc7e1186	-0.015507108
108	0x3d24d1ce	0.040239148
109	0x3c0264de	0.007958619
110	0xbe5d88aa	-0.21634164
111	0xbe92af8c	-0.28649557
112	0x3e94bd7e	0.2905082
113	0x3e8b7e62	0.2724486
114	0xbb6c85b3	-0.0036090433
115	0x3bbcd076	0.005762155
116	0x3de36d5d	0.11104844
117	0x3e1057bd	0.1409597
118	0xbe83801c	-0.25683677
119	0xbe116770	-0.14199615
120	0xbdd4ae6e	-0.10384832
121	0xbdde05bf	-0.1084094
122	0x3d82841a	0.063728526
123	0xbd8a6217	-0.067569904
124	0xbce039dd	-0.027371341
125	0xbd963302	-0.07333948
126	0xbe1dd6b3	-0.15413933
127	0x3c4054e1	0.011738987
128	0xbe202fc2	-0.15643218
129	0x3dd2f282	0.10300161
130	0x3dcf475a	0.10121031
131	0xbe4649f0	-0.19364142
132	0xba8ebae9	-0.0010889444
133	0xbe90c5c8	-0.28275895
134	0xbcf2bf0b	-0.029632112
135	0xbe897b7f	-0.26852033
136	0xbe9425ca	-0.2893508
137	0x3def7f77	0.11694234
138	0x3e159275	0.1460665
139	0xbe170cef	-0.14751028
140	0x3daecc90	0.08535111
141	0x3cca590f	0.02470067
142	0x3da75f19	0.08172435
143	0xbe5b3ffb	-0.21411125
144	0x3d2964a2	0.041355737
145	0x3e3a1e92	0.18175724
146	0xbe020aa3	-0.1269937
147	0x3e677f80	0.22607231
148	0x3e97545c	0.2955655
149	0x3e757bb3	0.23972969
150	0xbd2509d1	-0.040292565
151	0xbe58d5df	-0.21175335
152	0x3e7559cc	0.23960036
153	0xbdb18c6a	-0.0866936
154	0xbe6c7b34	-0.23093873
155	0xbe813f86	-0.25243777
156	0xbe3efd59	-0.18651332
157	0x3b00bc32	0.0019643423
158	0x3e6f8340	0.23389912
159	0xbe439183	-0.19098477
160	0x3e312431	0.17298962
161	0xbe46ae7d	-0.194025
162	0xbe47020c	-0.19434375
163	0xbd375d51	-0.044766728
164	0x3e2307d1	0.1592095
165	0xbde5a72e	-0.112135276
166	0x3e585a12	0.21128109
167	0xbe5a0e24	-0.21294457
168	0x3de9382b	0.11387666
169	0xbe8ead93	-0.27866802
170	0x3e463787	0.1935712
171	0x3dba6087	0.091004424
172	0xbe3b6544	-0.18300349
173	0xbdf2f6ca	-0.118634775
174	0x3e4cf70c	0.20016116
175	0xbdb1e237	-0.08685725
176	0xbdba9b9d	-0.09111712
177	0xbe63f7cf	-0.222625
178	0xbc5d3341	-0.013500989
179	0xbe3c8997	-0.18411861
180	0x3e8e456c	0.2778734
181	0x3e3cc271	0.18433549
182	0xbda45773	-0.08024492
183	0xbd1b4826	-0.037910603
184	0xbd99991c	-0.074999064
185	0xbdaaf0c2	-0.08346702
186	0x3e04ae41	0.12957098
187	0xbe042000	-0.12902832
188	0xbe8e07d7	-0.27740356
189	0x3e1d975f	0.15389775
190	0xbe5c60eb	-0.21521346
191	0xbd1d7708	-0.038443595
192	0x3e33761c	0.17525524
193	0xbe82f91e	-0.25580686
194	0xbe4003df	-0.18751477
195	0xbe82950a	-0.25504333
196	0x3e5d7e8a	0.21630302
197	0x3e927e2b	0.28611884
198	0x3e341a88	0.17588246
199	0xbe711093	-0.23541479
200	0xbe73572e	-0.23763725
201	0xbd5a7fd8	-0.053344578
202	0x3d9d89f7	0.0769233
203	0x3d21583b	0.039390784
204	0xbe1f75d1	-0.15572287
205	0x3e634b7f	0.22196768
206	0xbe7551e0	-0.23957014
207	0xbe595830	-0.21225047
208	0xbd32e2a9	-0.04367319
209	0xbdb7d958	-0.08977002
210	0xbdf2f122	-0.11862399
211	0x3e67790b	0.22604768
212	0xbe008697	-0.12551342
213	0x3e50f40e	0.204056
214	0xbe545c5e	-0.2073836
215	0xbe95c840	-0.2925434
216	0xbe450f72	-0.19244173
217	0xbd7830b9	-0.06059334
218	0xbe4c7861	-0.19967796
219	0xbe7f4955	-0.24930318
220	0x3e26bad6	0.1628221
221	0x3e8635ed	0.26213017
222	0xbde19988	-0.11015612
223	0xbe24c90f	-0.16092323
224	0x3e9200a3	0.2851611
225	0x3bea6c21	0.0071540033
226	0xbd0a57e3	-0.03377522
227	0x3e8025ec	0.25028932
228	0xbd818a57	-0.06325214
229	0x3e57a2ee	0.21058246
230	0xbe0dfd4f	-0.13866161
231	0x3dd80896	0.10548513
232	0xbe28166e	-0.16414806
233	0x3e07d32a	0.13264146
234	0xbd582dc8	-0.052778035
235	0x3e94cd98	0.29063106
236	0xbe69b58f	-0.22823165
237	0x3e74e94d	0.23917122
238	0xbdb5527a	-0.08853622
239	0x3e8b1641	0.27165416
240	0x3e3078d7	0.17233597
241	0x3d824927	0.06361609
242	0x3e84ae19	0.25914076
243	0xbe474ba1	-0.19462444
244	0xbd2b4211	-0.041811053
245	0x3d95ccfa	0.07314487
246	0x3e9280a6	0.28613776
247	0xbe663ddb	-0.22484533
248	0xbe05fe81	-0.13085367
249	0x3e3a6478	0.18202388
250	0x3dca5489	0.09879405
251	0x3c7b461c	0.01533654
252	0x3e7236aa	0.23653665
253	0x3e0ce2fb	0.13758461
254	0x3d4d25d0	0.05008489
255	0xbc88f0d4	-0.016716398

gat2.gat.att_src f4 [1, 1, 64]
0	0x3cba6526	0.02275331
1	0x3d314232	0.04327602
2	0xbe5d8728	-0.2163359
3	0x3e981651	0.29704526
4	0xbdfb260d	-0.12263117
5	0x3e5fb7e1	0.21847488
6	0xbdae6880	-0.085160255
7	0xbe9a905a	-0.30188257
8	0xbd378f09	-0.044814143
9	0x3e5b127a	0.21393767
10	0x3d9d16bf	0.07670354
11	0xbde7c7c8	-0.11317402
12	0x3e26c55d	0.16286226
13	0x3bd1affe	0.0063991537
14	0x3e74dfa9	0.23913445
15	0x3e814891	0.25250676
16	0x3d0d56ef	0.034506734
17	0x3d8cf2c7	0.068822436
18	0x3e6c7507	0.23091517
19	0xbcea0991	-0.028569015
20	0x3e902f32	0.28161007
21	0xbe10fdb6	-0.14159283
22	0xbe0ec005	-0.13940437
23	0x3e63443c	0.22193998
24	0xbb86c2ef	-0.0041125934
25	0x3e2b1110	0.16705728
26	0xbd056dde	-0.03257548
27	0xbe92d56d	-0.28678456
28	0xbe513d3b	-0.20433514
29	0x3c483737	0.0122201955
30	0x3dace5dc	0.0844228
31	0xbd525f76	-0.05136057
32	0x3e800870	0.25006437
33	0xbe8d6af2	-0.27620655
34	0xbdc784f2	-0.09742154
35	0xbd902ef6	-0.07040207
36	0xbc92112a	-0.01783045
37	0x3e79fe86	0.24413499
38	0x3d7e681f	0.062111016
39	0xbe473847	-0.19455062
40	0x3e556f59	0.20843257
41	0x3dac58de	0.084153876
42	0x3e566d48	0.20940125
43	0x3d643740	0.055716753
44	0xbe85b77b	-0.26116547
45	0xbe86f2eb	-0.26357207
46	0xbe86c3a9	-0.26321152
47	0x3e978787	0.29595587
48	0x3e4c73a1	0.19965984
49	0xbe96a50f	-0.29422805
50	0x3c9cdb20	0.019147456
51	0x3b89aca4	0.0042014886
52	0x3da4ae54	0.08041063
53	0x3d29dd04	0.041470543
54	0x3e0d4a56	0.13797888
55	0x3e19c9ea	0.1501843
56	0xbe961f24	-0.29320633
57	0x3a8bbbe8	0.0010660859
58	0xbd65113a	-0.05592463
59	0xbe953915	-0.29145113
60	0x3e8e2488	0.27762246
61	0x3dc68bf7	0.09694665
62	0xbe177c2b	-0.1479346
63	0xbd83b5ff	-0.064311974

gat2.gat.att_dst f4 [1, 1, 64]
0	0x3e303096	0.17206034
1	0x3e87e25a	0.2653988
2	0xbe6625a5	-0.22475298
3	0xbe25c3e2	-0.16188005
4	0x3d5b9134	0.053605273
5	0xbe967b17	-0.29390785
6	0xbe3cea7d	-0.18448825
7	0x3e345f80	0.17614555
8	0x3e25943d	0.1616983
9	0x3d581ebf	0.052763697
10	0x3d6b5dd8	0.057462543
11	0x3e93ecfa	0.28891736
12	0xbe30b70c	-0.17257327
13	0x3e1eff85	0.1552716
14	0xbe2ded8f	-0.16985153
15	0x3e4a1aef	0.19736837
16	0x3e692560	0.22768164
17	0x3e4ecf2d	0.20196219
18	0x3e1603d2	0.14649895
19	0x3e6f61d3	0.2337716
20	0xbd2079d0	-0.03917867
21	0x3e798304	0.24366385
22	0x3df94186	0.12170701
23	0xbd862950	-0.065508485
24	0x3d31f441	0.04344583
25	0xbc80768b	-0.015681526
26	0xbe2a4fbb	-0.16631977
27	0x3e8e3c03	0.2778016
28	0x3e8d26c2	0.27568632
29	0x3e5ce76d	0.21572657
30	0xbdad7588	-0.08469683
31	0x3e6f85c2	0.23390868
32	0xbe962d1d	-0.29331294
33	0x3d8a981a	0.06767292
34	0xbe867dd6	-0.2626788
35	0x3d9b567f	0.07584857
36	0x3e35f357	0.17768608
37	0xbe310bf2	-0.17289713
38	0xbe3d75e5	-0.18502004
39	0x3d2ee502	0.042698868
40	0x3e59075b	0.21194212
41	0xbe13b5f5	-0.1442488
42	0xbe8b21a4	-0.27174103
43	0x3db1496c	0.08656582
44	0x3e4d4139	0.20044412
45	0xbdb9f0e6	-0.09079151
46	0x3cca7e4e	0.02471843
47	0x3cba64fe	0.022753235
48	0xbd659ded	-0.056058813
49	0xbcd97db9	-0.026549207
50	0x3e92a983	0.28644952
51	0xbe51c8b7	-0.20486723
52	0xbe3b65a5	-0.18300493
53	0x3e7160d3	0.23572092
54	0x3c974279	0.018464314
55	0x3dda766c	0.106671184
56	0xbe748854	-0.2388013
57	0xbe162fbd	-0.14666648
58	0x3e4d6a7b	0.2006015
59	0xbd063dc0	-0.032773733
60	0xbe345bcd	-0.17613144
61	0x3dbf8e93	0.09353366
62	0x3e835ecf	0.2565827
63	0xbdca5bac	-0.09880766

gat2.gat.bias f4 [64]
0	0xbab05529	-0.0013453114
1	0x3a547914	0.00081052
2	0x3b5674a0	0.0032723323
3	0x3b140fa1	0.0022592323
4	0xb92dd716	-0.00016578691
5	0x3b85af8f	0.004079766
6	0x395516d7	0.00020321771
7	0xbb1bf72a	-0.0023798444
8	0x38c975d8	9.606377e-05
9	0x3ab28fda	0.0013623193
10	0x39dce574	0.00042132626
11	0x3b7ed536	0.0038884408
12	0xb88721de	-6.44361e-05
13	0x3b323944	0.0027194778
14	0xba9e4ac5	-0.0012076726
15	0xba9cac56	-0.0011953216
16	0xbac4a83a	-0.0015003749
17	0x3a98c230	0.0011654552
18	0x39eafa60	0.00044818502
19	0x394d58e5	0.0001958344
20	0x3a5dd736	0.000846255
21	0x3ad6eb72	0.0016397072
22	0xba57cb62	-0.00082319055
23	0xba4db689	-0.0007847329
24	0xbb5927bf	-0.0033135263
25	0xba558865	-0.00081456295
26	0xb9227fa1	-0.0001549707
27	0xba53e61b	-0.00080832996
28	0xba089f56	-0.0005211731
29	0x3adb5e9a	0.0016736567
30	0xba71e1a4	-0.00092270435
31	0xb9dd425e	-0.00042201852
32	0x39c04021	0.00036668874
33	0x3a40bb7c	0.0007352156
34	0xbb18e6b5	-0.0023330871
35	0x3b17b44e	0.0023148241
36	0xb9a4dac6	-0.00031443516
37	0x3a2c65f0	0.0006576469
38	0x3a3e57c7	0.00072610046
39	0xb9c187f7	-0.0003691313
40	0x3b0b8bed	0.002129312
41	0x3a8a74ea	0.0010563408
42	0xba153a57	-0.0005692592
43	0x3abdc5dd	0.0014478524
44	0x389aea61	7.386949e-05
45	0x3aca8969	0.0015452328
46	0x3b45daad	0.0030190155
47	0xba754ede	-0.00093577604
48	0x3a9e86e6	0.0012094646
49	0xba01bb72	-0.0004948891
50	0xbb39b135	-0.0028334383
51	0x39a17f4b	0.00030803154
52	0xba81ee92	-0.0009913018
53	0x3a97d429	0.0011583614
54	0x398c2499	0.00026730148
55	0xbb78c840	-0.0037961155
56	0xb8d4edcc	-0.00010153241
57	0x3ac2507d	0.0014825013
58	0x3886e914	6.433032e-05
59	0xbb16c2b0	-0.0023004226
60	0xbb2ca15e	-0.00263413
61	0x3a52e312	0.00080447004
62	0x39ff17bf	0.00048655082
63	0x3aa35892	0.0012462309

gat2.gat.lin_src.weight f4 [64, 64]
0	0xbddc8d62	-0.10769154
1	0xbdc87c3e	-0.09789322
2	0xbe147b70	-0.14500213
3	0x3d0da707	0.034583118
4	0x3e5b7e2d	0.21434851
5	0xbd47e034	-0.0487978
6	0x3dc1ad59	0.094568916
7	0xbdd2711d	-0.10275481
8	0xbe4041a7	-0.18775044
9	0xbd996abe	-0.074910626
10	0xbc1e56a5	-0.009664212
11	0x3e089c0b	0.13340776
12	0x3cc050d9	0.023476051
13	0xbe02f589	-0.12788977
14	0xbe4c0296	-0.19922861
15	0xbe1df67a	-0.15426055
16	0xbc4b35f1	-0.012402997
17	0x3c2d7074	0.010585893
18	0x3dcd0271	0.10010231
19	0x3c03c02b	0.008041422
20	0x3e3498eb	0.17636459
21	0xbe347139	-0.17621316
22	0x3e17c69a	0.14821854
23	0x3e5c28a8	0.21499884
24	0x3e54c956	0.20779929
25	0x3da14330	0.07874143
26	0xbae2e7a7	-0.001731147
27	0x3dba5696	0.09098546
28	0x3a0bdda9	0.0005335459
29	0x3e0864eb	0.13319747
30	0x3e266fb4	0.16253549
31	0xbdb7db0f	-0.08977329
32	0xbdf4bb51	-0.1194979
33	0xbe1f8d1f	-0.15581177
34	0x3e3b0458	0.18263376
35	0x3e026206	0.12732705
36	0x3c4493b0	0.011998102
37	0x3db9f4ef	0.090799205
38	0xbe3479b4	-0.17624551
39	0xbcdc3226	-0.026879381
40	0x3da41114	0.0801107
41	0x3e5ccbbe	0.21562096
42	0x3e4d82db	0.20069449
43	0x3dc61160	0.09671283
44	0x3e4d686b	0.20059364
45	0x3d8fac66	0.07015304
46	0x3e458891	0.19290377
47	0xbdff6230	-0.124699
48	0xbdbf8246	-0.093510196
49	0x3e315f4e	0.17321512
50	0x3dbf9418	0.093544185
51	0xbdb24dc6	-0.0870624
52	0xbd9711f8	-0.07376474
53	0x3cb1c176	0.021698695
54	0x3e0ab44c	0.1354534
55	0xbd8fde26	-0.07024793
56	0x3d02d009	0.03193668
57	0x3da2c307	0.07947355
58	0x3e070c56	0.131883
59	0xbe1ec0cc	-0.15503234
60	0xbde785c6	-0.11304812
61	0xbdc3effb	-0.09567257
62	0xbd147787	-0.036246803
63	0x3b25f68e	0.002532396
64	0x3dece59c	0.11567232
65	0xbd374089	-0.04473928
66	0xbc1519ba	-0.009100372
67	0xbe3bed57	-0.18352257
68	0x3e40af89	0.18816961
69	0xbd7191c0	-0.05897689
70	0xbd2d3f7f	-0.042296883
71	0x3e52a157	0.20569359
72	0x3d9bba48	0.0760389
73	0xbe55d09e	-0.20880362
74	0x3d8bd81a	0.068283275
75	0x3dc7dae4	0.09758547
76	0x3e3a375f	0.18185185
77	0xbd820b1b	-0.063497745
78	0x3e032556	0.12807211
79	0x3e40386f	0.18771528
80	0xbd569079	-0.052383874
81	0xbe0cfb13	-0.13767652
82	0xbe02eaf1	-0.12784936
83	0xbe0d9e25	-0.13829859
84	0x3e323a84	0.17405134
85	0xbe0021da	-0.12512913
86	0x3df9da7b	0.12199875
87	0x3e139a95	0.14414437
88	0xbd0a100d	-0.033706713
89	0x3e2847cd	0.1643364
90	0xbdbf7513	-0.09348502
91	0x3b7289d2	0.0037008417
92	0xbc87bbda	-0.016569067
93	0x3e211f98	0.15734708
94	0x3e38fa16	0.1806415
95	0x3e19dff9	0.15026845
96	0x3de26dcb	0.110560976
97	0x3e081102	0.13287738
98	0xbcac4e84	-0.021033533
99	0xbb45812a	-0.0030136802
100	0xbe582561	-0.21108009
101	0x3d1c563f	0.03816819
102	0xbdfa19e9	-0.12211973
103	0xbdb9c321	-0.09070421
104	0xba421ced	-0.0007404823
105	0x3daf09b1	0.0854677
106	0xbc211576	-0.009831777
107	0xbd12c721	-0.035834435
108	0xbd6b046d	-0.057377268
109	0xbdb860c8	-0.090028346
110	0x3e1d5599	0.15364684
111	0xbd9f02a6	-0.07764177
112	0x3c86e819	0.016468095
113	0x3cb5bf98	0.022186086
114	0x3e55da57	0.20884071
115	0x3deb6892	0.114945546
116	0x3e59a9b5	0.21256144
117	0x3d5ba926	0.05362811
118	0xbe2cce21	-0.16875507
119	0x3e5464f1	0.20741631
120	0xbd3c2dd4	-0.045942143
121	0xbe27be86	-0.16381273
122	0xbd851090	-0.064973
123	0xbc42e9e2	-0.011896582
124	0x3dfcbd3d	0.12340782
125	0xbdc40074	-0.09570399
126	0xbc977a78	-0.018491015
127	0xbd768e27	-0.06019416
128	0x3d8e6d78	0.06954473
129	0xbb0d79a5	-0.0021587398
130	0x3dc23e5f	0.094845526
131	0x3e561c51	0.2090924
132	0x3d2987f0	0.041389406
133	0x3e4bab62	0.19889596
134	0x3dbd9bf2	0.0925826
135	0x3e5a7a12	0.21335629
136	0x3da57c65	0.08080367
137	0x3d05d8d5	0.03267749
138	0x3e4508a5	0.19241579
139	0xbcef937b	-0.029245129
140	0xbe317eea	-0.1733357
141	0x3da0db0b	0.07854279
142	0xbd979c79	-0.07402892
143	0xbd8336bd	-0.06406925
144	0x3e1e250d	0.15443821
145	0x3e298cad	0.1655757
146	0x3d681b4f	0.05666667
147	0xbce82fd5	-0.02834312
148	0xbe23498b	-0.15946023
149	0x3dc33c25	0.09532956
150	0xbd85dd8c	-0.06536397
151	0xbe4b426c	-0.19849557
152	0x3d9d3a54	0.07677141
153	0xbe2c273b	-0.1681184
154	0xbe4cb88a	-0.19992271
155	0xbdd08fc7	-0.10183673
156	0xbe0884d9	-0.13331927
157	0x3d1d27d8	0.038368076
158	0x3dad4807	0.08461004
159	0xbe4f1946	-0.20224485
160	0xbe1d3bcb	-0.1535484
161	0xbdcdbff7	-0.1004638
162	0x3d48e2ee	0.049044542
163	0x3da8f02a	0.08248933
164	0x3e50e073	0.2039812
165	0xbd9a2d08	-0.0752812
166	0x3d1c6637	0.038183417
167	0xbe09338e	-0.13398573
168	0xbdd89583	-0.10575392
169	0x3e54c925	0.20779856
170	0x3e4b3b36	0.19846806
171	0x3e3868b3	0.1800869
172	0x3e4268d8	0.18985307
173	0xbda60eb5	-0.08108274
174	0x3dcf9b7c	0.10137078
175	0x3e3da90b	0.18521516
176	0x3b09d66a	0.0021032342
177	0x3a1d30e8	0.00059963623
178	0xbd256771	-0.040381853
179	0x3e5b17db	0.21395819
180	0x3c066549	0.008202859
181	0xbda06086	-0.078309104
182	0xbd55e6c7	-0.05222204
183	0x3dbe06a7	0.092786126
184	0x3d51948f	0.051167067
185	0xbc00dbe9	-0.007864931
186	0xbdbe0021	-0.09277368
187	0x3d061a51	0.03273994
188	0xbe5bfce3	-0.21483187
189	0x3dbc31ad	0.091891624
190	0x3cea0b0f	0.028569726
191	0x3ded8e6b	0.1159943
192	0xbc28e24d	-0.010307861
193	0xbca3dbbc	-0.020002238
194	0xbddfd41d	-0.10929129
195	0xbe101b91	-0.14073016
196	0xbe3d8f38	-0.18511665
197	0x3d115225	0.03547873
198	0xbe3410dd	-0.17584558
199	0xbe5015c4	-0.20320803
200	0xbdc5babc	-0.096547574
201	0xbe12ee91	-0.14348818
202	0xbe18a174	-0.1490534
203	0x3d0e6357	0.034762707
204	0x3ddd907c	0.10818574
205	0x3e1467ad	0.14492674
206	0x3d389fd7	0.04507431
207	0x3d2585c8	0.040410787
208	0xbe4f63b2	-0.20252874
209	0xbd9ef3e0	-0.07761359
210	0x3db3fe84	0.087887794
211	0xbd3ff1ae	-0.046861343
212	0x3e38d9d4	0.18051845
213	0x3e3a6f9d	0.1820664
214	0x3e425567	0.18977891
215	0xbdf3ef5c	-0.119108886
216	0xbe3c8c72	-0.1841295
217	0xbe59fbd6	-0.21287474
218	0xbe456459	-0.19276561
219	0xbd95e7cc	-0.07319602
220	0xbe334a3f	-0.17508791
221	0x3e0f7588	0.14009678
222	0x3e0fa69f	0.14028405
223	0x3e3ca88c	0.1842367
224	0x3e0dd583	0.1385098
225	0xbdff2e98	-0.12460059
226	0xbcf25abd	-0.029584283
227	0x3d59381a	0.05303202
228	0x3dda6f82	0.106658
229	0x3d818ecc	0.063260645
230	0x3d3a87ff	0.045539852
231	0xbb70192c	-0.0036636097
232	0xbe2d3330	-0.16914058
233	0xbd2a4047	-0.041565206
234	0xbe2f8765	-0.17141493
235	0x3dcd234b	0.10016497
236	0xbdd14538	-0.102182806
237	0xbc4ed810	-0.0126247555
238	0xbc81ab7d	-0.015828842
239	0x3e1422e0	0.14466429
240	0xbe03a14c	-0.12854499
241	0x3e2f9afd	0.17148967
242	0xbe169534	-0.14705354
243	0xbb8da6e8	-0.0043228753
244	0x3caf0ae6	0.021367501
245	0xbdbd2e60	-0.09237361
246	0x3cc50e20	0.024054587
247	0xbdeec174	-0.11657992
248	0x3d27b3db	0.040943008
249	0x3d77e895	0.060524542
250	0xbe3d64d2	-0.18495491
251	0xbd658d34	-0.056042865
252	0x3db854ed	0.09000573
253	0x3e0d0451	0.13771178
254	0xbdc87c9b	-0.097893916
255	0x3da82f6c	0.0821217

gat2.gat.lin_dst.weight f4 [64, 64]
0	0xbddc8d62	-0.10769154
1	0xbdc87c3e	-0.09789322
2	0xbe147b70	-0.14500213
3	0x3d0da707	0.034583118
4	0x3e5b7e2d	0.21434851
5	0xbd47e034	-0.0487978
6	0x3dc1ad59	0.094568916
7	0xbdd2711d	-0.10275481
8	0xbe4041a7	-0.18775044
9	0xbd996abe	-0.074910626
10	0xbc1e56a5	-0.009664212
11	0x3e089c0b	0.13340776
12	0x3cc050d9	0.023476051
13	0xbe02f589	-0.12788977
14	0xbe4c0296	-0.19922861
15	0xbe1df67a	-0.15426055
16	0xbc4b35f1	-0.012402997
17	0x3c2d7074	0.010585893
18	0x3dcd0271	0.10010231
19	0x3c03c02b	0.008041422
20	0x3e3498eb	0.17636459
21	0xbe347139	-0.17621316
22	0x3e17c69a	0.14821854
23	0x3e5c28a8	0.21499884
24	0x3e54c956	0.20779929
25	0x3da14330	0.07874143
26	0xbae2e7a7	-0.001731147
27	0x3dba5696	0.09098546
28	0x3a0bdda9	0.0005335459
29	0x3e0864eb	0.13319747
30	0x3e266fb4	0.16253549
31	0xbdb7db0f	-0.08977329
32	0xbdf4bb51	-0.1194979
33	0xbe1f8d1f	-0.15581177
34	0x3e3b0458	0.18263376
35	0x3e026206	0.12732705
36	0x3c4493b0	0.011998102
37	0x3db9f4ef	0.090799205
38	0xbe3479b4	-0.17624551
39	0xbcdc3226	-0.026879381
40	0x3da41114	0.0801107
41	0x3e5ccbbe	0.21562096
42	0x3e4d82db	0.20069449
43	0x3dc61160	0.09671283
44	0x3e4d686b	0.20059364
45	0x3d8fac66	0.07015304
46	0x3e458891	0.19290377
47	0xbdff6230	-0.124699
48	0xbdbf8246	-0.093510196
49	0x3e315f4e	0.17321512
50	0x3dbf9418	0.093544185
51	0xbdb24dc6	-0.0870624
52	0xbd9711f8	-0.07376474
53	0x3cb1c176	0.021698695
54	0x3e0ab44c	0.1354534
55	0xbd8fde26	-0.07024793
56	0x3d02d009	0.03193668
57	0x3da2c307	0.07947355
58	0x3e070c56	0.131883
59	0xbe1ec0cc	-0.15503234
60	0xbde785c6	-0.11304812
61	0xbdc3effb	-0.09567257
62	0xbd147787	-0.036246803
63	0x3b25f68e	0.002532396
64	0x3dece59c	0.11567232
65	0xbd374089	-0.04473928
66	0xbc1519ba	-0.009100372
67	0xbe3bed57	-0.18352257
68	0x3e40af89	0.18816961
69	0xbd7191c0	-0.05897689
70	0xbd2d3f7f	-0.042296883
71	0x3e52a157	0.20569359
72	0x3d9bba48	0.0760389
73	0xbe55d09e	-0.20880362
74	0x3d8bd81a	0.068283275
75	0x3dc7dae4	0.09758547
76	0x3e3a375f	0.18185185
77	0xbd820b1b	-0.063497745
78	0x3e032556	0.12807211
79	0x3e40386f	0.18771528
80	0xbd569079	-0.052383874
81	0xbe0cfb13	-0.13767652
82	0xbe02eaf1	-0.12784936
83	0xbe0d9e25	-0.13829859
84	0x3e323a84	0.17405134
85	0xbe0021da	-0.12512913
86	0x3df9da7b	0.12199875
87	0x3e139a95	0.14414437
88	0xbd0a100d	-0.033706713
89	0x3e2847cd	0.1643364
90	0xbdbf7513	-0.09348502
91	0x3b7289d2	0.0037008417
92	0xbc87bbda	-0.016569067
93	0x3e211f98	0.15734708
94	0x3e38fa16	0.1806415
95	0x3e19dff9	0.15026845
96	0x3de26dcb	0.110560976
97	0x3e081102	0.13287738
98	0xbcac4e84	-0.021033533
99	0xbb45812a	-0.0030136802
100	0xbe582561	-0.21108009
101	0x3d1c563f	0.03816819
102	0xbdfa19e9	-0.12211973
103	0xbdb9c321	-0.09070421
104	0xba421ced	-0.0007404823
105	0x3daf09b1	0.0854677
106	0xbc211576	-0.009831777
107	0xbd12c721	-0.035834435
108	0xbd6b046d	-0.057377268
109	0xbdb860c8	-0.090028346
110	0x3e1d5599	0.15364684
111	0xbd9f02a6	-0.07764177
112	0x3c86e819	0.016468095
113	0x3cb5bf98	0.022186086
114	0x3e55da57	0.20884071
115	0x3deb6892	0.114945546
116	0x3e59a9b5	0.21256144
117	0x3d5ba926	0.05362811
118	0xbe2cce21	-0.16875507
119	0x3e5464f1	0.20741631
120	0xbd3c2dd4	-0.045942143
121	0xbe27be86	-0.16381273
122	0xbd851090	-0.064973
123	0xbc42e9e2	-0.011896582
124	0x3dfcbd3d	0.12340782
125	0xbdc40074	-0.09570399
126	0xbc977a78	-0.018491015
127	0xbd768e27	-0.06019416
128	0x3d8e6d78	0.06954473
129	0xbb0d79a5	-0.0021587398
130	0x3dc23e5f	0.094845526
131	0x3e561c51	0.2090924
132	0x3d2987f0	0.041389406
133	0x3e4bab62	0.19889596
134	0x3dbd9bf2	0.0925826
135	0x3e5a7a12	0.21335629
136	0x3da57c65	0.08080367
137	0x3d05d8d5	0.03267749
138	0x3e4508a5	0.19241579
139	0xbcef937b	-0.029245129
140	0xbe317eea	-0.1733357
141	0x3da0db0b	0.07854279
142	0xbd979c79	-0.07402892
143	0xbd8336bd	-0.06406925
144	0x3e1e250d	0.15443821
145	0x3e298cad	0.1655757
146	0x3d681b4f	0.05666667
147	0xbce82fd5	-0.02834312
148	0xbe23498b	-0.15946023
149	0x3dc33c25	0.09532956
150	0xbd85dd8c	-0.06536397
151	0xbe4b426c	-0.19849557
152	0x3d9d3a54	0.07677141
153	0xbe2c273b	-0.1681184
154	0xbe4cb88a	-0.19992271
155	0xbdd08fc7	-0.10183673
156	0xbe0884d9	-0.13331927
157	0x3d1d27d8	0.038368076
158	0x3dad4807	0.08461004
159	0xbe4f1946	-0.20224485
160	0xbe1d3bcb	-0.1535484
161	0xbdcdbff7	-0.1004638
162	0x3d48e2ee	0.049044542
163	0x3da8f02a	0.08248933
164	0x3e50e073	0.2039812
165	0xbd9a2d08	-0.0752812
166	0x3d1c6637	0.038183417
167	0xbe09338e	-0.13398573
168	0xbdd89583	-0.10575392
169	0x3e54c925	0.20779856
170	0x3e4b3b36	0.19846806
171	0x3e3868b3	0.1800869
172	0x3e4268d8	0.18985307
173	0xbda60eb5	-0.08108274
174	0x3dcf9b7c	0.10137078
175	0x3e3da90b	0.18521516
176	0x3b09d66a	0.0021032342
177	0x3a1d30e8	0.00059963623
178	0xbd256771	-0.040381853
179	0x3e5b17db	0.21395819
180	0x3c066549	0.008202859
181	0xbda06086	-0.078309104
182	0xbd55e6c7	-0.05222204
183	0x3dbe06a7	0.092786126
184	0x3d51948f	0.051167067
185	0xbc00dbe9	-0.007864931
186	0xbdbe0021	-0.09277368
187	0x3d061a51	0.03273994
188	0xbe5bfce3	-0.21483187
189	0x3dbc31ad	0.091891624
190	0x3cea0b0f	0.028569726
191	0x3ded8e6b	0.1159943
192	0xbc28e24d	-0.010307861
193	0xbca3dbbc	-0.020002238
194	0xbddfd41d	-0.10929129
195	0xbe101b91	-0.14073016
196	0xbe3d8f38	-0.18511665
197	0x3d115225	0.03547873
198	0xbe3410dd	-0.17584558
199	0xbe5015c4	-0.20320803
200	0xbdc5babc	-0.096547574
201	0xbe12ee91	-0.14348818
202	0xbe18a174	-0.1490534
203	0x3d0e6357	0.034762707
204	0x3ddd907c	0.10818574
205	0x3e1467ad	0.14492674
206	0x3d389fd7	0.04507431
207	0x3d2585c8	0.040410787
208	0xbe4f63b2	-0.20252874
209	0xbd9ef3e0	-0.07761359
210	0x3db3fe84	0.087887794
211	0xbd3ff1ae	-0.046861343
212	0x3e38d9d4	0.18051845
213	0x3e3a6f9d	0.1820664
214	0x3e425567	0.18977891
215	0xbdf3ef5c	-0.119108886
216	0xbe3c8c72	-0.1841295
217	0xbe59fbd6	-0.21287474
218	0xbe456459	-0.19276561
219	0xbd95e7cc	-0.07319602
220	0xbe334a3f	-0.17508791
221	0x3e0f7588	0.14009678
222	0x3e0fa69f	0.14028405
223	0x3e3ca88c	0.1842367
224	0x3e0dd583	0.1385098
225	0xbdff2e98	-0.12460059
226	0xbcf25abd	-0.029584283
227	0x3d59381a	0.05303202
228	0x3dda6f82	0.106658
229	0x3d818ecc	0.063260645
230	0x3d3a87ff	0.045539852
231	0xbb70192c	-0.0036636097
232	0xbe2d3330	-0.16914058
233	0xbd2a4047	-0.041565206
234	0xbe2f8765	-0.17141493
235	0x3dcd234b	0.10016497
236	0xbdd14538	-0.102182806
237	0xbc4ed810	-0.0126247555
238	0xbc81ab7d	-0.015828842
239	0x3e1422e0	0.14466429
240	0xbe03a14c	-0.12854499
241	0x3e2f9afd	0.17148967
242	0xbe169534	-0.14705354
243	0xbb8da6e8	-0.0043228753
244	0x3caf0ae6	0.021367501
245	0xbdbd2e60	-0.09237361
246	0x3cc50e20	0.024054587
247	0xbdeec174	-0.11657992
248	0x3d27b3db	0.040943008
249	0x3d77e895	0.060524542
250	0xbe3d64d2	-0.18495491
251	0xbd658d34	-0.056042865
252	0x3db854ed	0.09000573
253	0x3e0d0451	0.13771178
254	0xbdc87c9b	-0.097893916
255	0x3da82f6c	0.0821217

gru.weight_ih_l0 f4 [192, 64]
0	0x3dfdda61	0.12395168
1	0x3c453e88	0.012038834
2	0xbd32e505	-0.04367544
3	0x3deba173	0.11505403
4	0x3dda42a5	0.10657243
5	0xbc54a57f	-0.0129789105
6	0xbd1abf1c	-0.037779912
7	0xbd954a78	-0.072895944
8	0x3d623b4e	0.05523234
9	0x39442231	0.00018704754
10	0x3dbf4258	0.09338826
11	0xbd80b641	-0.06284762
12	0xbde98512	-0.11402334
13	0xbd827495	-0.063698925
14	0xbcf768f4	-0.030201413
15	0x3d8383d0	0.064216256
16	0xbdb1ec25	-0.08687619
17	0xbd83a899	-0.06428642
18	0x3c2cc76c	0.010545593
19	0xbd8182da	-0.06323786
20	0x3dfafadd	0.122548796
21	0x3d72fedc	0.059325084
22	0xbddfe0c6	-0.10931544
23	0x3dfd3913	0.12364402
24	0x3d722875	0.059120614
25	0x3c4866b3	0.012231517
26	0xbdfb7945	-0.1227899
27	0xbb913318	-0.0044311397
28	0xbdc2a656	-0.09504382
29	0x3dc3f26f	0.09567725
30	0x3d793460	0.060840964
31	0x3daa09b5	0.08302633
32	0xbdda7add	-0.106679656
33	0xbc9ec169	-0.019379335
34	0xbdcdafdd	-0.10043309
35	0x3dfbd0dd	0.12295697
36	0x3bf3b6e1	0.0074375723
37	0x3da6d6aa	0.08146413
38	0x3dff583c	0.12468001
39	0x3c8bb704	0.017055042
40	0xbdc9c486	-0.09851937
41	0x3dba0b8b	0.09084233
42	0x3d93eaa9	0.07222492
43	0x3dea450f	0.11438953
44	0xbd8c5056	-0.0685126
45	0x3df67cac	0.12035498
46	0x3cdd1439	0.026987182
47	0x3d716028	0.058929592
48	0xbd8b6ec1	-0.06808234
49	0xbde32635	-0.11091272
50	0xbd1a7828	-0.037712246
51	0x3cd521e5	0.026017139
52	0xbd61665c	-0.055029258
53	0x3d3be0aa	0.045868553
54	0xbdd68d59	-0.10476179
55	0xbb9065b1	-0.004406654
56	0xbce62b67	-0.028096868
57	0xbdb58e26	-0.08865003
58	0x3c8fd068	0.01755543
59	0xbd5d1531	-0.053975288
60	0xbcaf0cbd	-0.021368379
61	0xbdc60406	-0.09668736
62	0xbd955841	-0.07292224
63	0xbd2a6e8c	-0.041609332
64	0x3cc2c20c	0.02377417
65	0xbdb2de94	-0.0873386
66	0x3da2933a	0.079382375
67	0x3d793e09	0.060850177
68	0x3df14d4a	0.1178232
69	0x3da1ef5a	0.07906981
70	0x3d60fed0	0.054930508
71	0xbd6a555c	-0.05721031
72	0x3dafb449	0.085793085
73	0xbdbd259e	-0.092356905
74	0xbdd6d9b1	-0.1049074
75	0xbca43b81	-0.020047905
76	0x3db995cb	0.09061774
77	0xbd8d5ada	-0.06902094
78	0xbdb86bba	-0.09004922
79	0xbc4979af	-0.012297078
80	0x3b99aad8	0.0046895556
81	0x3dfbb631	0.1229061
82	0xbca326b8	-0.019915923
83	0xbc9feeca	-0.019523043
84	0xbd74a2a2	-0.05972541
85	0xbbb8eaff	-0.005643248
86	0x3d776555	0.060399372
87	0x3b3e11f8	0.002900241
88	0x3de56919	0.112016864
89	0xbdcf7b2e	-0.101309165
90	0xbc3c9cb0	-0.011511967
91	0x3daa4974	0.08314791
92	0xbb529151	-0.0032130072
93	0x3da82250	0.082096696
94	0xbd1ab592	-0.037770815
95	0x3cdcae1b	0.026938489
96	0x3cfc5975	0.030804375
97	0x3dee600d	0.11639414
98	0x3c82ca09	0.015965478
99	0x3d54af78	0.051925153
100	0x3dcf94b6	0.10135786
101	0x3dc58e2b	0.09646257
102	0x3db3f5f4	0.08787146
103	0xbdcc9691	-0.09989656
104	0xbd7aca6e	-0.06122821
105	0xbb14f9f4	-0.0022731991
106	0x3d506075	0.05087324
107	0xbc5a0bbe	-0.013308464
108	0xbd6a81d3	-0.057252716
109	0xbcdd60b9	-0.02702366
110	0xbd6c32f8	-0.057665795
111	0x3cff6e91	0.031180652
112	0x3d8388c1	0.06422568
113	0xbd93a425	-0.072090425
114	0xbdfd2b44	-0.12361768
115	0xbd9edfb7	-0.07757514
116	0x3d984cf7	0.07436555
117	0xbd391ea5	-0.04519524
118	0xbd44ac2c	-0.04801576
119	0xbdfba420	-0.12287164
120	0x3d502c3e	0.050823443
121	0x3d81138c	0.063025564
122	0x3d3e544d	0.046467114
123	0xbdba76b8	-0.09104675
124	0x3dadbafe	0.084829316
125	0xbc6fc83e	-0.014635144
126	0xbd23cec7	-0.03999212
127	0xbda5e02c	-0.08099398
128	0xbdaa9bba	-0.08330484
129	0x3d449442	0.047992952
130	0xbdf43d0a	-0.11925705
131	0x3c6b1e00	0.014350414
132	0xbc69b5ec	-0.014264565
133	0xbda03d58	-0.078242004
134	0x3dbbe244	0.09174016
135	0xbd2585d2	-0.040410824
136	0x3d1e6e40	0.03867936
137	0x3dbfef6b	0.09371837
138	0x3d182e22	0.03715337
139	0x3adad79e	0.0016696339
140	0x3ce8705a	0.028373886
141	0xbd9913d0	-0.07474482
142	0xbbbd99b5	-0.0057861456
143	0xbd7ead73	-0.062177133
144	0x3da54e24	0.08071545
145	0xbd5913b6	-0.052997313
146	0xba75c3d1	-0.0009375187
147	0xbde0054d	-0.10938511
148	0x3d86d32b	0.06583246
149	0x3d808167	0.062746815
150	0x3db2da0c	0.087329954
151	0x3c36725e	0.011135666
152	0xbb8a632a	-0.004223247
153	0x3d16b63e	0.036794893
154	0xbda34af7	-0.07973283
155	0xbcce02a1	-0.025147738
156	0x3d8a1324	0.06741932
157	0xbdb42574	-0.08796206
158	0xbdaf1d38	-0.08550495
159	0x3d86dc64	0.06585005
160	0xbd266f12	-0.04063327
161	0xbdc0a3a8	-0.09406215
162	0x3d7decc6	0.061993383
163	0xbdf586ac	-0.11988577
164	0xbd6d0dad	-0.05787437
165	0xbdc02897	-0.09382742
166	0x3dbcd2a2	0.092198625
167	0xbc57aaff	-0.013163327
168	0x3dec2154	0.11529794
169	0xbd139ec0	-0.036040068
170	0x3d7d5891	0.06185204
171	0xbde6dc54	-0.11272493
172	0x3c36e19e	0.01116219
173	0x3d1f822f	0.038942512
174	0xbd678234	-0.056520656
175	0xbb7e4728	-0.0038799737
176	0x3c40ae3d	0.011760292
177	0x3dd73253	0.105076455
178	0x3cd0b5ad	0.025477255
179	0xbdf2098d	-0.11818228
180	0xbc69a960	-0.014261574
181	0x3dae4909	0.08510024
182	0xbddd453a	-0.108042195
183	0xbded842b	-0.11597475
184	0x3dbc845a	0.092049316
185	0xba31d186	-0.00067832356
186	0xbdcd30e6	-0.10019092
187	0x3d920819	0.07130451
188	0xbdc7ca36	-0.097553656
189	0xbb831165	-0.0039998763
190	0xbd47b55d	-0.048756946
191	0x3d751092	0.059830256
192	0xbdf36b30	-0.11885679
193	0xbd925091	-0.07144273
194	0xbc81360d	-0.015772844
195	0xbda41567	-0.08011895
196	0x3da27c92	0.07933916
197	0xbd930499	-0.07178611
198	0x3da66a4d	0.08125744
199	0xbdbb7c13	-0.09154525
200	0x3db9c3d0	0.090705514
201	0x3dc0d5a7	0.09415751
202	0x3b999eb0	0.0046881065
203	0xba04080c	-0.00050365995
204	0xbc9a53e6	-0.018838834
205	0xbdbba60f	-0.091625325
206	0x3dd93fea	0.10607894
207	0xbd898361	-0.06714512
208	0x3df509a9	0.11964733
209	0x3db2813e	0.08716057
210	0x3d72e108	0.059296638
211	0x3c1dc8a6	0.009630358
212	0xbd3bb031	-0.045822326
213	0xbb8d83d4	-0.0043186937
214	0x3db78ba6	0.08962183
215	0xbd8b2765	-0.06794623
216	0x3d892ed6	0.06698386
217	0xbd66cb65	-0.056346316
218	0x3d17d5f7	0.037069287
219	0x3da7e19d	0.08197329
220	0xbdc7930f	-0.09744846
221	0x3db801d0	0.08984721
222	0xbd6a0691	-0.05713517
223	0xbc92a169	-0.017899232
224	0x3da982de	0.08276914
225	0x3dbb25c3	0.09138062
226	0xbd843f2b	-0.06457361
227	0xbdebf8f1	-0.11522091
228	0xbd11cb95	-0.03559454
229	0x3db8cc38	0.09023327
230	0xbd63e2c2	-0.055636175
231	0x3d837511	0.06418813
232	0x3ce7553c	0.028238885
233	0xbc870182	-0.016480211
234	0x3d81b16c	0.06332669
235	0xbdf1f9ad	-0.118152
236	0x3d888cc3	0.06667473
237	0xbd2b4558	-0.04181418
238	0xbde5cc4e	-0.11220609
239	0x3d153f5c	0.036437377
240	0x3dbd7231	0.09250296
241	0x3abf06b9	0.0014574147
242	0xbda6e576	-0.08149235
243	0xbdf44e6c	-0.1192902
244	0x3dc9fc48	0.09862572
245	0x3cbae4c1	0.022814156
246	0x3dabc8af	0.08387887
247	0xbd922a69	-0.07136995
248	0xbd53a85c	-0.051674232
249	0xbd841637	-0.0644955
250	0x3de817fe	0.11332701
251	0xbdb7cddc	-0.089748114
252	0x3da2553f	0.07926416
253	0xbbad8f18	-0.005296599
254	0x3dc4ba6b	0.09605869
255	0xbd7e099d	-0.062020887
